models/0002.HK_lstm_SMA50_diff.pth (torch, 808517 bytes, 9 tensors)

lstm.weight_ih_l0 f4 [512, 4]
000000 d9 45 84 3d ef 02 84 bc 53 92 5a bd 62 a5 37 3d
       0.06458635 -0.01611468 -0.053362202 0.044835456
000010 d3 e8 b8 bc b2 b6 0d bd 1e 27 c6 3d 6d 0c 30 3b
       -0.022571957 -0.03459806 0.0967543 0.0026862875
000020 ea d6 8e 3d 9e c5 c5 3d 22 e8 cb 3c 83 df 66 3d
       0.06974585 0.09656833 0.024890963 0.0563655
000030 d9 be ec 3a 67 71 a7 bd ba ad ad bd 8a c1 a1 3d
       0.0018062248 -0.08175927 -0.08480401 0.07898243
000040 83 f3 da bc 39 c0 a8 bc c2 77 cb bc a1 47 9b 3d
       -0.026727444 -0.020599471 -0.024837378 0.075820215
000050 71 3d 57 bd 41 05 38 3d 46 16 de 3c bf 9f 29 3d
       -0.05254883 0.044926886 0.02711023 0.04141211
000060 55 33 84 3d b4 1d 64 3d 37 4e c8 3a 1c 45 cc 3c
       0.06455103 0.05569239 0.0015282099 0.024935298
000070 2e 83 c8 bc 31 3f 2f bc ab 0b f8 3a c5 50 b9 bc
       -0.024476614 -0.010696218 0.0018924376 -0.022621522
000080 6b 5d 1a bd d1 03 9f 3d cc a0 3f 3c 9f 57 66 3b
       -0.037686747 0.077644 0.011696052 0.003514744
000090 91 6e b2 3d ba 67 dd 3c 3c e0 a5 bc 9b a9 1a 3d
       0.08712495 0.027027 -0.020248525 0.037759405
0000a0 5d 87 9a 3d 0e 7e 0f bd ea 02 72 bd 7f aa 12 3b
       0.0754535 -0.035032324 -0.05908481 0.0022379456
0000b0 c2 9b 57 3d 43 c2 84 3d 93 7e 7b 3d 38 6d 7e bd
       0.052638777 0.06482365 0.061400007 -0.062115878
0000c0 b2 e8 c1 3d 85 69 fd 3d c3 ed c7 bc 16 ce 44 3d
       0.09468211 0.12373642 -0.024405366 0.0480481
0000d0 53 24 00 3d b8 c8 30 3d f3 97 b1 3d 9c a7 5b 3d
       0.03128464 0.04316017 0.0867156 0.05362664
0000e0 9e 82 b2 bc f0 c4 33 bd 7b 3e e1 3c 2f 96 06 bc
       -0.021790799 -0.043888986 0.027495613 -0.0082145175
0000f0 93 5d a2 3c 6a 88 8f 3d b1 f9 c0 bc 20 19 80 3d
       0.01982001 0.07008441 -0.023556562 0.06254792
000100 06 aa cc bc 00 13 97 3d 9b 78 c3 3d 6b f1 c7 3d
       -0.024983417 0.07376671 0.09544488 0.09762844
000110 b0 ea 10 bc 07 2b 3c bd 07 44 21 3d 48 2d 2a bb
       -0.008845016 -0.04593947 0.039371517 -0.002596693
000120 c4 a7 45 3d e6 3c 08 bd 79 44 65 3d ea 96 22 bd
       0.048255697 -0.033261202 0.055973504 -0.039694704
000130 c9 8b 25 bc eb ce 20 bd 22 67 d7 bb ef 85 79 3c
       -0.010104128 -0.039259832 -0.0065735737 0.015229686
000140 ed 1f 20 bc 78 c3 6c bb 56 db 57 3d 85 df 28 bb
       -0.009773237 -0.003612725 0.05269941 -0.0025767994
000150 c9 c9 98 3d 1a 8b 54 bd fa 05 9a 3d 25 17 8c 3d
       0.074603625 -0.05189047 0.07520671 0.06840352
000160 2a a1 a4 bc fb f5 6f bd 4a da 4f bc 8f 17 03 bd
       -0.02009638 -0.058584195 -0.0126863215 -0.03200489
000170 70 57 0f 3d a5 66 b6 3c f0 1c 5e bc 0e fd 09 bd
       0.034995496 0.022265742 -0.013556704 -0.033688597
000180 93 5f 2f 3c de 34 5a 3d 41 58 45 3c 57 06 7b 3d
       0.010703939 0.053273074 0.012044967 0.061285343
000190 b8 1b 15 3d 92 59 a7 bd 3b 3b 87 bc 55 a2 bf bc
       0.036403388 -0.08171381 -0.016507735 -0.023392836
0001a0 ff d0 53 bd 01 f2 8d 3d 7b 41 46 bc d9 e1 ad bc
       -0.051712986 0.06930924 -0.012100573 -0.021225857
0001b0 bf 41 1a 3d f4 59 f8 3d ba 73 03 bd 36 32 ab 3a
       0.037660357 0.12126532 -0.032092787 0.0013061229
0001c0 50 36 1c 3c ff d5 b4 3c f6 28 de bc 84 69 c5 3d
       0.0095344335 0.022074698 -0.027119141 0.09639266
0001d0 78 c7 06 3d 29 60 60 3d ef aa 59 bd 82 3b 12 bd
       0.032905072 0.054779205 -0.05314153 -0.035701282
0001e0 31 e3 0b bd 74 50 17 bd e5 fb 01 bd 9c 8a 4c bd
       -0.034152213 -0.03694196 -0.031734366 -0.049936876
0001f0 73 6e 50 3d 6a 05 80 3c 17 cd 8c 3d af 86 6b 3d
       0.050886583 0.015627582 0.06875055 0.05750149
000200 85 80 07 bb d0 6c 5e bc c5 68 26 3c dc d1 49 bc
       -0.002067597 -0.013575748 0.010156815 -0.012318101
000210 42 fc 92 3d 01 e1 67 bc f1 75 a3 3c 0a 3b 27 bb
       0.071770206 -0.014152766 0.0199537 -0.0025517368
000220 23 66 4c bc 54 c6 f1 3c ea ce 1c bd 46 93 33 bd
       -0.012475523 0.029513516 -0.038283266 -0.043841623
000230 24 a8 78 bd 87 83 98 3d 7b 92 49 3d 49 24 7b 3d
       -0.060707226 0.07446962 0.04921196 0.0613139
000240 1e 51 3b bc 62 fb 73 3b 64 a2 a6 3d bb 21 89 bd
       -0.011432914 0.0037228693 0.08136442 -0.06695887
000250 c1 e6 a5 bd be d7 19 bd f9 3b 1a 3d fa d3 a2 3b
       -0.081006534 -0.037559263 0.03765485 0.004969117
000260 90 75 2a bd a9 92 94 bc 0d 9a de b9 38 ec 83 3d
       -0.041616023 -0.01813634 -0.00042457916 0.064415395
000270 49 5d 79 bd 3b d1 db bc 1a 10 b3 bc 5c e1 86 3b
       -0.06087998 -0.026833167 -0.021858264 0.0041162204
000280 f0 05 a7 bd b6 4c 15 3d 20 a0 39 bd e9 31 df ba
       -0.08155429 0.03645011 -0.045318723 -0.0017028424
000290 f7 d0 b9 3d a3 b9 2f 3d df 6f b0 3c ad af 2e 3c
       0.0907306 0.042901646 0.02153772 0.010662002
0002a0 ec 46 bb 3d 98 08 85 3d 5c 88 b8 bd af a8 63 3d
       0.09144387 0.0649578 -0.090103835 0.05558079
0002b0 2f 93 a2 3b e0 51 8e bd fe a8 54 bd 62 de 30 bd
       0.0049613933 -0.0694921 -0.051918976 -0.04318083
0002c0 84 e2 4f bd ce 38 85 3c af c5 7b bd 3a 9f bd bd
       -0.05075313 0.016262438 -0.061467823 -0.09258886
0002d0 d1 4d 8e 3d 20 7f 08 bd 41 e6 80 ba 3a b6 77 bd
       0.06948436 -0.03332436 -0.0009834246 -0.06047652
0002e0 44 77 e0 3d 95 47 a0 3d b3 74 d8 3d 34 13 82 bd
       0.10960248 0.07826153 0.105691336 -0.06351319
0002f0 cf a0 9b bd 20 22 bc bc 62 9d e2 bc a9 f1 97 bd
       -0.07599031 -0.02296549 -0.027662937 -0.0741914
000300 72 7c 20 bd 74 a0 39 3c 71 a3 a3 3d 45 fd c6 3d
       -0.03918118 0.011329759 0.07990158 0.09716276
000310 b5 c1 e7 3d 17 96 88 3d d3 2f d9 3c ac 9f 71 3d
       0.113162436 0.06669252 0.026512062 0.058990166
000320 b3 70 19 3d ea 62 9c 3d 84 61 26 3d 73 2e 3f 3d
       0.037460994 0.07636054 0.040620342 0.046675157
000330 ca 65 74 bd 66 28 58 3d 7a 18 76 bc ba 57 17 bd
       -0.059667386 0.052772902 -0.015020484 -0.036948897
000340 2a 21 c9 3d 92 01 2d bd 47 f2 67 bc b5 22 12 3d
       0.09820779 -0.042237826 -0.0141568845 0.03567763
000350 b9 43 64 3d 2e 9d 93 3d 21 75 96 3d d0 84 87 3b
       0.055728648 0.07207714 0.07346559 0.0041357055
000360 7f 22 5b 3d 3a 29 88 bd d1 d6 94 3d d6 80 49 3d
       0.053499695 -0.06648488 0.072675355 0.049195133
000370 5a a5 dc 3b 8f 3c b9 bc 3e 42 69 3d e9 33 4c 3c
       0.0067335786 -0.022611884 0.05694794 0.012463548
000380 8c 38 a6 3d 27 82 52 bc 97 d1 87 bd 36 64 05 bd
       0.08116254 -0.012848414 -0.06631773 -0.03256627
000390 49 4b 57 3d 4b 3f 66 3d ac aa a9 3d 75 19 04 3d
       0.052562032 0.056212705 0.08284506 0.03225084
0003a0 09 30 19 bd e1 c4 1b 3d 7b 94 b7 3c 98 a3 a4 bc
       -0.037399326 0.038029555 0.022409668 -0.020097539
0003b0 7f 00 de 3b 84 cc ae 3d b4 69 bb 3d 93 a5 08 bd
       0.0067749615 0.08535102 0.09151021 -0.03336103
0003c0 4f fc ba bb 94 12 f6 3b 97 46 29 3c 8e e1 fb bc
       -0.005706347 0.007509539 0.010331771 -0.030747201
0003d0 97 d5 9d bd c8 22 26 bd 11 aa b5 bd c1 1e bd 3c
       -0.07706755 -0.040560514 -0.08870328 0.023085954
0003e0 ac 51 f7 3c 5c c4 7e 3d 71 8a 91 bd 4b 81 8c bd
       0.030190311 0.06219898 -0.07106484 -0.06860598
0003f0 05 eb 44 3d 04 e4 7a bd 81 3a 88 3c 6b 87 9d b8
       0.048075695 -0.06125261 0.01662946 -7.511567e-05

lstm.weight_hh_l0 f4 [512, 128]
000000 54 a1 24 3d de 2a 10 bc 62 5b 35 3c 65 fb 12 be
       0.040192917 -0.008799283 0.011069151 -0.14353712
000010 14 b9 22 bd 99 57 47 3d 17 9a 0a 3c 57 75 1e 3d
       -0.039727286 0.048667524 0.008459589 0.038686123
000020 03 12 1f bd 31 8d 6a 3d 32 90 66 ba 7f 72 22 3d
       -0.038835537 0.057263557 -0.00087952905 0.039659973
000030 02 1b 0e bc 12 bd 16 3d 37 68 ca 3c 8e dc bd bc
       -0.008673431 0.036801405 0.024707897 -0.023176458
000040 a2 6a f7 bd ff e6 36 3d e0 e2 42 3d cc 99 6e 3d
       -0.120808855 0.04465389 0.047579646 0.05825214
000050 d1 c0 9f 3d 2f 87 01 be 3f 67 c1 bd ff a1 2a be
       0.07800449 -0.12649225 -0.09443521 -0.16663359
000060 5f 21 8a bc f1 d0 92 bc d0 af f1 3d 16 fc 9c 3d
       -0.016861616 -0.017921897 0.11801112 0.07665269
000070 3b cb 07 bc 74 c0 4f bd 92 5a e5 bd 03 4c 58 bd
       -0.0082882 -0.050720647 -0.111989155 -0.052806865
000080 ec 49 1d bc d8 17 cf bc 32 b7 a3 bb ad 88 da 3d
       -0.009600144 -0.025279924 -0.004996204 0.106706
000090 d7 28 66 bd 80 a2 ac 3b 1f 26 ab 39 9d 89 a3 3c
       -0.05619129 0.005268395 0.00032644064 0.01996308
0000a0 8a ce 77 bd bb e2 54 bd 2d 90 2f bd fa 96 2c 3c
       -0.060499705 -0.05197404 -0.042862106 0.0105340425
0000b0 48 00 03 3e 34 e5 80 bd 1a be d5 bd 58 5b 1d bd
       0.12793076 -0.06293717 -0.104366496 -0.03841719
0000c0 d5 43 0c 3d b3 3a 21 be 6b 98 c0 bd f3 84 38 bd
       0.034244377 -0.15745048 -0.094040714 -0.045048665
0000d0 59 ce 74 bc 85 68 38 bc 13 41 20 be f7 67 c9 bd
       -0.014941775 -0.011255388 -0.15649824 -0.09834283
0000e0 83 d5 ca bd ae 30 03 3b 82 9c 37 bd a0 cc 36 3b
       -0.099040054 0.002001803 -0.04482699 0.0027892962
0000f0 03 a5 f4 3d 56 75 2c bc 17 fa b0 ba 71 4b 73 3d
       0.11945536 -0.010526022 -0.0013502267 0.05939812
000100 55 c0 62 3d 38 e5 a7 3d 1b dc be bc c2 f7 91 bc
       0.055359203 0.08198017 -0.023298314 -0.017818335
000110 54 43 9e 3c bd ac c6 3d 7b 1e 59 3d 37 c8 28 3c
       0.019319214 0.09700916 0.053007584 0.010301641
000120 c7 39 71 3d a3 8c 01 bd 35 5b b7 bc e6 82 ff 3d
       0.05889299 -0.031628262 -0.022382358 0.12476139
000130 b1 0c 7c bc ef d4 ca 39 53 b6 04 bd b0 fe 5c bd
       -0.015383885 0.0003868709 -0.03240044 -0.053953826
000140 76 3f bf bb 6f cb 52 3d 60 15 42 bd 7c 73 84 3c
       -0.0058364226 0.05146354 -0.047383666 0.016168348
000150 4e 39 18 be 20 72 96 bd c0 ac 4d 3d fd 4f f8 bd
       -0.1486561 -0.07345986 0.050213575 -0.121246316
000160 b4 e9 0e be cc 13 26 3e 2a 34 94 bd 3d 96 dc bd
       -0.13956338 0.1621849 -0.07236512 -0.10770843
000170 27 04 b5 3d f1 31 7a bc fe 09 98 bd 03 97 a0 bd
       0.088386826 -0.015270696 -0.07423781 -0.07841303
000180 74 e6 3e bc ea ab 45 bd 3f 2c ff 3d 16 f6 b1 3d
       -0.011651624 -0.048259653 0.12459611 0.08689515
000190 da 4f eb 3c 92 de d0 3d 8c 86 b8 bc 59 18 9f bd
       0.0287246 0.10198702 -0.022525094 -0.07768316
0001a0 75 7c 68 3d 89 1e b1 3d 5b a8 85 3c 12 0d 9b bb
       0.056759316 0.08648402 0.01631563 -0.0047317827
0001b0 c2 83 da bd a0 f1 80 bc 13 75 2d 3d 19 53 57 3d
       -0.10669662 -0.015740216 0.04234798 0.052569482
0001c0 be f5 98 3d 50 80 43 3c 4c e8 bf bd 35 d1 c3 bd
       0.074687466 0.011932448 -0.09370479 -0.095613874
0001d0 d2 ac 45 bd ab 94 d3 bd ef b1 d9 3c 2d 92 da 3c
       -0.048260517 -0.103310905 0.026574103 0.02668103
0001e0 1b 68 eb 3d 23 e2 e3 ba 1f 23 c2 bc af 01 77 3c
       0.11494466 -0.001738612 -0.023698388 0.015076085
0001f0 61 f4 5c bd 13 85 f9 3c 9b 01 06 3d f5 59 ff 3d
       -0.053943995 0.030458963 0.032716375 0.1246833
000200 51 35 e2 3d 2f bc a3 3c e7 6c 46 bc 48 55 1f bb
       0.110453255 0.019987194 -0.012110925 -0.0024312306
000210 d7 c3 8a bd cc 7d fe bc db 05 8c bc 95 fd d7 bc
       -0.06775635 -0.031065844 -0.017092636 -0.026366035
000220 17 af 0a 3d d3 c0 7b bd a8 3b 07 3d 28 ef 6e bc
       0.033858385 -0.06146319 0.033015877 -0.0145833865
000230 3c 14 c5 3c cb c6 ea 3b 64 39 23 bd bf cf 31 3d
       0.0240575 0.0071648112 -0.039849654 0.043411013
000240 9e e8 49 bd c0 f5 9b bd 20 59 56 3d ca 55 6b bd
       -0.049294107 -0.076152325 0.05233109 -0.05745486
000250 fc 23 9c bd e5 14 28 3d e5 30 8c bd 3f 0d ab bd
       -0.07624051 0.04103555 -0.068452634 -0.08352136
000260 a3 fe 84 bd a2 94 e3 3c a8 7d a2 bd 6f ce 62 3d
       -0.064938806 0.027780835 -0.07934123 0.05537265
000270 40 36 2a bd 43 4c 9b bd 4a f2 85 3d 8b ba 23 3d
       -0.041555643 -0.07582905 0.065403536 0.039972823
000280 14 0e de 3d 99 37 9c bc 26 76 ae 3d 47 0a 9c bd
       0.10842529 -0.01906948 0.08518629 -0.07619148
000290 3b b9 9c 3d b5 4e a1 bd 36 c6 62 3d 8d 4f a8 3d
       0.076525174 -0.0787634 0.05536481 0.08218298
0002a0 13 a9 aa bd 20 13 0d 3b b3 74 04 3c b2 de ae bd
       -0.083330296 0.0021526292 0.008084464 -0.085385695
0002b0 c0 79 74 3d 0f 88 b7 3d 18 03 45 bd 99 5d 0f 3d
       0.059686422 0.08961498 -0.048098654 0.03500137
0002c0 8d 1a 3c bd fd fa c4 bd be 6a c3 3c e2 f7 a5 bd
       -0.04592376 -0.09618185 0.02385461 -0.081039205
0002d0 7d 43 7d bd b2 e3 5c 3d 04 d9 76 3d a6 9b 79 bb
       -0.06183194 0.053928085 0.060265556 -0.0038087158
0002e0 05 79 3a bd 0a 25 82 3d 93 ca 33 3d bc a4 98 bb
       -0.04552557 0.06354721 0.04389436 -0.0046583097
0002f0 ca f9 63 bd ab 65 05 3d 12 f9 8b bc b0 68 10 3d
       -0.05565814 0.03256766 -0.01708654 0.035256088
000300 50 13 c5 3d 84 ef a0 bd 77 0c 0d 3d de ad 62 3d
       0.09622824 -0.07858184 0.034435716 0.055341594
000310 6b d9 0b bd 62 68 a3 3d bc 41 73 bc 1b 7a 38 bd
       -0.034142893 0.07978894 -0.014847215 -0.045038324
000320 28 1b 19 bc 62 38 f1 bd 5e b8 af bd ec 9d 13 bd
       -0.009344853 -0.11778332 -0.08580087 -0.036039278
000330 de 55 62 bd 0a 9e 22 bd 31 3c a4 3d 07 e5 c2 3c
       -0.05525767 -0.0397015 0.08019293 0.02379085
000340 69 2f 5d bd 25 fe 1d bd e6 e8 fa 3c 8e 13 da 3c
       -0.054000292 -0.03857245 0.030628633 0.026620653
000350 2b cf af bc 71 36 d1 bb 2d 66 c6 3d c1 18 4c 3d
       -0.02146109 -0.0063846637 0.09687457 0.049828295
000360 2e 55 96 bc 8e 7e 99 3d 0c 79 63 bd 30 f6 18 3d
       -0.018351164 0.074948415 -0.05553536 0.037344158
000370 7b 0f fe bc 9a e1 3c 3d 62 65 3d bd c6 82 b2 3d
       -0.031013241 0.046113588 -0.046239264 0.08716349
000380 7d 32 d4 ba ca 8c 3e 3c e0 2b 8d bd 86 bd 91 bd
       -0.0016189363 0.011630246 -0.06893134 -0.07116227
000390 fe 61 80 bd 1c 22 c1 3d f1 ca 89 bb a0 6f 3f 3d
       -0.062686905 0.09430334 -0.0042051007 0.046737313
0003a0 a0 e9 9a bd b0 d0 2f bd bd 19 55 3d b2 d1 1e 3d
       -0.07564092 -0.04292363 0.0520265 0.0387742
0003b0 e9 de 04 bd 92 0b 36 3d f0 06 92 bc 3e 46 9a bd
       -0.032439146 0.044444628 -0.017825574 -0.07532929
0003c0 e9 41 b4 3c de b2 6f 3c 83 f9 8c 3d 12 29 59 bd
       0.022004085 0.014630048 0.06883528 -0.053017683
0003d0 d0 f7 51 bd ff 8d 04 3d 4e 2a 04 3d 04 db 76 bd
       -0.051261723 0.03236198 0.032266907 -0.060267463
0003e0 47 d8 1a bc 07 15 41 3c 33 4e 0e 3d 21 b8 af bd
       -0.009450979 0.0117847985 0.034742545 -0.08580042
0003f0 d8 3a 3d 3c c3 39 2f 3c 8e 9c 4d 3c 61 7c 02 3d
       0.011549674 0.010694924 0.012549533 0.0318569

lstm.bias_ih_l0 f4 [512]
000000 d1 d9 90 3d b6 9e 7e 3d 04 3f 7b 3d c8 cd f0 bc
       0.07072795 0.062163077 0.061339393 -0.029395
000010 4a 07 21 bd 7c 3f 97 3d 83 17 9d bd 13 5f ee 3c
       -0.039313592 0.073851556 -0.076705 0.02909807
000020 92 04 b6 ba 9c 0e e7 3d cb bd 60 3d 2c 10 63 bd
       -0.001388686 0.112820834 0.0548685 -0.055435345
000030 bf 34 e2 3d b7 38 93 3c 8a b4 30 3a c9 f9 f7 bc
       0.11045217 0.01797138 0.00067407696 -0.030270474
000040 9d a3 e1 3d 1b 7d 7a bc a6 cf fc 3c a7 30 96 3d
       0.11017535 -0.0152886165 0.030860733 0.073334984
000050 34 da ce 3c 87 31 8e bd ba 56 a9 bd dd 6c 5a 3d
       0.025250532 -0.0694304 -0.08268495 0.053326476
000060 8f ff 22 bd 74 35 2f 3d 6a c5 1c 3d 45 99 74 3c
       -0.0397945 0.042775586 0.038274206 0.01492912
000070 80 fb a1 bc 6e a9 21 bc e4 0a 14 bd 93 ae c4 3c
       -0.019773245 -0.009867055 -0.0361432 0.024009025
000080 f8 c6 bf bc 31 94 30 3d 00 87 0a bd 6e 13 19 bd
       -0.023410305 0.043110076 -0.033820152 -0.037372045
000090 9b 72 10 bd 5b 5e 39 3d c3 cd fe bc da 3e a4 3b
       -0.035265546 0.045256 -0.031103974 0.0050123753
0000a0 bd b9 bb 3c eb df ec 3b d1 bd 18 3d 62 02 2d 3c
       0.022915715 0.0072288415 0.037290398 0.01055965
0000b0 dc 1c b6 bd 20 94 32 3b 3d d3 a8 bc 71 0e aa 3d
       -0.08892223 0.0027248934 -0.020608539 0.08303536
0000c0 5b 99 02 bd 6d ef 29 bb b0 9c 62 bd 85 dc c6 bc
       -0.031884532 -0.0025930062 -0.05532521 -0.024275074
0000d0 70 20 3c bd 4a 72 e3 3b 53 d8 55 bc 5c 02 55 3c
       -0.045929372 0.0069411146 -0.013052064 0.013001051
0000e0 82 7f 80 3c 5d ef 1a 3d f2 cf 9d bc 6b 69 ba 3d
       0.0156858 0.03782593 -0.019264195 0.09102138
0000f0 b4 33 3f 3c 2b 88 b3 3c 07 8f aa bc c1 61 01 bd
       0.011670042 0.021915516 -0.020820154 -0.031587366
000100 64 96 97 3c ae 81 48 38 70 e3 a7 3d 05 4b 8b 3d
       0.018504329 4.780449e-05 0.08197677 0.06801418
000110 36 3e 3d 3c d3 97 f0 3d 46 7a 49 3c 70 ec 9a bd
       0.011550477 0.11747708 0.012297219 -0.07564628
000120 6a 9e 40 3d 0b 43 a0 3e 79 23 ec bb 34 7a 9b 3d
       0.047026075 0.3130115 -0.007206377 0.07591668
000130 7f 43 0c bd a9 11 c7 3d 1c 88 0e 3d e3 1d 8b 3d
       -0.034244057 0.09720165 0.034797773 0.0679281
000140 c3 8d 05 bd 5d 97 61 bd 86 ce 1a 3c f9 9f a1 3d
       -0.032605898 -0.055075992 0.009448653 0.078918405
000150 94 4d dd 3d 82 33 d0 3c 3b 0b 96 bc c9 51 3f 3e
       0.108058125 0.025415186 -0.018315902 0.18683542
000160 89 40 a9 bc 99 f9 99 3d 6a db 9d 3d a8 d6 c9 3c
       -0.020660656 0.0751831 0.077078655 0.024638489
000170 65 9d 82 bd d5 b7 c2 3c fa 6a 26 3d fd 7b 58 bd
       -0.06377677 0.023769299 0.040629365 -0.05285262
000180 37 9c 07 3d 86 e7 4f 3d 5f e1 19 bd c5 f4 8f bd
       0.033107962 0.050757907 -0.037568446 -0.07029108
000190 9d 1d 35 3c cb 4d 45 3d 00 34 32 bd 27 4a 69 bc
       0.011054424 0.048169892 -0.043506622 -0.014238871
0001a0 e3 12 d9 3c 60 bb 9e 3d 37 85 23 3d 33 99 55 bd
       0.026498264 0.07750583 0.039921965 -0.052148055
0001b0 d8 ca 61 bc c2 5e e4 3d fc d4 60 bd b3 ab 2a 3d
       -0.013781272 0.11150886 -0.054890618 0.04166765
0001c0 09 d5 bc 3d 89 cb 8f 3c 8f b6 3c bd 36 b4 ac 3d
       0.09220321 0.017553108 -0.04607254 0.0843281
0001d0 6b 0a df 3c fd 89 cc bc 92 13 2d 3e ab 54 49 3d
       0.027226647 -0.024968142 0.16901997 0.04915301
0001e0 26 62 94 bd 60 29 33 3d ce 21 18 3d 13 8f 9a bd
       -0.07245283 0.04374063 0.037141614 -0.075468205
0001f0 70 6d c4 bc 0c e1 a9 bd 73 74 07 3d 62 24 25 3d
       -0.023977965 -0.082948774 0.03307004 0.0403179
000200 7c 1a 84 bc 9f 7f 86 bd 7a a5 33 bc 73 08 0a bc
       -0.01612591 -0.065673105 -0.010964746 -0.008424866
000210 39 5d 9f 3c f8 80 46 bc 30 c9 0a bd 4e 5b 37 bd
       0.019453632 -0.0121157095 -0.033883274 -0.04476481
000220 46 67 a4 bd bb b4 f0 bc 41 d7 e1 bc a6 9e 80 bd
       -0.0802751 -0.029383054 -0.027568461 -0.0628026
000230 75 27 05 bd da 9c c2 3c 86 20 a9 bd 5c 35 57 bd
       -0.032508332 0.023756433 -0.082581565 -0.05254112
000240 18 11 47 bd cc 76 5d 3d 90 6d fb 3c 3d 6a 6f bd
       -0.048600286 0.05406837 0.030691892 -0.058450926
000250 1b 59 0d 3d a8 9a 21 3d de 23 70 3b 2c 3b 7a 3d
       0.034508806 0.039454132 0.0036642472 0.061091587
000260 ce 45 20 bc a7 92 ad bd 5d d5 82 3d 5e 7d 45 3d
       -0.009782268 -0.08475237 0.06388352 0.048215263
000270 90 7d 1f 3d d6 81 2b 3d 9f 1b fe bc b4 7e 86 3d
       0.038938105 0.041871868 -0.03101903 0.065671355
000280 2d 40 67 3d 1e df 30 3a 90 98 7a bd 43 c2 59 bd
       0.056457687 0.0006747114 -0.06118065 -0.053163778
000290 fe 23 ad bd 54 fa e7 bc 74 6a 8e 3d b0 f6 a7 bc
       -0.084541306 -0.028317608 0.06953898 -0.020503372
0002a0 2d 1a 5d bd fe c4 b4 bc a3 8e ac bd 6a 08 13 bd
       -0.05398004 -0.02206659 -0.08425643 -0.035896696
0002b0 3e 3c 3b 3c 06 b6 93 bd c3 fc 6d 3d 3c be a6 3d
       0.011427937 -0.072124526 0.05810238 0.08141753
0002c0 58 ea bd 3d 6b 75 34 bd b7 7e 07 bd f3 98 c5 bb
       0.09273213 -0.04405729 -0.03307983 -0.006030196
0002d0 de 20 15 3d 7e a8 0a bb ad 7f e3 bc 23 2d b1 bd
       0.036408298 -0.0021157558 -0.027770841 -0.08651187
0002e0 63 34 4b bd 5e c4 2d 3d d6 fd f1 3c 3b 25 4a bd
       -0.049610507 0.0424236 0.029539984 -0.049351912
0002f0 62 f7 9e 3d b3 6e 6f bd e0 8d 7b bd ec 1c 68 3d
       0.07762028 -0.05845518 -0.0614146 0.056668207
000300 01 f4 a8 bd cd f3 d6 3c df 73 2d 3d 33 03 8e bd
       -0.08249665 0.0262393 0.04234683 -0.06934204
000310 13 b5 9b bd 4a a1 d1 bc c1 f1 b9 3d 47 b7 a0 bc
       -0.076028965 -0.025589604 0.09079314 -0.019618643
000320 48 f1 2e bd 67 07 bd 3c ff d6 01 bd e5 e1 25 3d
       -0.042710572 0.023074819 -0.031699177 0.040498633
000330 fc c1 aa 3d 7c f3 14 bd bf 9c 80 bd 8f 4c 90 3c
       0.08337781 -0.036365017 -0.06279897 0.017614631
000340 5a 06 51 3d 27 f6 59 3b fc 05 de bc 3a 00 9e bc
       0.051031448 0.003325829 -0.027102463 -0.019287217
000350 64 dd 70 3d be 0b b0 3b e8 36 22 3d a8 6d 93 3c
       0.058804885 0.0053724935 0.039603144 0.017996624
000360 15 a1 05 3d 28 36 95 bd 93 93 6c 3d 4f cc ed bc
       0.032624323 -0.0728572 0.057757925 -0.029028086
000370 9c 49 8e bd 02 1f b0 bd bf 9f 59 3c 24 1b 8f bd
       -0.069476336 -0.08599664 0.013282715 -0.069875985
000380 ba 41 b2 3c 2f 89 56 bc ed 38 b7 bd df 46 20 bd
       0.021759856 -0.013094231 -0.089464046 -0.039130088
000390 64 85 ff 3b df d3 6f 3d f1 12 ba 3c bd 6f 63 3d
       0.007797884 0.058551665 0.02271411 0.055526484
0003a0 f5 33 9c bc 7b c2 e6 3c 58 8b 67 3d 56 75 5b 3d
       -0.019067744 0.028168907 0.056529373 0.053578697
0003b0 c8 4c a6 3c 00 65 66 bd e3 7d cb bc 45 7a 95 bd
       0.020300284 -0.056248665 -0.0248403 -0.07298712
0003c0 01 9c 00 3d c4 5d 61 3d b9 b5 2b 3d 24 51 a3 3d
       0.031398777 0.055021062 0.04192135 0.07974461
0003d0 cf 8d a8 3d c0 74 af bd 48 d0 b1 bb 87 27 80 bd
       0.08230173 -0.0856719 -0.0054264404 -0.06257539
0003e0 ab b4 a3 3b be 3f 93 3d 07 66 71 3d 25 84 a1 bd
       0.0049959025 0.07189892 0.05893519 -0.07886533
0003f0 fd 09 b5 3d 08 12 84 bd 18 cf 95 3d 74 68 b1 bd
       0.08839796 -0.06448752 0.073148906 -0.08662501

lstm.bias_hh_l0 f4 [512]
000000 8a 8e 80 3d d8 32 64 bc 60 f3 27 bd 65 79 9c 3d
       0.06277187 -0.013928138 -0.041003585 0.07640342
000010 00 82 a4 bd b0 a3 27 bc d5 ab 74 3d d4 02 5c 3c
       -0.08032608 -0.010231897 0.059734184 0.013428409
000020 51 e7 ca bb 93 9c 3d 3d f3 91 9f bd 1a 09 37 3d
       -0.006192126 0.0462919 -0.077915095 0.044686414
000030 2b 53 da 3d e5 b2 5e 3d 13 30 96 3d db ec 4f bd
       0.10660394 0.054369826 0.07333388 -0.050762992
000040 c0 c4 af 3d 45 f3 86 3c 1c d7 14 bd df 58 96 bd
       0.08582449 0.016473422 -0.036337957 -0.073411696
000050 4a 46 96 bd 8f af 67 bd 64 69 a2 3d 9d 50 99 3d
       -0.07337625 -0.05656391 0.07930258 0.07486079
000060 63 04 bf 3b 05 eb 93 3d 97 ed 5d 3c 2b d5 15 3d
       0.0058293804 0.07222561 0.013545415 0.036580246
000070 e3 d3 67 3d 92 5b bd 3d 1e b8 36 bd 37 64 34 3b
       0.056598555 0.09245981 -0.04460918 0.0027525553
000080 06 3e 38 bd 94 0b 27 bb fb 6b 2a bd 35 c1 d1 3d
       -0.044981025 -0.0025489079 -0.041606884 0.102419294
000090 41 f9 83 3d 33 44 4e bd 00 aa 80 bc c6 96 21 3b
       0.06444026 -0.05035801 -0.015706062 0.0024656518
0000a0 64 94 90 bd e6 b6 b2 3b 3d 7d 8f bd 58 7e 46 bd
       -0.07059553 0.005453932 -0.07006309 -0.048460335
0000b0 4b 63 94 bd cb f9 b2 bc d1 ef a2 3d f7 99 16 3d
       -0.07245501 -0.021847626 0.079558976 0.036767926
0000c0 bd 81 92 3d 38 12 76 bd b0 e5 cb bc 9f d2 35 bc
       0.07153652 -0.06007597 -0.024889797 -0.011097579
0000d0 21 91 87 3d b0 34 25 3d de 3b b8 bc fd cf 2e 3d
       0.06619478 0.04033345 -0.022489484 0.04267882
0000e0 fb 23 96 bd e7 8b d8 3c 25 0f 89 bd f8 53 09 3d
       -0.073310815 0.026433898 -0.06692342 0.033527344
0000f0 72 ff da bc ee 85 0d 3d ff 1f 8b 3d 2f 67 16 bb
       -0.026733134 0.034551553 0.06793212 -0.0022949686
000100 2c e2 8e bc 96 5a f9 bc 77 f8 c3 3b 4e e2 f2 3b
       -0.017441832 -0.030438703 0.005980547 0.0074122315
000110 4b 0a ad bd 3a 49 f1 3d 81 45 d1 3d 5f af 9b bd
       -0.08449229 0.11781545 0.10218335 -0.07601809
000120 54 7d 64 3d ad a5 84 3e a6 9e 10 bd 07 1d 91 3d
       0.055783585 0.2590765 -0.03530755 0.07085615
000130 e0 66 a0 bd 8b b9 f8 bb 40 43 a0 3c cb 6f a6 3d
       -0.07832122 -0.007590478 0.019563317 0.081267916
000140 39 81 17 bd a8 76 b0 3d 89 29 84 3d bb e2 44 3d
       -0.03698847 0.08616382 0.06453235 0.04806779
000150 0f 75 eb 3c 6d 7c 36 bc 50 89 64 bd e2 e8 4f 3e
       0.028742341 -0.011138064 -0.055795014 0.20303681
000160 3e 03 ef bc fe 0b 89 3d e5 d5 59 bd 7c d8 45 bc
       -0.02917635 0.066917405 -0.0531825 -0.01207554
000170 98 1d 0c bd 4c 69 26 bd e4 70 73 3d 16 46 9c bd
       -0.03420791 -0.040627763 0.059433833 -0.07630555
000180 cf f3 c2 bc 0e ae 6b bd 62 84 3d bd 25 b1 ff bc
       -0.023797898 -0.05753904 -0.04626883 -0.031212399
000190 7c df 89 bd 76 5c bb 3d b1 6a 86 3d db c9 19 3d
       -0.067320794 0.09148495 0.065633185 0.03754602
0001a0 45 20 92 bd d6 b7 55 3d a3 af a2 bd f2 f9 2c 3d
       -0.07135061 0.052177273 -0.07943656 0.042230554
0001b0 a1 d1 d3 3c ef 89 a8 bc c1 6d fb 3c 78 38 cc 3b
       0.025856795 -0.020573584 0.030691983 0.0062323175
0001c0 b9 d7 5b bc d3 87 89 3c 52 5b 75 3d 6c ae 80 3d
       -0.0134181315 0.016788399 0.059901543 0.06283268
0001d0 37 3b 91 bd 75 c0 43 bd aa 67 30 3e 6f 1b c0 3d
       -0.070913725 -0.047790963 0.17227045 0.093802325
0001e0 83 01 62 3d cb 0b 8b bc c1 69 80 bd 66 73 1c bc
       0.055177223 -0.016973397 -0.06270171 -0.0095489975
0001f0 7f c5 8b bd 8d e9 91 bd fd 50 28 3d d8 ee 8a 3d
       -0.06824779 -0.071246244 0.04109286 0.06783837
000200 b3 3a dd 3d f5 58 d2 3c fe 34 d5 3c 73 49 36 bd
       0.108022116 0.025677184 0.026026245 -0.04450364
000210 1f b7 a8 bd de 99 da 3b 99 2a a3 bc 4c 2c 83 3d
       -0.082380526 0.0066711744 -0.019917773 0.06404933
000220 78 da 02 bd e6 df 24 bb 72 87 56 3d 82 bc 99 bd
       -0.03194663 -0.0025157868 0.052375264 -0.07506658
000230 4d 32 37 bd a0 07 81 3d 68 51 5e bd 4b 1e 99 bd
       -0.044725705 0.063002825 -0.054276854 -0.07476481
000240 64 a0 4f 3d 3a 30 60 bd bf dd 8b 3d c1 88 1f 3d
       0.05069007 -0.054733492 0.06829404 0.038948778
000250 ff 57 86 3d dc 4b c4 3b e1 8e a4 bd 8a 3f b7 bd
       0.06559753 0.0059904885 -0.080350645 -0.08947666
000260 42 45 71 3d ba f7 93 bd dc 89 69 3d 0f d5 1c bd
       0.05890394 -0.072249845 0.05701624 -0.038289126
000270 cc 54 78 3d 55 e2 4a 3d 46 d4 2e bb c0 ce 84 bd
       0.060627744 0.049532253 -0.0026676818 -0.06484747
000280 b6 9a d9 3c 8e 16 a1 3c c1 32 53 bc 73 8b a5 3d
       0.02656303 0.019664075 -0.012890519 0.080832385
000290 00 8b 13 3d ae 80 a4 bd 5b db 85 bd ff 78 47 3d
       0.036021233 -0.08032356 -0.06535979 0.048699375
0002a0 48 4d 85 bd 5b 0f 63 bd bc 03 f5 3b c7 c8 f8 3c
       -0.06508881 -0.055434566 0.007477252 0.030369176
0002b0 f2 24 c9 bd 05 82 69 bd c7 9e ab 3d 4c 3d 5e bc
       -0.098215 -0.057008762 0.08379894 -0.013564419
0002c0 04 d4 69 3d 10 4a c1 3d 3e 89 46 bd cf d3 82 bd
       0.05708696 0.094379544 -0.048470728 -0.063880555
0002d0 7f 8e 9c 3d a6 22 76 bd 4c 9a 31 3d 68 ee a2 bd
       0.076443665 -0.060091637 0.04336004 -0.07955629
0002e0 6e 58 11 bc e7 85 5c 3d 6b d5 b9 bd e8 bf 51 bd
       -0.008871181 0.053838637 -0.09073909 -0.051208407
0002f0 6d 8f 3a 3d b3 5d 4a 3d 9e 05 1a 3d 31 9b 58 bd
       0.045546938 0.049405765 0.037603013 -0.052882377
000300 8b c0 c2 bd d2 c6 0d 3d 2e 7b 80 3d b4 bd 25 3b
       -0.09509381 0.034613438 0.06273495 0.0025290074
000310 e9 02 1d 3d b2 d7 86 3d 2f b4 21 bb 01 47 16 bd
       0.038332853 0.06584109 -0.0024674048 -0.03668881
000320 38 8c 28 bd fe 86 ef 3c d0 26 2c 3b 4e 18 d3 3c
       -0.041149348 0.029239174 0.0026268251 0.025768425
000330 94 96 99 bd 82 66 9e 3c 63 38 e8 bc 6c 7d 00 bd
       -0.074994236 0.019335989 -0.0283472 -0.03136961
000340 f7 0f a0 3d 57 35 80 bd 13 62 8f 3d 13 a2 67 bd
       0.07815545 -0.06260174 0.07001128 -0.05655105
000350 0d a3 c5 3d 1d b1 bb 3c d0 0a 79 bd b0 4e f6 3c
       0.0965024 0.022911603 -0.060801327 0.030066818
000360 6c 02 6b 3c f5 9a aa 3c f8 a2 47 bc 4e 5a 80 bd
       0.014343839 0.020825842 -0.012184851 -0.06267224
000370 b1 cd a5 3d fd 0e 49 bc 54 26 36 bc da 56 39 bd
       0.08095873 -0.01227164 -0.011117537 -0.045248844
000380 25 45 2c 3d 85 2e 88 bd bd 26 b7 bd 3f dd 64 3d
       0.04205813 -0.06649498 -0.089429356 0.05587506
000390 74 d7 25 3c 29 9a 5e 3d 91 51 7b 3d 5d cf f0 3c
       0.010122169 0.054346237 0.061357085 0.029395754
0003a0 67 5d bb bd 34 a2 83 bd 24 4c d8 3c 68 c1 5d bd
       -0.091486745 -0.06427422 0.026403494 -0.054139525
0003b0 36 e0 77 bd 10 4e ac bd b6 1f a7 bb 5d 4d 24 bd
       -0.06051656 -0.08413327 -0.005100216 -0.040112842
0003c0 39 74 63 bd 98 8c 75 3d fc 80 7e bd a6 6d 1f bd
       -0.05553076 0.059948534 -0.062134728 -0.03892293
0003d0 f6 fd 70 bd 41 5d 5c 3d 95 d7 b6 bc 43 44 73 bd
       -0.058835946 0.05379987 -0.022319594 -0.05939127
0003e0 80 94 53 3d 78 24 24 bd ff 28 c9 bd d9 9c 1e 3d
       0.051655293 -0.04007384 -0.098222725 0.0387238
0003f0 57 06 3a bd 95 d4 97 3c b0 d2 95 3d 58 ec 8d bd
       -0.045416202 0.018533984 0.07315576 -0.069298446

lstm.weight_ih_l1 f4 [512, 128]
000000 80 1c 9e 3c 64 83 6f bd 52 ea 49 bd 57 ac 2a 3d
       0.0193007 -0.058474913 -0.04929573 0.041668262
000010 0a c0 85 3d 8b 63 d1 bc 4c 83 3e 3c c0 24 b9 3c
       0.06530769 -0.025560161 0.011627983 0.022600532
000020 c1 f7 aa bd 05 8a 8a 3d 69 5a 73 bc 84 be 2c 3d
       -0.083480366 0.067646064 -0.014853098 0.042173877
000030 6a a0 c9 3c e5 de 65 bd 12 93 8a bd f5 b0 a6 3c
       0.024612624 -0.056120772 -0.06766333 0.020348052
000040 dc 22 d9 bc ac 99 99 3d 14 e1 cf 3a d0 ee 80 bd
       -0.02650588 0.07500014 0.0015859925 -0.0629555
000050 b5 a5 4d bd bd 07 c9 bb d7 97 6f 3c 78 00 c6 bc
       -0.05020686 -0.0061349557 0.014623604 -0.024170145
000060 52 9a 4d bd 58 78 5b 3d 09 82 8f 3d 1f 8c 19 bd
       -0.050196 0.053581566 0.07007224 -0.037487146
000070 89 ed b8 bd cd b6 0b bd 2a 3b 90 bd 87 96 1d 3c
       -0.09029681 -0.03410988 -0.07042535 0.009618408
000080 f9 36 08 bd f3 45 45 3c 96 b5 98 bd d5 dc b5 3d
       -0.03325555 0.012040603 -0.0745651 0.08880011
000090 5c f1 e9 3c 64 69 5f bd 0d 28 8a bb 93 64 9b 3d
       0.028557472 -0.054543868 -0.0042162 0.075875424
0000a0 1f 6b 97 3c 33 c0 94 3d 82 a6 2d bd 08 c5 41 bd
       0.018483697 0.072632216 -0.042395122 -0.047307044
0000b0 0c 48 2a bd 41 53 73 bd fe 0b 9a bd 10 f4 71 3d
       -0.041572616 -0.05940557 -0.075218186 0.059070647
0000c0 f9 42 ba bc f9 33 6d bc 5a 4d 0c 3d e5 76 9a 3b
       -0.022737013 -0.014477723 0.034253456 0.0047138804
0000d0 ea d0 8f 3c a4 45 bc bc 95 37 db bc 30 93 bd 3b
       0.017555673 -0.022982426 -0.026759902 0.0057853684
0000e0 b8 3d b0 bd d9 48 84 bc 92 4e 8a 3d e2 c4 9b 3d
       -0.08605522 -0.016148018 0.06753267 0.07605912
0000f0 71 8f 0e bb 76 c3 29 3d 5e a5 0e bd 99 e5 84 bd
       -0.0021752978 0.04144617 -0.034825675 -0.06489105
000100 d9 10 59 bd 1a e8 54 3d f1 ef e1 3c 06 a4 06 3d
       -0.052994583 0.05197916 0.027580233 0.03287127
000110 8f f2 1a bc 3d 35 d1 3c 31 22 9e bd e3 cc 63 bd
       -0.009457245 0.025538081 -0.07721365 -0.055615317
000120 81 a9 f7 3c c0 99 99 3d 58 5e 5f 3d 23 ea 7c 3d
       0.030232193 0.075000286 0.054533333 0.061746728
000130 34 24 2f 3d 4a f1 4c 3d a4 f4 7c bc 5e c9 38 bd
       0.042759135 0.0500348 -0.015439186 -0.045113914
000140 2b 4d 0f bd 5b d0 00 bd 00 51 5f 3d 40 f8 14 3d
       -0.034985702 -0.031448703 0.054520607 0.036369562
000150 af ca 10 3d 60 b5 f7 3b 27 1b b2 3c 33 35 75 bc
       0.035349544 0.0075594634 0.021741463 -0.014966297
000160 b3 7c 0a bb 51 14 37 3d 09 b6 a7 bd 31 72 9a 3d
       -0.0021131455 0.04469711 -0.08189017 0.075413115
000170 6e 62 97 bc 92 8d 84 3d a6 d3 d5 3c db 3e 46 3d
       -0.018479552 0.06472315 0.026101898 0.048399787
000180 9b 57 c9 bc d8 56 78 3d 9e 40 b6 3d 37 72 91 bd
       -0.024577906 0.060629696 0.088990435 -0.07101863
000190 dd f3 a4 3d d1 d3 cc bb 04 80 99 bd 86 b1 92 3b
       0.08054326 -0.0062508364 -0.0749512 0.004476729
0001a0 02 75 59 bd 93 01 b4 3c e5 71 b3 3d d6 50 b8 bd
       -0.053090103 0.021973407 0.08761958 -0.08999793
0001b0 22 e8 cf bc 42 fb 8e 3d c3 1d e5 bc 11 6d 53 bd
       -0.025379244 0.069815174 -0.027968293 -0.051617686
0001c0 15 a7 df 3c 92 3d 96 3b e9 d7 64 bd 54 c1 a5 3c
       0.02730135 0.0045849765 -0.05586997 0.020233788
0001d0 3d f5 64 bc 83 c8 71 bd d5 f9 d5 3b d3 1d b5 bd
       -0.013974485 -0.059029114 0.0065300264 -0.08843579
0001e0 a0 cc bf 3d a3 fc 36 3d 87 52 67 3d fa fa 17 bb
       0.09365201 0.044674527 0.05647519 -0.0023190365
0001f0 09 42 a9 bc ed 4b 81 3d d1 cc 1b 3d b9 ac 98 bc
       -0.02066137 0.0631331 0.038037125 -0.018637048
000200 5f ae 87 bc 68 b4 ce 3c 53 83 a0 bd 72 73 c0 bd
       -0.016562639 0.025232509 -0.07837548 -0.093970194
000210 80 7b 91 bd 8e a9 48 bd d5 63 a4 bd da dd 37 3d
       -0.07103634 -0.048989825 -0.08026854 0.04488931
000220 3c 80 12 3d 3b 76 e3 bc 16 5c 3e 3d 9f b5 ec bc
       0.035766825 -0.027766338 0.04647454 -0.028895197
000230 e3 73 af bd 3b a7 85 bd 1c b2 33 3d d9 61 64 bc
       -0.085670255 -0.06526037 0.04387103 -0.013939344
000240 47 9b da bb 32 eb e9 3c 8a 6f a3 3d 46 2a 86 3d
       -0.0066713425 0.028554533 0.07980259 0.06551032
000250 61 7c 41 bd 6b f1 28 bd 35 2f a2 3b 72 76 d7 bc
       -0.047237758 -0.04124586 0.004949475 -0.026301596
000260 7b 6d f4 bc 9d 11 84 bc 50 93 3b bd 71 6f e9 3c
       -0.02983736 -0.01612168 -0.045794785 0.028495522
000270 57 91 97 bd d9 7d a2 bb ae 1b 24 bc 4f c2 0e bd
       -0.07400768 -0.00495885 -0.010016365 -0.034853276
000280 29 db 93 3b cc 7e 75 3d dd d7 8d 3d 97 75 47 3d
       0.00451221 0.059935376 0.06925938 0.048696127
000290 24 47 a1 3d e0 bd 42 bb 82 43 31 3b 18 0a 9d 3d
       0.07874897 -0.0029715225 0.0027048294 0.07667941
0002a0 9e 60 2b bd b4 2b bc 3c eb 65 90 bd 59 b8 81 3d
       -0.04184019 0.022970058 -0.07050689 0.0633399
0002b0 27 b2 7a bd 7b af 47 bd 7b 3d 93 bc 6b f6 3a bc
       -0.061205056 -0.048751336 -0.017973652 -0.01141129
0002c0 66 e5 3c bd 50 1a b9 bc 6b 24 06 3d 91 9a 38 bd
       -0.04611721 -0.022595555 0.032749575 -0.04506928
0002d0 43 24 96 3c bb 44 b6 3d 93 f6 83 3d 75 75 2f bd
       0.018327838 0.08899828 0.06443515 -0.042836625
0002e0 8c 97 5f 3d 13 5a b2 3c ac 02 5c 3c 02 1d 15 bc
       0.054587886 0.021771466 0.013428371 -0.009101154
0002f0 54 db d5 3b 84 98 ba 3d 17 04 b0 3d 39 20 02 3d
       0.00652639 0.09111121 0.0859453 0.03176901
000300 43 cd f0 bb aa 86 b0 3c f6 32 39 3c b3 88 a3 3d
       -0.007348688 0.021548588 0.011303654 0.07985058
000310 18 e7 9d bd 3c 5e 09 3d 85 f6 07 bd d2 e8 88 3d
       -0.07710093 0.033537135 -0.033194084 0.06685032
000320 72 92 c1 3c fd 30 c8 3c a6 ce 92 bd 9a 2c 0e bc
       0.0236294 0.024437422 -0.07168321 -0.008677626
000330 34 ff 0a 3d 21 51 46 bd 35 0b 26 3d 3f a3 9f bd
       0.033934787 -0.048417214 0.04053803 -0.077948086
000340 0e 65 63 3d aa 08 a4 bb c8 96 7f bd e7 e7 4c bc
       0.055516295 -0.0050059156 -0.062399656 -0.012506462
000350 8a a2 6f bd 71 ea c6 3d e3 e0 c9 3c 83 ec 7d bd
       -0.05850462 0.09712685 0.024643367 -0.061993133
000360 a0 8e f9 38 fa 3f a7 3d 32 07 49 bc a7 36 9f 3d
       0.00011899811 0.081664994 -0.012269782 0.07774096
000370 cf 9c cd b9 dd 66 fc 3b 72 ef 07 bc e9 a5 8f bc
       -0.00039217478 0.007702692 -0.008296834 -0.017535167
000380 cc 7a 47 bc f7 83 bb bc ab 36 a8 3d c4 06 81 3b
       -0.012175273 -0.022890074 0.08213552 0.003937574
000390 56 e8 9d bd 38 0c 81 3d e7 ad 51 3d f2 ff 86 bd
       -0.0771033 0.06301159 0.051191237 -0.065917864
0003a0 69 d8 bd bd a1 8e ad 3d 7f aa 98 bd 15 9f 3a bd
       -0.092697926 0.0847447 -0.074543945 -0.04556187
0003b0 ec 9e ab 3d 33 96 4a 3d 76 ed 03 bd a2 7d 82 bd
       0.08379921 0.049459647 -0.032208882 -0.06371619
0003c0 85 9a 1b 3c 89 66 85 bd b9 62 54 bd 47 42 54 bd
       0.00949729 -0.06513698 -0.05185196 -0.05182102
0003d0 09 68 8c 3d 06 55 17 bd 75 81 ad 3d 62 52 9f 3c
       0.06855781 -0.03694632 0.084719576 0.019448463
0003e0 e9 ea 7b bd 39 7c 1a bd 72 0d 8a bd 9b e8 83 3c
       -0.061503325 -0.037716124 -0.06740846 0.016102126
0003f0 0f cd 4b 3b 9b fb 25 bd 83 ca c6 bc 68 96 ac 3c
       0.0031097566 -0.040523153 -0.024266487 0.021067813

lstm.weight_hh_l1 f4 [512, 128]
000000 46 4c 61 bd c5 b7 df bb 60 07 9c bd 96 3f 75 bb
       -0.05500438 -0.006827327 -0.07618594 -0.0037421933
000010 fd 7c 97 3d 40 35 0e 3c 9b d4 da bc 5d 7b bb 3c
       0.073968865 0.008679688 -0.026712706 0.022885973
000020 c4 05 a5 3d 62 78 9d bc bb 52 d5 bc e3 80 a5 bc
       0.0805774 -0.019222442 -0.026040426 -0.02020306
000030 40 3a 00 bb cd d0 0c bd fc a6 06 3d 4a 7e 88 3d
       -0.001956597 -0.034378815 0.032874092 0.06664713
000040 37 aa 17 bc 0e 36 8b bd 18 7a d4 bc 58 f3 07 3d
       -0.009256891 -0.067974195 -0.025937125 0.033191055
000050 73 75 4a 3c 3f 57 c4 bc 78 66 99 bd 7d 89 f4 bb
       0.012357104 -0.023967383 -0.074902475 -0.007462679
000060 59 c8 83 3c bd 6b 3d 3d a2 a2 8f 3d d7 0c a5 bd
       0.016086744 0.046245325 0.070134416 -0.0805909
000070 95 25 82 bc e7 10 f4 bb 80 23 06 3d 1a 0a 0a bc
       -0.015887061 -0.007448304 0.0327487 -0.00842526
000080 c1 26 4f bd 1e c6 64 bd 8a 28 6a bd 35 c2 c2 3c
       -0.050574068 -0.055853 -0.057167567 0.023774246
000090 46 b6 dc bb a4 49 97 3c 48 55 10 bd 57 98 d4 3c
       -0.006735596 0.018467732 -0.03523758 0.025951548
0000a0 9f 5b 07 bd 84 fd a3 3d e8 e2 8a bd 6a f8 b7 3d
       -0.03304636 0.08007339 -0.0678156 0.08982928
0000b0 8c 20 69 3d b3 a3 02 3b bf 41 96 bd d1 1f 3c bd
       0.056915805 0.0019933998 -0.07336759 -0.04592878
0000c0 94 1b be 3d be 7a 68 bc be 15 6a 3c 4a 32 78 3d
       0.09282604 -0.01418942 0.01428741 0.060594834
0000d0 fa 87 4f 3d 08 f4 97 bd 71 c2 71 3b bf 5a 8b bd
       0.050666787 -0.07419592 0.0036889578 -0.06804418
0000e0 a6 a4 fa 3d 16 0b 01 3d 18 49 24 bd 72 02 77 3d
       0.122384354 0.031504713 -0.04010877 0.060305066
0000f0 96 88 56 3d 68 c2 c3 bd 42 dc 74 3d 88 d9 80 bd
       0.052376352 -0.095585644 0.059780367 -0.06291491
000100 4c 66 4b bc 04 46 d3 bc c1 37 9d bd 04 b6 c2 bd
       -0.012414526 -0.025790222 -0.0767665 -0.09507373
000110 9f 7c b3 3d 37 29 9a 3d 2e 8e cb bc b3 19 67 bd
       0.08764004 0.07527392 -0.02484807 -0.056420993
000120 cc e3 af bd ac e7 a3 3c 66 9c 93 bd 1a 6c e7 3c
       -0.08588371 0.02000793 -0.07207565 0.028249789
000130 2f 09 37 3d 45 63 06 3d ae 31 9e bc 5e e5 41 3d
       0.044686493 0.032809515 -0.019310798 0.047337882
000140 10 e4 02 bd 4d d1 09 bd 37 ff 33 3d fb ea 91 bc
       -0.03195578 -0.03364687 0.043944564 -0.017812243
000150 bb 6d 89 3d 04 2a 80 3d a7 65 34 bd cb db d6 bd
       0.067103826 0.06258014 -0.044042256 -0.10491141
000160 89 1d 09 bd 91 ac 3b 3c f1 5a ae 3d 55 27 d6 3c
       -0.033475433 0.011454717 0.085134394 0.026141802
000170 ed e9 9e 3d f7 1f 4e bd bd 61 c6 bd 69 35 a5 3d
       0.077594616 -0.050323453 -0.09686611 0.08066828
000180 b1 e9 c1 bc 46 af a1 bb 4c 73 9f bd 2a 51 1d 3d
       -0.023671003 -0.0049342243 -0.07785663 0.038407482
000190 89 e6 8d 3c 60 f9 a9 3d 47 bd 9c 3a 36 be da 3b
       0.017321842 0.08299518 0.0011958265 0.006675507
0001a0 07 4a 80 3c 27 d7 15 3d 23 18 83 3d b6 35 7c bd
       0.015660299 0.03658214 0.06401088 -0.06157466
0001b0 f0 ab 07 bd c5 74 a3 3d d1 5d ab 3c cd 71 1b bd
       -0.033122957 0.079812564 0.020918759 -0.037950326
0001c0 b3 ef a7 bc 90 c3 76 3d 46 06 70 bd 7b 0b c7 3c
       -0.02050004 0.060245097 -0.058599733 0.024297467
0001d0 32 99 a1 bd ae ed 5b bd ad 61 dc bb e8 59 1b bc
       -0.07890548 -0.053693466 -0.006725511 -0.009481885
0001e0 de 6b 82 bd 20 47 92 bd ce f9 89 3d 5a 05 97 bd
       -0.0636823 -0.07142472 0.067370996 -0.073740676
0001f0 83 f5 b1 bc 22 bb 5f bd fb 71 36 3d a3 29 3b 3d
       -0.021723514 -0.054621823 0.044542294 0.045694005
000200 73 cb 3c 3d 0b ec 46 bd 31 e1 ca bd ea 4f e1 bb
       0.04609246 -0.048564952 -0.09906233 -0.0068759816
000210 2c c1 56 bd 4c cd 90 3d 98 bb c1 bd 3e da 97 bc
       -0.052430317 0.07070407 -0.09459609 -0.018536683
000220 62 23 d6 bc 01 75 98 bc a6 8d 87 bc 73 2e 44 3d
       -0.026139919 -0.01861048 -0.016547035 0.04789586
000230 b8 6b 38 bd 92 f1 77 bd 76 fd 16 3c d8 58 81 3d
       -0.045024604 -0.060533114 0.009215703 0.06315774
000240 16 40 09 3d 36 48 57 bd 4e 06 ac bc 7d 3e 74 3d
       0.033508383 -0.0525591 -0.0209991 0.059629906
000250 6d 21 a7 bd 35 2c 79 3d e6 cb 8e 3d 3e e5 da bc
       -0.08160672 0.060833175 0.06972484 -0.02672064
000260 77 79 ba bc 88 58 a7 3d ab 07 57 bd fa 50 fa 38
       -0.022762997 0.08171183 -0.052497547 0.00011936012
000270 1f d7 0f 3d b9 52 7a 3d 81 23 ff bb 24 43 a8 bd
       0.035117265 0.061114047 -0.007786215 -0.08215931
000280 1a 22 ae bc 03 8a 0d 3c bb cd 67 bc e0 de 8a bd
       -0.021256495 0.008638862 -0.014148171 -0.06780791
000290 ab 39 1b 3d 51 18 7c 3d bb 62 86 bd 15 9d d4 bb
       0.037896793 0.061546627 -0.065618 -0.006488452
0002a0 39 c3 77 bd 77 ba 52 3d c7 8e ad 3c 90 d7 95 bd
       -0.060488913 0.051447358 0.021186246 -0.07316506
0002b0 5c 01 0c 3d ca 53 87 bd 1f cf 14 3c 47 b7 d0 bd
       0.034180984 -0.06607778 0.009082585 -0.101912074
0002c0 2e fa 77 bd 2b a4 48 3d 34 0e 5d bb 2d 83 a1 bd
       -0.060541324 0.048984688 -0.003373039 -0.07886348
0002d0 55 e7 28 3d 2e 15 80 bc f2 b2 68 3d ff a2 ae bc
       0.04123624 -0.0156351 0.05681128 -0.021317957
0002e0 54 48 2b 3d ce f2 e9 bb ef e3 a3 bb 93 bd cb bd
       0.041817024 -0.0071395403 -0.005001537 -0.09948268
0002f0 c1 8a a7 3b 2f a7 a2 bd 2a e4 15 bd 55 1e a6 3d
       0.0051129763 -0.07942044 -0.036594547 0.08111254
000300 a9 86 63 3c 23 90 37 3c a5 fa 27 bc 7b c1 02 bd
       0.013887086 0.011203798 -0.010252629 -0.0319228
000310 91 f2 97 bd b6 ed b3 bc ec 1a 8f 3d 5c 05 39 bd
       -0.07419313 -0.021963935 0.06987557 -0.045171127
000320 25 db 61 3d 8f 80 b5 bb 2c 89 06 bd a6 f0 3f 3d
       0.055140633 -0.005539007 -0.03284566 0.04686036
000330 96 43 bb bc 0b 4f 2e 3c 48 55 77 3c 7d 30 c1 bd
       -0.022859376 0.0106389625 0.015096016 -0.094330765
000340 60 43 c0 bd 9b c9 96 3c 21 ce 38 bd 38 e8 75 3d
       -0.09387851 0.01840668 -0.045118455 0.060035914
000350 76 15 6a 3d d7 14 37 3c 96 ae 3b 3d 32 a6 92 bc
       0.057149373 0.011174402 0.045820795 -0.017901514
000360 3a cf 4e 3b cc f8 88 bd 97 74 bf 3d 30 af 6b 3d
       0.0031556622 -0.06688079 0.093484096 0.05754012
000370 6d a2 ec 3d 27 a2 2b bd 57 41 53 bd fb 0b 27 bc
       0.11554418 -0.041902687 -0.051575985 -0.010195727
000380 31 d3 3e bc 29 88 9b bd 16 1b ad 3c a9 73 79 bd
       -0.011647032 -0.0759433 0.02113108 -0.060901318
000390 0b 2f 38 bd e3 99 ad 3c 06 47 1d bd 8c 7b 0f bd
       -0.04496674 0.021191543 -0.03839781 -0.035029933
0003a0 26 3a 7f 3d d0 4a 68 bd 21 4b 93 3d bb 78 29 bd
       0.062311314 -0.05671197 0.07192064 -0.041374903
0003b0 5b 0a c8 3c 7d 4f 8e bd 72 e8 ae 3d 4d cd 67 bd
       0.024419 -0.06948755 0.08540429 -0.056592274
0003c0 de e4 a5 3d 77 62 85 bd 30 0d 6a 3d eb c8 92 bd
       0.081002936 -0.06512921 0.057141483 -0.07167228
0003d0 ef 3c dd 3c e3 1e 68 3c 65 c2 82 bb 30 c8 22 3d
       0.027006594 0.01416752 -0.003990459 0.039741695
0003e0 cd 15 c0 3d 32 f2 8d bd ae fe 98 3c 07 38 6a 3d
       0.09379158 -0.06930961 0.018676128 0.057182338
0003f0 25 29 47 bb f8 57 56 3d 51 75 30 3d 21 84 c2 bd
       -0.0030389514 0.052329987 0.04308063 -0.09497858

lstm.bias_ih_l1 f4 [512]
000000 29 d6 a6 3c 8a 45 e3 bb 5b 40 24 3c f9 8a 81 bd
       0.020365791 -0.00693578 0.010025109 -0.06325335
000010 c2 0b ab bd 38 d2 9d bd 3d 39 30 3d f3 57 01 bd
       -0.08351852 -0.07706112 0.043023337 -0.031578016
000020 b2 96 6d 3d 66 2d ec 3b 90 f2 be bc 8f 67 91 3d
       0.058005042 0.0072075604 -0.023309022 0.0709983
000030 18 3a a2 3b 58 55 88 3d 09 fa 7d bd 2f 66 93 3d
       0.004950773 0.06656903 -0.06200603 0.07197224
000040 05 30 a1 bd 7d 39 ae 3b 8f 35 5e bd bd be 98 3c
       -0.07870487 0.0053169117 -0.054250296 0.018645639
000050 0c 98 94 bd 1c be 7c bd 03 c0 1e 3d 3b 59 bd bd
       -0.07255563 -0.06170474 0.038757335 -0.09245535
000060 9c af 45 bd ef 09 0f bd 5c f6 88 3d a1 55 b3 3d
       -0.048263177 -0.034921583 0.06687614 0.08756567
000070 0b 37 8a 3d 04 36 9a bd 0d 5b 6b bc 1d 94 78 bd
       0.0674878 -0.07529834 -0.01436497 -0.060688127
000080 27 3e 86 3d f0 2e 3c 3d d4 a1 24 3d ce 6a c8 3c
       0.06554823 0.0459432 0.040193394 0.024464991
000090 1d 67 47 3d 04 37 9b bd da 5d 5e 3d 56 ab 2e 3c
       0.04868232 -0.07578853 0.054288723 0.010660967
0000a0 09 82 80 bd a1 f3 06 3d fe 51 19 bd db 67 94 bd
       -0.06274802 0.032947186 -0.03743171 -0.07246371
0000b0 34 db 01 bd 0f 50 a4 3b 47 cc 98 bd b8 b4 21 bd
       -0.03170319 0.0050144265 -0.07460838 -0.039478987
0000c0 6f 08 4c 3a 5c 50 a6 bd 9a f8 bd 3a 4a 07 41 3d
       0.0007783239 -0.08120796 0.0014493645 0.047126092
0000d0 65 f5 69 3d 68 34 1c bc 28 d7 58 bc 1a a4 86 bd
       0.057118792 -0.009533979 -0.013234891 -0.06574269
0000e0 db 12 90 3d 93 48 47 bd e8 cf bf 3b 06 af 23 bd
       0.070348464 -0.048653197 0.005853642 -0.039961837
0000f0 3c 2a 89 3d 62 4d 3a bc f7 20 99 3d 48 07 35 bc
       0.06697509 -0.011370989 0.07476991 -0.011049099
000100 3f 15 92 3d 30 27 82 bc 10 e4 83 3d 3e a7 0a 3d
       0.071329586 -0.015887827 0.06439984 0.0338509
000110 14 ae 4b 3b 6c 5f b1 3d 7c d8 14 bd 6f d0 ac 3c
       0.00310791 0.086607784 -0.036339268 0.021095483
000120 62 4a c2 bc 03 bd 80 bd d0 65 9a bd f8 61 b6 3c
       -0.02371711 -0.06286051 -0.075389504 0.022263512
000130 0a e2 5b bd ed d8 69 bd 5b e5 d0 bc 50 b9 f8 3c
       -0.053682365 -0.057091642 -0.02549999 0.030361801
000140 10 8d 8b bc cf b1 ac 3c 2b ac 94 3d 3f 40 22 3c
       -0.017035037 0.02108088 0.07259401 0.009903013
000150 ad fd cb 3c 73 3b 37 bd 8e 79 34 3d a2 18 0e 3d
       0.024901235 -0.04473443 0.044061236 0.03469146
000160 84 33 1b 3d 8c 76 bb 3d 45 7c a7 3d c4 fe ab 3d
       0.037890926 0.091534704 0.081779994 0.08398202
000170 52 f2 a7 bc 98 0c 41 bd bf e7 86 bd 25 9a e2 bc
       -0.02050129 -0.04713115 -0.06587171 -0.027661392
000180 a8 ff ae 3d 91 65 87 3d e0 9a b7 bc 1b dc 9d bd
       0.08544856 0.06611169 -0.022412717 -0.077079974
000190 b3 7d 58 3d ab 85 4e bd 5f 36 86 bc 2d b1 47 3c
       0.05285425 -0.050420444 -0.016383348 0.012188238
0001a0 c1 46 70 bd 2f e9 45 bd e3 17 46 bd 61 2b 22 bd
       -0.058661226 -0.048318084 -0.048362624 -0.03959215
0001b0 54 9e c0 bc c8 21 99 3d ef 00 3f 3d 40 44 14 bd
       -0.023512997 0.074771464 0.04663175 -0.0361979
0001c0 43 1f 2e 3c d2 58 11 bd bf 7c 95 3d 6e d8 a8 bd
       0.010627571 -0.035485096 0.07299184 -0.08244406
0001d0 a8 20 53 3d 0b a8 6c bc 74 cc 76 3d 57 02 73 bb
       0.051544815 -0.014444361 0.060253575 -0.0037080252
0001e0 a1 29 62 3d 09 8e 8c bd 3d 34 0b 3d 34 c7 94 3b
       0.05521548 -0.068630286 0.033985365 0.0045403484
0001f0 8a e5 47 bc d4 e2 0a bd 53 51 8a 3d 00 f1 aa 3c
       -0.0122007225 -0.033907726 0.067537926 0.02086687
000200 3f 39 4f bd 33 82 49 bd fb 74 9e 3d f0 22 5a 3d
       -0.050591704 -0.049196433 0.07737156 0.053255975
000210 de e3 f1 bc 2b 44 ad bd 51 ee 9f 3d 3f cc 60 bd
       -0.0295276 -0.08460268 0.07809127 -0.054882284
000220 53 22 1a 3d e1 7d 73 bd d1 e7 92 bd 95 59 4e bc
       0.03763039 -0.05944622 -0.07173122 -0.0125946
000230 59 a9 bb bd ed 81 34 3d fc 51 b9 bc d1 7c d3 3c
       -0.0916316 0.04406922 -0.022622101 0.025816353
000240 94 d9 80 bc 8f 1e 35 3d b7 42 39 bd 56 f8 1f bd
       -0.01572875 0.044218596 -0.04522964 -0.03905519
000250 56 0e de 3b 8a 70 b8 bd ae a6 09 3d ae 3d 0c bc
       0.0067766113 -0.0900584 0.033606224 -0.008559627
000260 cb ce 61 bd 17 c4 5e 3d d2 15 44 bd 58 62 99 3d
       -0.055128854 0.054386225 -0.047872372 0.07489461
000270 69 f5 62 bc 17 61 17 bd 92 99 99 bd 0f 60 4e bd
       -0.013852456 -0.036957826 -0.07499994 -0.050384577
000280 4c 47 b1 bd 04 ed f3 3c 5d 92 3f bc 3d 3d c1 bd
       -0.08656177 0.029776104 -0.011692611 -0.094355084
000290 bd e5 7f 3d 5d 37 c6 3c 34 0a ac bd 7d 20 f6 bc
       0.062474955 0.024196321 -0.084003836 -0.030044788
0002a0 18 ca 9c bd 0a 32 5c bd 7d 18 a7 3d ae 4c bd 3a
       -0.07655734 -0.05375866 0.08158968 0.0014442408
0002b0 f1 aa 2a 3d d3 87 d8 3b df 93 8b 3c d7 4c 8d 3d
       0.04166693 0.0066079884 0.017038284 0.06899422
0002c0 cc 46 8a bd 75 9c 01 3d f4 b8 8a 39 95 fa e3 bc
       -0.06751785 0.03164335 0.00026459212 -0.027829448
0002d0 37 76 b3 3d ef 20 08 3c 2d 1f f8 bb d8 25 96 3d
       0.08762782 0.008308633 -0.007572076 0.07331437
0002e0 8d e7 89 3c 0c c7 1f bd 79 6a 47 bc 1b ef 2a bd
       0.016834045 -0.039008185 -0.012171381 -0.041731935
0002f0 9b 3b d0 bd 6c c0 a8 3c 8e 73 7a 3d 05 4d a5 3d
       -0.10167619 0.020599566 0.061145358 0.08071331
000300 f3 ee 12 ba e8 d1 0e 3d b7 42 78 3d a1 ff 43 bd
       -0.0005605064 0.03486815 0.0606105 -0.04785121
000310 79 e8 80 bd f3 bb 54 3d e9 b0 1d bd 65 26 9c 3d
       -0.06294341 0.051937055 -0.038498793 0.07624511
000320 3c 43 5c 3c 36 92 2e 3d 8a 9c 98 3c 56 04 a5 bd
       0.013443764 0.042619906 0.018629331 -0.08057468
000330 ba 27 b4 bd 05 cb 7c 3d e9 e3 8b 3d 9d 06 87 bc
       -0.0879664 0.061717052 0.0683058 -0.016482646
000340 9e cc d0 ba ed b8 5d 3d d6 1d 54 3d 28 95 96 3b
       -0.0015930121 0.054131437 0.051786266 0.0045954175
000350 f6 e5 e2 bc c2 91 21 bb ce af 29 3d 23 7b 8a bd
       -0.027697545 -0.0024653529 0.041427426 -0.06761768
000360 12 41 82 3c 77 32 2b bd ca 9c 11 bd 13 1c 8f 3d
       0.015900169 -0.041796174 -0.035549916 0.069877766
000370 e0 5a 2b bd c5 fe a1 bd 00 63 77 bd da 34 23 bd
       -0.041834712 -0.079099216 -0.060397148 -0.039845325
000380 7c 3a 57 bb 4e 89 fa bb b5 96 92 bd ba cc 9f bd
       -0.0032841256 -0.0076457625 -0.07157651 -0.0780272
000390 a7 b3 99 3d 4f 88 67 3d d7 ea 7f 3d 2e 92 a3 bc
       0.07504969 0.05652648 0.06247982 -0.019967165
0003a0 9f 88 65 bd d4 d3 68 bd 36 02 9e 3c 44 ff 88 bd
       -0.056038495 -0.05684264 0.019288164 -0.06689313
0003b0 a9 85 fd bc 40 26 61 3d 5c b1 63 bd 27 b2 7c 3c
       -0.030947523 0.05496812 -0.055589065 0.015423334
0003c0 f6 ea 81 bc 9f 8b e3 bb 89 3d 9d bc be 5e a0 3d
       -0.015859108 -0.0069441344 -0.019194381 0.07830571
0003d0 c3 37 29 bc b4 3f 4e bd 09 3c 41 bd bc b3 74 bd
       -0.010328236 -0.05035372 -0.047176395 -0.05974172
0003e0 ee ce 20 bd c6 b7 e0 bc 72 d8 0d 3d 73 d2 cf bd
       -0.039259844 -0.02743138 0.034630246 -0.10147562
0003f0 19 9a 7e 3c f9 e6 8d 3c 76 22 f8 bc 25 7b 20 3a
       0.015539669 0.01732205 -0.03028987 0.00061218656
