models/0005.HK_lstm_SMA50_diff.pth (torch, 808517 bytes, 9 tensors)

lstm.weight_ih_l0 f4 [512, 4]
00000000: dea5 853d d79d 5a3d c8d1 243c 4e5f 173d
00000010: 946b b43d efe7 7e3c 218a 59bd a6da 653d
00000020: ee08 a73d 45e6 35bd 0d0a 53bd e6ef 76bd
00000030: 6eaa 963d 06ef 743d 5209 453c 1258 5a3d
00000040: 2961 a13d 3051 533b c768 7c3c d533 aebc
00000050: bc04 3a3d 02d4 263e 2a4c dc3d c89d 9b3d
00000060: 65ef 1f3b d537 94bc ed4d a8bc 020c 4fbd
00000070: 3a56 833c 022b d7bc 2069 a1bd 6f05 693d
00000080: d17b 1b3c a9b9 853d 1c13 2bbb 6b67 313d
00000090: 2600 bebb 2892 673d 6d70 003e 4378 a83d
000000a0: b15f c23a 4598 aabd 0746 143d a86b 803a
000000b0: 1d52 8b3d 1020 723d 68e0 393e 57ee ce3d
000000c0: 19ca 8f3d 78f0 1d3d be3b 923d fcff 50bb
000000d0: a8ba 203d c422 dfbc 14df 2abd cfa4 b93b
000000e0: 9cdf 8ab7 bf6b a33d ed3f 3dbb dc96 183d
000000f0: 48b9 fe3c f729 553d 22c3 063e 9f93 c13d
00000100: 29a2 813e 259b 803e 0de5 403e 5d79 813e
00000110: cc41 a53d 20e2 563d c6f9 513d c15f a93d
00000120: 4e24 a73c ded7 1b3d b02f 183e 5a69 1b3d
00000130: 0435 023d e0e3 95bc 690c 5f3d 90e2 15bc
00000140: 634b 9e3d 5955 e43c 165e 98bd 567b 56bd
00000150: 8880 a23d 042f 113d db11 7dbd 57aa 8c3d
00000160: 4101 b73c bccb 003e f3fd 4f3d 58aa ab3c
00000170: ba51 75bb 7d7e 043d 04f7 823d 109b 9e3d
00000180: 9f51 533d c0bb 9b3d be12 d63d d755 273d
00000190: d5f9 093e 87b0 453d 9d4d a63d 9aa7 1abd
000001a0: 4bb3 ac3d fb7f e43d eeff 803c ffad 22bd
000001b0: f6df 1fbd 5b29 afba c29d 453c 4da3 a9bd
000001c0: 5c6a ed3d ca4c d43d 4892 e43d 2786 ac3d
000001d0: 7257 293e 7741 1b3e ebaa 8a3d ef5f 083c
000001e0: 7be4 9b3d 605d 6d3c 318d 81bd c9d6 fb3c
000001f0: 964d d2bc 1247 a1bd e2ba a0bd 0341 6fbd
00000200: d4b6 2dbd c9c2 663d db61 ac3d f658 b33d
00000210: 40ad d73c 97d2 183d 512a 313c 02aa b13d
00000220: 1c62 90bc 2811 2cbd adb7 53bd a6f5 463d
00000230: 7934 6d3d 30d7 e8bc ad43 47bc 0ba7 e33d
00000240: 8c98 753c e13e bb3b 1a05 4d3c a6ee a73d
00000250: 4e66 7c3d e177 dcbc f962 b73c 36a2 6b3d
00000260: df94 8a3d f6cc 6cbb 82f2 833d 1d32 07bd
00000270: beb5 173d 82ff a8bc 2d56 8bbc 35eb 08bd
00000280: d52d d13d 330d dd3d 3e44 b5bb 912b e13d
00000290: 1639 5bbd d378 1dbc e64a 673d c552 6c3d
000002a0: 0d16 983c c661 87bd 8753 25bd e01c dc3c
000002b0: dccf ff3d 9ace ea3d dc30 0b3d 0060 b13d
000002c0: 1749 983d 0a79 393d 2263 a53c 2c72 f539
000002d0: d35a e3bb b845 eb3d aa34 783d ddb5 693d
000002e0: 07db 4ebd 74c7 57bc d919 95bd edc5 923d
000002f0: a2d6 b03c 195d 6fbd 2c19 9cbc 2522 4fbd
00000300: f0ea cebd 3cc0 a5bc d1c8 64bd f242 723d
00000310: 7f74 373d 946d 04bd e08b 803d 61d2 483c
00000320: 3e67 89bd e0a1 403d fe26 1c3c f544 4d3d
00000330: 0bcd e63c 57f6 383d 1ef1 4fbd 899d 8b3d
00000340: 0fef d5b7 1b15 b03d 10ea 5abc 7838 1fbd
00000350: b74d 473d 82a9 8bbc 880b 733d cb0d bf3d
00000360: 545b 63bd 3fd4 ae3d 0bf9 0dbb 0694 443d
00000370: 7ab3 f63c 456b 7fbd 957a 95bd 2379 fcba
00000380: 72a7 8c3d 636e b93d dcc1 8abd 3a88 ad3d
00000390: 79f7 113d da90 4d3d 43bb 05bd 9592 023d
000003a0: 9835 bc3d 2c81 f03d 3f16 603d 8625 d3ba
000003b0: cddc a73c 503e 9dbd 5ded 57bc 6c0e 9c3d
000003c0: 7ddd 9fbd ae22 3eba 47c5 02bd a4f2 acbc
000003d0: 256f b73d 200a 393e d9c8 a53d 547c 073e
000003e0: 4bab 693b 939e 6d3d 5423 ccbb c5a6 95bd
000003f0: dc2c 3b3d a548 933d da57 76bc a7ad 8bbd
0.06525777 0.053373184 0.010059781 0.036956124 0.088095814 0.015558227 -0.053110246 0.056116723
0.08156 -0.044409055 -0.051523257 -0.06028738 0.07356726 0.059798263 0.012026148 0.053306647
0.0787986 0.0032244436 0.01540584 -0.02126495 0.04541467 0.16291812 0.10756715 0.07598454
0.0024404165 -0.018093029 -0.02054497 -0.05054856 0.016032327 -0.026265625 -0.07881379 0.056889948
0.009489969 0.065295525 -0.002610392 0.043311518 -0.0057983575 0.05653587 0.12542887 0.08226063
0.0014829544 -0.08329824 0.036199596 0.0009797709 0.06802771 0.05911261 0.1815201 0.101040535
0.07020969 0.038559407 0.07140301 -0.003189086 0.03924051 -0.027238257 -0.04171665 0.0056653987
-1.6555008e-05 0.07979535 -0.0028877214 0.037253246 0.031094208 0.052041974 0.13160375 0.094519846
0.2531903 0.25118366 0.18837376 0.25287905 0.080691904 0.052461743 0.051263593 0.08270217
0.020403054 0.038047664 0.14861941 0.037942268 0.03178884 -0.018297136 0.054455195 -0.009148255
0.077292226 0.027872728 -0.074398205 -0.052363716 0.07934672 0.03544523 -0.061784606 0.06868427
0.022339465 0.12577718 0.050779294 0.02095525 -0.0037432746 0.03234719 0.06394771 0.077444196
0.05159151 0.0760417 0.104527935 0.040853348 0.1347421 0.048264053 0.08120272 -0.037757494
0.08432635 0.11157223 0.015747037 -0.039716717 -0.039031945 -0.0013363765 0.012061538 -0.082831
0.11592552 0.10366209 0.111607134 0.08424025 0.16537264 0.15161692 0.06770881 0.008323654
0.076119386 0.014487594 -0.06325758 0.030742066 -0.025671761 -0.07874884 -0.07848145 -0.05841161
-0.042410687 0.056338105 0.08417102 0.08757202 0.02632773 0.03731021 0.010813312 0.086750045
-0.017624907 -0.04200855 -0.05168884 0.048574112 0.05791137 -0.028422922 -0.012162131 0.11115845
0.014989983 0.005714283 0.012513423 0.081998155 0.061621003 -0.026912631 0.022386061 0.057527743
0.06766676 -0.0036132908 0.06442739 -0.033006776 0.037038557 -0.020629648 -0.017008865 -0.033427436
0.1021382 0.10793533 -0.0055318167 0.10994638 -0.05352124 -0.009611326 0.056467913 0.057696123
0.018565202 -0.06610446 -0.04036286 0.026869237 0.12490818 0.11465187 0.033982143 0.08660889
0.07435816 0.045281447 0.020188872 0.00046815106 -0.0069383173 0.11487907 0.0605971 0.057058204
-0.05050185 -0.013170112 -0.07280321 0.071666576 0.02158672 -0.058438394 -0.019054972 -0.050569672
-0.101034045 -0.020233266 -0.055855576 0.059145875 0.044788834 -0.032331064 0.06276679 0.0122571895
-0.06709145 0.047029376 0.009530781 0.05011459 0.028173944 0.045156803 -0.050767057 0.06817157
-2.5502899e-05 0.085977755 -0.013361469 -0.038872212 0.0486581 -0.017048601 0.05933717 0.09328803
-0.05550702 0.085365765 -0.0021663334 0.04799273 0.030114878 -0.06235816 -0.07298771 -0.0019262176
0.06867875 0.09054258 -0.06775257 0.08473249 0.0356364 0.05018697 -0.03264929 0.031878073
0.0918991 0.117433876 0.054708716 -0.0016109205 0.020491028 -0.07677901 -0.01317915 0.07619938
-0.078059174 -0.00072530925 -0.03192642 -0.021111794 0.08956746 0.18070269 0.08094949 0.13231021
0.0035655077 0.058012556 -0.0062297974 -0.073071994 0.045697078 0.0719159 -0.015035594 -0.06820231

lstm.weight_hh_l0 f4 [512, 128]
00000000: 55cf 7dbd b97e 0abd 6fbc 0abe 9ba0 f9bb
00000010: f9e0 223b 9548 f5bc 1c05 29be 3979 b93c
00000020: bb4e 3e3d e45a 18be c0ff 87bd c286 453d
00000030: 748c 6d3d a7c5 ae3c 7f64 0e3d 09c8 3ebd
00000040: 8883 253d 98fb 01bd 36cb a0bd a17f 05bd
00000050: c27c 94bd a592 fb3d 7c58 243e cfb7 e3bd
00000060: faf7 e93d d6b2 eebd fc4e fe3d 8af1 0f3e
00000070: 3992 88bc b725 d1bc 135f 02be 6a0a 2fbd
00000080: 2faa 933d 346b 153b dfa0 00be 8e97 0ebd
00000090: a53a 033d d098 843d 484f c43d 6d56 85bd
000000a0: beb4 0abd 8b86 4fbd 615e 51bd 3cd2 7abd
000000b0: cd9a 9c3d 592b c13d b560 b03d 6df1 fe3d
000000c0: 84ee ef3d dd68 98bd 1244 3b3d 834c a4bd
000000d0: dc61 003e 3686 903d 09cc a8bd 1bf6 bdbc
000000e0: 3cdb da3d d7a1 91bc ffcc 493d 7d45 933c
000000f0: 51a3 bd3b 432f d1bd 4e7c fbbd 2d61 95bc
00000100: 9d3e 413d 7aa6 8abd f997 f53c 9e3e dd3d
00000110: c094 b9bc e18f 9b3d da4e 16be 2fa2 a8bd
00000120: 93c6 d63d bb9e 81bc b830 0a3b 4538 c6ba
00000130: e36d 653c 64a4 a33d 43e9 873c 3ed4 ec3d
00000140: 034d ba3d 6225 0bbe 8d58 9b3d bd6b c2ba
00000150: b360 e6bb d27f 0a3d fe00 84bd ea4b c33d
00000160: 6e62 4cbc bfd9 7abd 6a37 bebc 39d8 e3bd
00000170: d73d c43d 70ff bdbd fd29 b63d d929 15be
00000180: 54a8 8dbc cea8 ae3b 35ea cf3c e985 783c
00000190: 8635 99bc 0803 393d 5d72 3abd f9de b5bd
000001a0: 0cc8 43bc 5274 b53d e458 57bc 293c b8ba
000001b0: 3757 bf3d 0567 313d e4b2 86bc fb59 d43d
000001c0: 7ad3 71bd e57e e53d 825e 3f3d eedd 42be
000001d0: f93c 0abe 12fa b23d fff3 d2bd 7e80 24bc
000001e0: e7ea 19bd e5d5 c4bd 8d54 013d f59a c83d
000001f0: e43c 89bd eeef 0abe 1388 aabb f007 76bd
00000200: 8f64 873d 9dde 663d 2e7a ab3d e43e 923d
00000210: 5572 3f3d 96ef e43c 83aa b2bc de91 a3bd
00000220: fb57 7a3d f44c c1bc 0ed5 9a3d 2002 b73c
00000230: 1c6a 1b3d f134 8a3c 6305 79bd 0a3b dcbd
00000240: 4525 76bd 2af7 613d fac6 abbd aeed af3d
00000250: 777d 2abd 71c9 0dbd 0d19 4dbd ff0a 923d
00000260: 9ec2 8f3c d7f0 a23c 10bc 043c 77ad 4c3d
00000270: 7420 d43d a49d 63bc 433f 993d 0630 183d
00000280: 84d0 9b3d 52cf e43c 7678 aebd 8cd3 143d
00000290: 80d5 2b3d a0f6 353c 8e54 a43d 4f59 513d
000002a0: 70bd c23d 4929 ffbc 1903 bf3c 97f0 48bd
000002b0: 5cb9 aabd 0649 0c3d be39 963d 6bbb 4cbd
000002c0: b858 693d a565 adbd 6582 c6bc e6f0 78bc
000002d0: 0a8f 053d a55a 9c3d 17f3 7a3a 6e8c 333d
000002e0: b345 9b3d 06ce bbbd aab4 87bd ac42 b13d
000002f0: 648a 9c3c 75a0 a9bd 41eb 52bd aaf2 1dbd
00000300: 2cc1 6b3c 293b 883d 3e34 31bd 164c 95bb
00000310: 86d5 16bd dc6a 80bd 5ffa c1bc 9f0d 81bd
00000320: 915d 873d 8063 31bd 51d6 05bc c7b7 bcbb
00000330: e734 a3bd 025a 66bd 0a75 c93c 6975 d6bc
00000340: 95ca 4f3a 49d4 383d c923 65bc bb5a b5bc
00000350: af8b b2bd b692 bc3d 43f1 99bc 4e98 1e3d
00000360: 6ad8 053d 7d1a 18bd 78f4 d6bc 5062 6cbd
00000370: 9808 9b3c 0293 fdbc b0f0 15bc beb1 94bd
00000380: 43c3 dcb8 4792 503c 498f 8dbd e683 8fbd
00000390: 3f7f 73bd 1d8a e8bc 0e50 d0bc a499 c63c
000003a0: c93b a3bd 5009 ba3c aec0 073d 0f5a 753d
000003b0: 78f4 083d f4ad 723d 447e dc3c 4195 4b3d
000003c0: e35e 933d 1f38 3fbd c1b0 24bd 8848 ba3d
000003d0: 11a6 aebc 8493 53bd dccd a8bd f56b 9a3d
000003e0: 4694 3a3c 0fb2 48bd 78ce 9ebd 8b28 853c
000003f0: 05ea 8fbd f1a5 48bd f8b4 ef3c 0b25 253d
-0.061965305 -0.03381226 -0.13548444 -0.0076180226 0.0024853332 -0.029941836 -0.16505855 0.022640811
0.046461802 -0.14878422 -0.06640577 0.04822422 0.057995275 0.021334482 0.03476381 -0.046577487
0.04040864 -0.03173408 -0.078512594 -0.03259242 -0.07250358 0.122838296 0.16049379 -0.11119043
0.11424251 -0.11655204 0.12417409 0.14056984 -0.016671287 -0.02553068 -0.1273158 -0.04273454
0.07210194 0.0022799494 -0.12561367 -0.034812503 0.03203835 0.06474459 0.09585434 -0.06510625
-0.033863775 -0.05066542 -0.051115397 -0.06123565 0.076467134 0.09432096 0.086121954 0.12448392
0.11715415 -0.07441876 0.045719214 -0.08022406 0.1253733 0.07056849 -0.082420416 -0.023188641
0.10686347 -0.017777367 0.049267765 0.01797747 0.005787291 -0.102140926 -0.122795686 -0.018234814
0.047178853 -0.06770034 0.029979693 0.10802959 -0.022653937 0.07595802 -0.14678517 -0.08234059
0.10487094 -0.015822759 0.0021086168 -0.0015122971 0.01400325 0.079903394 0.01659072 0.115639195
0.0909672 -0.13588479 0.07585249 -0.0014833134 -0.0070305704 0.033813305 -0.06445502 0.09535964
-0.012474639 -0.061242815 -0.023219783 -0.111252256 0.095821075 -0.092772365 0.088947274 -0.14566745
-0.01729218 0.0053301817 0.025380233 0.015168645 -0.01870228 0.045168906 -0.04551922 -0.08880419
-0.01194955 0.08860077 -0.013143752 -0.0014056015 0.09342807 0.043311138 -0.016442724 0.10368725
-0.05903957 0.11205844 0.04672099 -0.19029972 -0.13499822 0.087391034 -0.10300445 -0.010040401
-0.037577536 -0.0961111 0.031574775 0.09795181 -0.06701067 -0.13568088 -0.0052042096 -0.060066164
0.06610977 0.056364644 0.08372913 0.07140902 0.046739895 0.027946275 -0.021809822 -0.07986806
0.06111906 -0.023596264 0.07560168 0.02233988 0.03794299 0.016870948 -0.060796153 -0.10753448
-0.060094137 0.055167355 -0.08387561 0.08590256 -0.04162356 -0.034615938 -0.05007272 0.071310036
0.017548855 0.019890232 0.008101478 0.049970116 0.103577524 -0.013892565 0.07482769 0.037155174
0.076081306 0.02793089 -0.0851907 0.03633456 0.041951656 0.011106163 0.0802394 0.051110562
0.095087886 -0.031147616 0.023316907 -0.04905757 -0.08336136 0.034249328 0.07335232 -0.049983423
0.056969374 -0.08466653 -0.024232099 -0.015194153 0.032607116 0.076344766 0.00095729664 0.043835096
0.075816534 -0.09170155 -0.06626256 0.08655295 0.019108959 -0.08282558 -0.051493887 -0.0385615
0.0143893175 0.06651909 -0.043262713 -0.0045561893 -0.036824726 -0.06270382 -0.023678957 -0.06301426
0.06609643 -0.04330778 -0.008168773 -0.0057592127 -0.07969075 -0.056238182 0.024591941 -0.026179032
0.00079266104 0.045124326 -0.013985583 -0.02213799 -0.08718049 0.092076704 -0.0187918 0.038719468
0.03267709 -0.037134636 -0.026239619 -0.057710946 0.018924996 -0.030953888 -0.009151623 -0.07260464
-0.00010526788 0.012730188 -0.06912095 -0.070075795 -0.059447523 -0.02838617 -0.025428798 0.024243183
-0.079703875 0.022709519 0.033142738 0.05990034 0.03343627 0.059247926 0.026915677 0.049702886
0.071958326 -0.04668438 -0.04020763 0.090958655 -0.021319421 -0.051654354 -0.082423896 0.075401224
0.01138789 -0.048997935 -0.077542245 0.016254684 -0.070270576 -0.04898638 0.029261097 0.04031853

lstm.bias_ih_l0 f4 [512]
00000000: 5773 2e3e 67f8 62bd 9988 8abd a3a3 8dbd
00000010: a122 cf3c efb1 153d 049a 39bd 9e6f 99bd
00000020: b634 3dbd 7e66 353d 1f2c d4bb 9bb6 f63d
00000030: 70a2 513d f204 4d3c 07dd 233c 62ff 253b
00000040: cd07 4f3e 8070 623d f25e d7b9 5b74 b0bd
00000050: 47c1 3f3d b818 913d 20b4 913d 1886 27bd
00000060: 0d9e 3bbd e58d d83d 63fa a73d f732 75bd
00000070: 32c8 2f3e 6944 f6bc 6d88 453d 50bc 8f3d
00000080: 1fee 3fbd 820b eebc ee26 dd3d bd3d 873d
00000090: 1029 a73d eb41 2bbd 4f9f 10bc 8015 80bd
000000a0: b88b d93d bcfa 8abd 9de7 273d 1db5 e03d
000000b0: 1bfe 4f3d 1a25 9a3d 65c3 1b3d 8f51 903d
000000c0: ca15 a9bd 4a87 9bbd a7e2 803d 0b6a 923d
000000d0: 4207 dcbc b42b 083d d431 ce3d eac2 a63d
000000e0: 0fca b8bb ce9c 073d 4330 01bc b584 6e3d
000000f0: aa45 ca3c b975 173e c35c c43d 0b92 393c
00000100: 99d4 a03c 310b d93d 8804 40bd fdaf 563d
00000110: 2770 8fbb 9aa7 933a 67cc d83c 53a7 3f3b
00000120: 5b43 9fbc 5545 243c 36aa bf3d b061 aebd
00000130: b34c 623d c91d e93d d95f ea3c 8ab8 8e3d
00000140: 6536 27bd 78a5 99bd 8208 843d 7494 a43d
00000150: 8b41 9bbd 29a7 52bc 4a3c 20bd 96a2 8a3d
00000160: 2315 04bd 0577 abbd e2a7 7b3d 1fe7 793d
00000170: 7c4e 963d 7135 da3d f306 2fbd c79d 15bd
00000180: 3fd6 14bd 601c ab3d 172f 743d d77f c33d
00000190: 883f 6dbc 96c0 2abd e810 1abd 1586 a4bb
000001a0: eabd 75bd 091a 1abd 235a a23d 7fce df3d
000001b0: e426 343c 0281 a7bc c814 af3d 715b 1b3d
000001c0: bed9 e93c fb8d 343d 57f9 493d 20a7 703d
000001d0: 9ffa 773d d290 363d 3d63 81bd 5713 b73d
000001e0: d841 93bc 126c 23bc c3c3 263c 3087 9b3d
000001f0: 91e1 f6bc 4352 8b3e 08e8 bebd 195b 573d
00000200: e5dc 8a3d 09d8 97bc 506b 12bd 9629 003d
00000210: 102e 09bd a642 81bd 901c ad3d 1907 c23c
00000220: 6591 94bd d7ba 0a3d fec4 d43c 981f b03c
00000230: e188 973c d825 fabb a900 d63b d137 55bd
00000240: faf2 17bd ca57 a8bd e7f3 513d f6b4 e3bb
00000250: 2c66 e7bc 725e bbbd 20bb 67bd 7f5e 6b3d
00000260: 9d5e ddbb 72e1 4bbd db87 89bc 3e1d 233d
00000270: 1735 fbbc beb1 35bd 71e6 85bd bc3c 7b3c
00000280: 7669 0e3d c992 0dbc eff4 26bd a4ac 953d
00000290: 9078 10bd 4769 873d 5463 203d c091 21bc
000002a0: ba62 a6bd 2180 8d3d 83d9 96bd fc9b 4f3d
000002b0: 5119 8e3d a28e 01bd bf6a 6ebd 8223 943d
000002c0: 0cf2 7b3d 84a3 793d 7025 863d b2eb babd
000002d0: 175c d63c 9e22 6a3c 66e9 a23c d65f 9dbd
000002e0: 4281 d6bd 3335 a73d 133b c43c 6192 293d
000002f0: 377f 883d 1584 b73d 1f55 713d 7931 45bd
00000300: ce97 8dbb 6591 0fbc d003 883d 6e7a c4bc
00000310: 0c63 5e3d f955 a33d 65d1 cebc 9926 963d
00000320: 4c1d 8bbd d10e b7bb 9f7d 943c d5dd 77bd
00000330: 4f2f 1f3d f650 a23d b9b7 de3c 7710 943d
00000340: f82a cd3c b436 2ebd 66fe 1e3d 58b4 fb3c
00000350: ae12 4dbd 7865 d239 1c6f 04bd dfb1 e5bc
00000360: 43f3 5fbd c5dc aabd 081a 15bc dfcc 24bd
00000370: c3e7 333d df4f 2abd 9e06 84bd 5521 783d
00000380: 73d7 2fbd e0dd 89bd 27a2 27bd ac1f 103d
00000390: 5684 6fbc 3152 e33c 6a8c 953d 5a3c 54bd
000003a0: 5579 aa3d 400b 0b3d 3b54 463b a49c 9e3d
000003b0: cc8b fdbc 54da 86bb f095 f7bc 2b6c 743b
000003c0: d4ca 4f3d dd19 893c 6d51 87bd c080 a83c
000003d0: eab1 c13a 7745 89bd c6ba a53c f881 0b3d
000003e0: 96bd ca3b 2229 343b 1691 6b3b 6ef2 e9bc
000003f0: f594 6dbd 4621 1dbd 4e4f c4ba d133 b63c
0.17036186 -0.055412676 -0.06764335 -0.06915977 0.025285067 0.036546644 -0.045312896 -0.074919924
-0.046192847 0.044287197 -0.006474986 0.12046548 0.051180303 0.012513386 0.0100014275 0.0025329222
0.2021782 0.05528307 -0.00041078735 -0.08615943 0.046815183 0.07084793 0.07114434 -0.040899366
-0.045805026 0.10573939 0.08202054 -0.059863057 0.17166212 -0.030061917 0.04822581 0.0701834
-0.04685795 -0.029058222 0.10798441 0.066035725 0.08162129 -0.04181091 -0.008827045 -0.06254101
0.10622352 -0.06786105 0.040992368 0.109720446 0.050779443 0.07526608 0.03802814 0.07046806
-0.08256109 -0.07594164 0.062932305 0.07149132 -0.02685893 0.033244804 0.10068098 0.08142646
-0.0056393216 0.033108525 -0.007885042 0.058232028 0.024691422 0.14791001 0.095880054 0.011326323
0.019632624 0.10597838 -0.04687932 0.05241393 -0.0043773833 0.0011265159 0.026464654 0.002924402
-0.019441297 0.010026296 0.09358637 -0.08514726 0.055248927 0.11382634 0.028610157 0.06968792
-0.04082336 -0.07502264 0.06446935 0.08036128 -0.07580861 -0.012857237 -0.039119996 0.06769292
-0.03224672 -0.083723105 0.061439402 0.06101143 0.073391885 0.106547244 -0.042731237 -0.03652742
-0.036337133 0.083550215 0.05961522 0.09545868 -0.014480479 -0.04168757 -0.03761378 -0.0050208666
-0.05999557 -0.037622485 0.079273485 0.10928058 0.0109956 -0.020447258 0.085488856 0.037929002
0.02854621 0.044080716 0.049310055 0.058753133 0.060541745 0.044571705 -0.06317756 0.08939236
-0.017975733 -0.009974496 0.010178509 0.07594144 -0.030136855 0.27211198 -0.093216 0.052577112
0.067804135 -0.01853563 -0.035746872 0.03128966 -0.033491194 -0.0631154 0.084527135 0.023685025
-0.07254294 0.03386959 0.02597284 0.02149944 0.018497886 -0.007633906 0.0065308404 -0.052055184
-0.037096955 -0.082198694 0.051257994 -0.0069490625 -0.028246962 -0.091488734 -0.05657494 0.057463165
-0.0067556635 -0.04977555 -0.016788414 0.03982281 -0.030664964 -0.04435896 -0.06538094 0.015334304
0.034768544 -0.008640953 -0.04076093 0.07308319 -0.035271227 0.06611877 0.039157227 -0.00986141
-0.08124299 0.06909204 -0.07365706 0.050685868 0.069384225 -0.031630166 -0.05820727 0.07233335
0.06151013 0.060946956 0.065501094 -0.091269866 0.026166959 0.01429048 0.019886684 -0.07684295
-0.10473873 0.08164444 0.02395395 0.041399363 0.06664889 0.089607395 0.05891907 -0.048142884
-0.004321075 -0.008762692 0.06641352 -0.02398416 0.054293677 0.07975382 -0.025246331 0.07331581
-0.06792697 -0.005586483 0.018126307 -0.06051429 0.038863476 0.07925598 0.027187215 0.07229703
0.025044903 -0.042532638 0.038816832 0.030725643 -0.050066642 0.0004012992 -0.032332525 -0.028038917
-0.05467535 -0.0834289 -0.009100445 -0.040234443 0.043922197 -0.041580077 -0.06446575 0.060578663
-0.042930078 -0.067317724 -0.040926125 0.035186455 -0.014618954 0.027749153 0.073021725 -0.05181537
0.083239235 0.033946276 0.0030262608 0.077447206 -0.03095045 -0.004115382 -0.030222863 0.0037295918
0.05073054 0.016735965 -0.066073276 0.020569205 0.0014777754 -0.067027025 0.020230662 0.034059495
0.006187151 0.0027490337 0.0035944632 -0.028557982 -0.058003385 -0.03836181 -0.0014977248 0.022241505

lstm.bias_hh_l0 f4 [512]
00000000: 0504 143e 0be3 953d d927 b53d 73c9 b7bd
00000010: e009 623c a035 083c 5481 4e3d 181a aabd
00000020: df31 b13d 9c37 70bd e9a9 093d bced e83d
00000030: dbf7 b9bd 37dd 443d 616c 823d 18c9 c73c
00000040: 963c 533e ed20 203c d884 d83c c7c6 173c
00000050: 3fc3 74bc c807 f43b 178e 133e 5eda bbbc
00000060: 0e4a b23d 75da df3d 63fb 4a3d 7086 20bd
00000070: 024a 323e 0dbc 103e c049 72bb 856d 5fbd
00000080: b301 293d 42e2 193d 5cbc 7d3d b555 6c3d
00000090: 431d 733d e00c e03c f3eb b83c 842b 27bb
000000a0: a25e 073e e410 8bbc e93e 4a3c 7567 ebbc
000000b0: 09d7 273d 06bb c43d 598d 2a3d 9b3a 50bd
000000c0: fa94 b4bd e7f5 7fbd c50e 913d b4ad f13a
000000d0: f5dc 683d ca3a fabb aead 123c 3ef8 46bd
000000e0: 2eee 1fbc c76f db3d b362 883d d185 1c3d
000000f0: 6824 3f3d 6966 983d e8c2 96bd 5ee0 a33d
00000100: 9b7c 9b3d 056a c3bc c6de a73d 091b 83bd
00000110: 6c36 9a3d 8b26 24bb 964c 3c3d 5963 903d
00000120: ad66 533d 73ee 90bd ee11 953d 6e5a 90bc
00000130: 5323 7abc 9344 f83d b25e 383d 172f 70bd
00000140: 95b7 ddbc 8cb5 563d a872 403d 9e68 7f3d
00000150: 1322 d8bc 95e5 7a3d b290 73bd d489 4abd
00000160: 8ea7 5abd 5ca1 853d a29a da3d a659 5dbd
00000170: f29d b33c 1931 8c3c fb6a b23d 47a5 06bd
00000180: 46a2 87bb 2b67 ad3d d045 ed3c e684 cebc
00000190: 6ff0 6bbd 64ef aabc f877 373c e5d4 0dbd
000001a0: ca00 c43c 505a a03d 69b1 143d 941d 543d
000001b0: 6173 df3b 26ab 34bd 00cd 2dbd 4c9b e3bc
000001c0: 3c63 75bc 1512 0f3d a84e 9d3c dab1 fb3d
000001d0: dcae f0bc e63f bb3d 857e c03d ca93 6c3d
000001e0: f7d7 5fbd e96e a63d d70a 7e3d bd79 253c
000001f0: bad4 85bd 273e 6a3e c2ba ef3c 81dc 933d
00000200: 3e0b 80bd 2118 7fbc feb4 8d3c 296c 92bd
00000210: 2929 99bd 6ced b7bb 7899 ef3b f55d 8ebd
00000220: 896f ad3d d32f 95ba 46f5 283d c0d7 1a3d
00000230: 2080 89bd 8ed0 383c ef63 93bc 1730 67bd
00000240: 5bc1 d6bd 6558 20bd f2d0 043e 680d fabc
00000250: aa3d 85bd 7eea 9f3c 5dff ab3c bf21 73bd
00000260: c351 6fbd f402 093c bb01 a4bd 8580 063d
00000270: bd83 d8bd d990 32bd 8a3f cabc ed24 7abd
00000280: db02 9dbc fc47 fbbc e3bb 663d 1673 9bbd
00000290: a266 60bd f341 833d 8f59 753d 6dc9 6bbd
000002a0: a5f7 60bb 8960 703d c070 2c3d e168 cabc
000002b0: c2b3 94bc 035d ab3c bd90 93bd 62e8 a23d
000002c0: 2ceb 75bc f902 503c be2f 06bc e018 38bd
000002d0: f826 8ebc fa56 883d 9842 b83d 673d 9b3d
000002e0: d55e a6bd 0307 9ebc d1b1 803c 5b9d 27bd
000002f0: 87f9 57bb 9586 463b b530 c53d 4863 57bd
00000300: ee0d 753c fc05 c7bd ecda 86bd 77ae 09bd
00000310: 8965 953d b882 92bd 29e8 25bd 4f23 2bbd
00000320: 1ace 3fbd 9daf cdbc 9f7f 35bd eaa4 9c3d
00000330: a66d acbd 8bc0 a73d 0593 a2bd 9bd3 6fbd
00000340: 950a db3c 0e33 fa3c aea0 4bbd 133d 7e3d
00000350: 66ec 37bc 8f20 87bd d967 51bd cf24 12bd
00000360: 3530 d7bc b87b 48bb 9dac ea3c aae4 1fbc
00000370: 5e46 c13d ce96 b43d 6414 83bd 79ca 8e3d
00000380: 0cb9 c83c 0880 a73c 08c1 b0bd cb44 643a
00000390: 1000 9d3d 8b8d 7bbc ffaa e43b cdb4 55bd
000003a0: 3901 3bbc 8398 b43d 420b 69bd 6581 c6bc
000003b0: 36b6 1c3d 7530 443d 2e06 943d 0081 9fbd
000003c0: d0c2 1a3d a9de 553c 7f1b 433c 8cf2 bd3b
000003d0: 022b 88bd aa9f 31bd 1bc0 6dbb 9a68 f4bc
000003e0: 4987 cb3c 2be2 b93d 013e 78bc a255 28bb
000003f0: da74 223d 054d 313d 0ff8 0bbd ba8e 903d
0.14454658 0.07318696 0.08845491 -0.0897397 0.0137963 0.008313566 0.050416306 -0.08305758
0.0865209 -0.058646783 0.033609305 0.11373469 -0.09080478 0.04806253 0.06368328 0.024387881
0.2062858 0.009773475 0.026430532 0.009263701 -0.014939128 0.0074472167 0.14409672 -0.022931274
0.08705531 0.10930339 0.049556147 -0.03919071 0.17411044 0.14134236 -0.0036970228 -0.054547805
0.041261386 0.037569292 0.06194721 0.057698924 0.059354078 0.02734989 0.022573447 -0.0025508115
0.13219693 -0.016975828 0.0123441005 -0.028735856 0.040976558 0.096059844 0.041638706 -0.05083714
-0.088174775 -0.06249037 0.07082895 0.0018438608 0.056851346 -0.0076364027 0.008952541 -0.048576586
-0.009761376 0.10714679 0.066594504 0.038213555 0.04666558 0.07441408 -0.07361394 0.08001779
0.07592126 -0.023854265 0.081967875 -0.06401641 0.075299114 -0.0025047387 0.045971476 0.07050199
0.05161159 -0.070767306 0.072788104 -0.017621245 -0.015267211 0.121224545 0.045012183 -0.05863866
-0.027065078 0.05241923 0.046984345 0.06235563 -0.026383435 0.061254103 -0.059464164 -0.04944785
-0.05338245 0.065249175 0.10674025 -0.054040574 0.0219259 0.017113255 0.08711811 -0.032872465
-0.0041392175 0.08466943 0.028963953 -0.025209855 -0.057602342 -0.020866103 0.011198036 -0.03462686
0.023926158 0.07829726 0.036302004 0.05178602 0.006819174 -0.044108532 -0.04243183 -0.027784012
-0.014977273 0.034929354 0.019202545 0.12289782 -0.029380254 0.09143047 0.09399132 0.05775813
-0.05464932 0.08126623 0.062022056 0.010099825 -0.06534715 0.22875272 0.029263858 0.07219792
-0.06252144 -0.015569718 0.017298218 -0.07149536 -0.07478554 -0.0056130197 0.007311996 -0.06951515
0.08468539 -0.001138205 0.041249536 0.03780341 -0.06713891 0.011280192 -0.017991988 -0.056442346
-0.104860984 -0.0391468 0.12970331 -0.03052397 -0.06505902 0.019520994 0.02099579 -0.059358355
-0.058427583 0.0083625205 -0.080081426 0.03283741 -0.10572002 -0.04359517 -0.0246885 -0.06107037
-0.0191664 -0.030673973 0.056331526 -0.0759031 -0.05478538 0.06409063 0.059899863 -0.05756514
-0.0034327295 0.058685813 0.042099714 -0.024708213 -0.018152121 0.020918375 -0.07205341 0.0795448
-0.015009683 0.012696021 -0.008190094 -0.044945598 -0.017352566 0.066572145 0.08997077 0.07580071
-0.081235565 -0.019290453 0.01570979 -0.04092155 -0.0032955126 0.003029262 0.09628431 -0.052584916
0.014956934 -0.09717938 -0.06584725 -0.03361365 0.07294757 -0.07153839 -0.04050461 -0.04178172
-0.046827413 -0.025108153 -0.044311162 0.07648642 -0.08419351 0.081910215 -0.07938198 -0.058551412
0.026738444 0.030541923 -0.049713783 0.062069964 -0.011225795 -0.06598007 -0.051124427 -0.035679635
-0.026268104 -0.003059132 0.028646762 -0.009759108 0.094372496 0.08817826 -0.064003736 0.06972212
0.0245023 0.020446792 -0.08630568 0.0008707761 0.076660275 -0.015353571 0.006978392 -0.05217438
-0.011413866 0.08818152 -0.056895502 -0.024231622 0.038259707 0.047897775 0.07227741 -0.07788277
0.037783444 0.013053575 0.011908411 0.005796736 -0.06648828 -0.04336516 -0.0036277834 -0.029835034
0.024844782 0.09076341 -0.015151502 -0.0025685807 0.03966222 0.043286342 -0.034172114 0.07058473

lstm.weight_ih_l1 f4 [512, 128]
00000000: a5a4 6f3c 80ed c43d 7760 693d 03fd 663c
00000010: 9108 233d f552 e3bb 97ca 8a3d a091 8cba
00000020: 1fe5 393d 9e6c d23d 413c fb3c 208c b9bd
00000030: beb9 87bd 2571 b0bb 0f61 eebc 7854 5c3d
00000040: 3e15 913c b8c5 3cbd 36db bbbc db40 c8bd
00000050: bcc5 81bd e6ec 9abd 75f5 40bd a5da 3e3d
00000060: 7cea 263c e16b a1bc 4c05 1d3d 2196 293c
00000070: 3c11 ff3d 0ac5 073d 0d7a e1bc 8912 e73b
00000080: ae7b 8fbd 33b3 213d 8163 093d 6d30 91bc
00000090: 746c 093d f155 853d 07a7 95bc d1a6 53bd
000000a0: 2e06 d8bb ff5c cfbb 81df 25bd 154e c53d
000000b0: 9dd8 2e3d 8284 7dbd b9ba 17bd a008 2c3d
000000c0: a0d9 2cbd eeab a23d cc53 e5bd 60e6 b53b
000000d0: 9efa 863b d5df f13c eb53 5a3d a350 42bd
000000e0: 7115 19be a002 57bd 20cb 5fbb 21f6 b2ba
000000f0: 4628 8a3c 7c05 d8bc 8658 0b3c 44f5 b73d
00000100: bf23 27bc 64b9 773d c423 ab3d f0be 6b3b
00000110: 4020 a6bd 7ad4 003d a1d9 dabc 80fb 4b3d
00000120: 82bf c7bc 1134 773d dff8 4d3d d112 a4bc
00000130: 619b 193d 4d51 30be 503c 7dbd 5d1d 1ebd
00000140: 0ba9 0b3d 92c7 33bd 572b 9abc 9d6c 4cbc
00000150: 7d87 a9bc 29e9 9dbd c6d6 793d c7b8 24bb
00000160: 640e cabc 97c0 173d 1dce 08bd ec5a d03d
00000170: ec38 4bbc 6b3c 07bd 43cb 45b9 6bbd ae3d
00000180: 243d bd3b 4443 533c fdde d23c d618 463d
00000190: c2d5 823d 4a5d 8abd ba53 12bd 54ee 1abd
000001a0: 11d5 c5bc 0c32 12be 316f fbbd f5c7 20be
000001b0: 7889 33bd c51c 413d 78f1 03bd 1421 cebc
000001c0: 8337 f03c 840e 903d eb33 7ebd 1b6d 2c3d
000001d0: 2fd5 f13d 16f4 ea3b f35b 963d ae58 dabc
000001e0: 2508 6abd 2874 1abd f6e2 46bd df97 85bd
000001f0: a554 133a d8c0 bb3c 2416 8b3d afec 093c
00000200: 013f d23d 06a2 f03c 6f19 9f3c e87a 11bd
00000210: 5361 4abc 838a 2fbd e472 a33c e71d 99bd
00000220: 273b 70bd 0b5c 483d 2e47 ee3c a859 9d3c
00000230: 9f5a 243d 906d 013c e64f 2abc ba94 abbd
00000240: 4493 e6bc 3184 bcbc 8266 70bd d17e 1b3c
00000250: 4acc 693d 8a72 2e3d 0e6b cbbd ba66 e43c
00000260: bffa c83c 9716 aebd ff32 b43d dcbb dd3b
00000270: 25e3 94bc e667 8b3d 2f45 0bbc b577 8f3c
00000280: 47ad b239 a87e 2fbd 4d02 ae3d e313 80bc
00000290: 74ee 003d 7ad4 c0bd c887 a0bc 0233 a03d
000002a0: ac62 503d 4228 043d 59a3 23bd 6053 3c3d
000002b0: 1a98 81bd 3fca b13c a6b1 83bc 2736 c43c
000002c0: f43e 44bc 0171 cdba 8515 4a3d 2a24 4e3c
000002d0: 4e48 1abc bc7c adbd a356 193d 6cb1 763d
000002e0: d526 d7bd 599a 26bd 347f 573d 036c 19bd
000002f0: 476b a9bd 74aa 76bd 123b 823c 966c 99bd
00000300: 8ecd acbd 4154 1c38 e4d1 8b3d 17fd 513c
00000310: 824d 6bbd 16fc 42ba a336 463c d0af 75bd
00000320: 10f9 963d 4bc5 653d bb32 a3bd f192 babc
00000330: 93f3 5b3c 2838 b13c 4bcc 9a3d a040 843d
00000340: 8ccb f7bc d328 4dbd 2bdd 833d 3e7f 173d
00000350: 26e3 353d ae7f 07bd f679 2abd 268c e7bb
00000360: 3213 0e3d 55d3 823b fb31 cc3c 222a 4c3d
00000370: 4a58 a5bd 4c77 49bc 7d1b 3a3d eb68 acbd
00000380: 1e7c a2bd 673f 90bd ed37 773d 8b8b 1e3c
00000390: 1a97 c2bc 5c76 1bbc 7fea 9abd cdb2 9b3d
000003a0: ca00 9e3d 10e3 4d3d de25 d1bc fac4 3c3c
000003b0: c6ec 673c 120e 2f3d d1eb ac3d 43bb 48bc
000003c0: e536 85bd fa7d 7a3c 3d76 373d eb96 e0bc
000003d0: 74dc 65bd eb51 573d 78c8 0a3d bc1c ecbb
000003e0: 6b01 943d 441d d0ba 8ebf 223c 3d42 43bd
000003f0: ae56 24bd b641 8ebd d508 793d ed9b 23bd
0.014626657 0.09615612 0.05697676 0.014098409 0.03980309 -0.0069373795 0.06776922 -0.0010724552
0.045384523 0.10274623 0.03066838 -0.0905993 -0.066272244 -0.0053845816 -0.029099016 0.053791493
0.017710324 -0.046086997 -0.022931676 -0.09777995 -0.06336543 -0.07564716 -0.047109086 0.046595234
0.010187741 -0.019704761 0.03833513 0.010350735 0.12454459 0.033146895 -0.027524019 0.00705177
-0.07006012 0.03947754 0.03354216 -0.017723287 0.033550695 0.06510533 -0.018268121 -0.05167276
-0.0065925336 -0.0063282247 -0.040496353 0.096340336 0.042687047 -0.061893947 -0.037043307 0.042000413
-0.04219973 0.07942949 -0.111976236 0.0055511445 0.0041192314 0.029525677 0.053302687 -0.047440182
-0.14949585 -0.052492738 -0.0034148172 -0.0013653674 0.016864907 -0.026369803 0.008504992 0.089823276
-0.010201394 0.060479537 0.08356431 0.0035971962 -0.0811162 0.031452633 -0.026715102 0.049800396
-0.02438331 0.06035239 0.05028617 -0.020028504 0.037501696 -0.17218514 -0.061825097 -0.03860222
0.03409676 -0.043891497 -0.018819494 -0.012477067 -0.020694489 -0.077104874 0.06099584 -0.002513455
-0.024665065 0.037048902 -0.03339969 0.10173592 -0.012403708 -0.033016603 -0.00018863105 0.08532222
0.005775111 0.012894455 0.025741095 0.04836353 0.06388427 -0.06756075 -0.03572438 -0.037824944
-0.02414945 -0.14276904 -0.122770675 -0.15701278 -0.043832272 0.047146577 -0.032212704 -0.025162257
0.029323345 0.07034019 -0.06206123 0.04209624 0.1180824 0.0071702106 0.07341757 -0.026653614
-0.057136673 -0.03770843 -0.04855629 -0.06523108 0.0005620218 0.022919104 0.06791332 0.008418246
0.10265923 0.029374134 0.019421307 -0.035517603 -0.012352305 -0.042856704 0.019952245 -0.074764065
-0.058650162 0.048915904 0.029086675 0.01920779 0.040125486 0.007899657 -0.010395026 -0.08377977
-0.028146394 -0.023012253 -0.05869151 0.009490685 0.05707959 0.0425897 -0.099325284 0.027881015
0.024533628 -0.085004024 0.08798789 0.0067667793 -0.018174717 0.068069264 -0.008500381 0.017513135
0.00034079907 -0.0428454 0.084965326 -0.015634483 0.031477407 -0.09415527 -0.019595996 0.07822229
0.05087535 0.032264955 -0.039950702 0.04597795 -0.06327839 0.021702884 -0.01607592 0.023951603
-0.0119779 -0.0015673937 0.04933693 0.012581864 -0.009416653 -0.08471057 0.03743614 0.060227796
-0.105054535 -0.04067454 0.052611545 -0.037456524 -0.08272415 -0.06022115 0.015897308 -0.07491414
-0.08437644 3.7271766e-05 0.06827143 0.012816689 -0.057446964 -0.00074380764 0.012097987 -0.05998212
0.07371724 0.056096356 -0.079686604 -0.022775145 0.013424772 0.021633223 0.07558497 0.06457639
-0.030248426 -0.05008776 0.06438669 0.036986582 0.04440608 -0.03308075 -0.041620217 -0.0070662675
0.034686275 0.003992478 0.024926176 0.04984487 -0.080734804 -0.012296509 0.04543637 -0.08418449
-0.0793383 -0.07043343 0.06035607 0.009676824 -0.023753691 -0.009488668 -0.07564258 0.07602463
0.07714994 0.05026537 -0.025530752 0.011521572 0.014155572 0.042738028 0.08443416 -0.012251678
-0.06504611 0.015288824 0.044790495 -0.027415713 -0.056118444 0.052568357 0.03388259 -0.007205574
0.07226833 -0.0015877862 0.0099333655 -0.04767059 -0.040121727 -0.06946127 0.06079944 -0.039943624

lstm.weight_hh_l1 f4 [512, 128]
00000000: b879 0fbd cc6b 23bc faf7 55bc 3cde 9e3c
00000010: 8b49 183e 2501 cbbd 8d93 c0bd 03e0 f33c
00000020: 284e 37bd f3a6 2b3d ee23 d43d 143b 3fbc
00000030: e6db 2fbd 1810 993b 4af0 5dbd 084b e2bc
00000040: b8b8 303b 52a2 6bbd 7759 1ebd eebc c0bc
00000050: 9ccd 3a3c 683b 6fbd ae0d a3bc 2151 47bd
00000060: 4dff 003e 765b 99bd 60aa 653d 67c2 60bc
00000070: 0d18 a63d 8544 fa3b 8e87 2b3d 3d6f bf3d
00000080: cc1d 4a3d 536f 63bd ccc0 18be da39 8b3d
00000090: 2b54 09bc e722 0abd 0bfa 9abc 444d f53d
000000a0: 07a5 80bc 85cc 8d3c 217a dbbd 0bc6 453b
000000b0: e120 2ebd df36 603d 4f7b 9a3d f907 5c3c
000000c0: 9609 aabd c78a 2cbc 2d18 2bbd 5e54 09bc
000000d0: a4ba dbbc c401 07b8 516d 8ab7 23d5 623d
000000e0: 866c 8e3d 2186 c7bd 3652 b23d a9a8 1dbd
000000f0: 126c 983d f51b 1a3d 4a89 a43d 6133 eebd
00000100: accf bc3d ac89 69bd 4013 5cbd ae2c ca3c
00000110: 8584 0eba 0403 32bd 2dc0 0b3d 4058 fcbd
00000120: 3a5d 0abd 017a 68bd fe1b fd3b 2b19 e9bd
00000130: 9f86 48bd 1000 17bd 0a5a 683d f4b9 4ebd
00000140: 280b 453e 1d41 debc 8b4b c63c 03ab 80bd
00000150: c7e5 313c b83c 7abd 9d7b 603c f903 dc3d
00000160: d3fd 453b 58dd 1cbd 2860 303c b22f 203b
00000170: fd5d a63d 56f7 56bd 92c2 53bc d5ea d4bd
00000180: 9eb5 053c bdaf f73d cc62 a03d 8bc0 61bd
00000190: e5f9 b63c f0d9 533d 6285 8b3c 33fa 4e3d
000001a0: 06e3 a63b c141 ddbd 6b03 6a3c 6374 04bd
000001b0: 3cc9 5cbb b6b7 85bc bdb8 3f3d f62c ee3d
000001c0: a084 a83d 5e37 5abb 9bf6 ef3a 2531 963d
000001d0: 76c9 173d a5c5 b5bd bddf b9bc f70b c2ba
000001e0: 5d9d db3c 4624 35bd 5093 8c3d 687b fe3d
000001f0: aa8f f33d 0d99 a0bc 51e8 9dbd 86c2 8d3d
00000200: 802a 4cbd 905f d0bc 7166 a1bc 3ccd 59bd
00000210: 5879 82bb 7681 51bd 1d34 86bd 7936 bdbd
00000220: 0e8a ce3d 87a5 a83c 94a4 4c3d 1e18 b73d
00000230: db89 9cbd 3d8b fabc a6c8 0d3d 114b 143d
00000240: d24a a3bd 9ae2 a93c 9b28 b6bc c477 3a3c
00000250: 296d c3bc 65d1 813d ca63 25bd b3cd 903c
00000260: 70f0 9e3d 5db7 913d 5c24 a7bd 2ceb 3cbc
00000270: df4e 1c3d 079a 253d 81a9 a93d e920 f83c
00000280: 3ef9 673d 0649 e8bb 8699 b3bd 0135 8ebc
00000290: 6963 283c ba99 633d 5f66 54bd c173 aa3d
000002a0: 70f2 efbc 32bb 13bd 0fd7 93bd d9c4 1d3d
000002b0: 354e f4bc 6afd 04bc e383 433a 0611 a63d
000002c0: 5f07 483d db1e c7bc 7522 3c3d 7e57 b5bb
000002d0: 9b62 6cbd a125 69bd e3d7 b1bd 988e fe3a
000002e0: 840c 73bb 5a5c 2bbd e117 01bd 72dc 003d
000002f0: ac30 90bd 0998 5fbd 0b7e 3bbd bcfd f8bc
00000300: cd4a 30bd 6323 7cbd cb23 0a3b f25a 8d3d
00000310: e97f d6bc a040 88bd 0799 66bc b554 153d
00000320: db0b 773d a482 9d3d ce9b 8d3d 3108 81bd
00000330: 4b00 513d 4ae2 a4bd 4014 aebb 28b3 c0bc
00000340: 76e0 093d 1720 babc c7b1 d0bc 1f6a 853c
00000350: b7d3 093d 122f bdbd 603e 5ebc ad6d c1bc
00000360: 4c8f 283d 4e9c a6bd 5ed9 a2bd 5ffd 983d
00000370: bdf2 8fbd 53bb ccbc f5ba 113c 2086 023d
00000380: e420 2c3d dd70 bf3d a682 35bd fa6f f8bb
00000390: 45e8 33bb c626 09bc 45c0 263d 4d3e 84bd
000003a0: 7066 9fbd b693 abbd ccfb 4b3d a5c9 a1bd
000003b0: 4d66 cc3b 08ae 373d 1de3 603d 74b5 b7b9
000003c0: 1734 f23b 912f 9cbd dd2a a8bd 35e8 7cbd
000003d0: ab5d b83b 677e bebd f347 08bc a995 afbb
000003e0: 935a c53d fa20 86bd 3f79 5c3d b4ff 383c
000003f0: c054 2b3b 446d d9bc f6b0 3c3c 3c1e 173d
-0.03502819 -0.009974431 -0.0130596105 0.019393079 0.14871804 -0.09912328 -0.09403143 0.029769903
-0.04475227 0.041907262 0.103584155 -0.0116718 -0.04293432 0.004671108 -0.054184236 -0.027623668
0.002696557 -0.057527848 -0.03865954 -0.023527589 0.01140156 -0.058406264 -0.019903984 -0.048661355
0.1259739 -0.07488148 0.056070685 -0.013718224 0.08110056 0.0076375627 0.041877322 0.09347389
0.049344823 -0.05552609 -0.14917296 0.06798144 -0.008381884 -0.03372469 -0.018918058 0.11977628
-0.015703691 0.017309437 -0.107166536 0.0030177857 -0.042511825 0.05473983 0.075430505 0.013429635
-0.083026096 -0.010531134 -0.041771103 -0.008381931 -0.026822396 -3.2188153e-05 -1.6501786e-05 0.055379044
0.06954293 -0.0974238 0.08707087 -0.038490925 0.07442488 0.03762432 0.08033998 -0.116308935
0.09219298 -0.05701606 -0.053729296 0.024679508 -0.0005436617 -0.043459907 0.03411882 -0.1232152
-0.033780314 -0.056756977 0.007724284 -0.113817535 -0.04895651 -0.036865294 0.056726493 -0.050470307
0.19242537 -0.027130658 0.024205944 -0.06282618 0.010858006 -0.061093062 0.013701347 0.10742945
0.0030211105 -0.038297027 0.010765113 0.002444249 0.081233956 -0.05248197 -0.012924807 -0.10396353
0.008160977 0.12094066 0.07831344 -0.055115264 0.022335956 0.051721513 0.017031375 0.050531577
0.0050929813 -0.10803557 0.0142830415 -0.032337558 -0.003368928 -0.016322952 0.04680704 0.11629669
0.08228421 -0.0033297162 0.0018307747 0.07333592 0.037057362 -0.08875588 -0.022689695 -0.0014804591
0.026808435 -0.044224046 0.06864035 0.124258816 0.11892636 -0.01960423 -0.077103265 0.06921868
-0.04984522 -0.025436193 -0.019702168 -0.053174242 -0.0039817505 -0.051148854 -0.065529086 -0.092389055
0.100849256 0.020586742 0.04996164 0.08940147 -0.07643481 -0.030583972 0.03461518 0.0362044
-0.07973255 0.020737935 -0.02223616 0.011381093 -0.023855763 0.06338767 -0.04037837 0.01767621
0.077607036 0.07115052 -0.08161232 -0.011530679 0.038161155 0.040430095 0.082842834 0.03028913
0.05663418 -0.007088783 -0.08769517 -0.017359259 0.0102776075 0.055566527 -0.05185544 0.083228596
-0.029290408 -0.036067195 -0.072187535 0.038517807 -0.029822448 -0.008117059 0.00074583123 0.08108716
0.048835155 -0.024306705 0.0459313 -0.0055341115 -0.057711225 -0.05692065 -0.08683755 0.0019421158
-0.0037086317 -0.04183612 -0.031516913 0.031460233 -0.070405334 -0.05458835 -0.0457745 -0.030394427
-0.043040086 -0.061557185 0.0021078463 0.06902112 -0.02618404 -0.06652951 -0.0140745705 0.036457736
0.06031404 0.07690933 0.06914483 -0.063003905 0.05102567 -0.08050974 -0.0053124726 -0.023522928
0.03366133 -0.02272038 -0.025475396 0.016285954 0.033649173 -0.092374936 -0.013564676 -0.023611868
0.041152284 -0.081352815 -0.07951616 0.07470202 -0.070287205 -0.024991667 0.008894672 0.031866193
0.042023554 0.09347699 -0.04431405 -0.007581708 -0.0027451676 -0.008371061 0.040710706 -0.064571954
-0.0778321 -0.08377783 0.04980068 -0.07899789 0.006237781 0.044843704 0.054904092 -0.00035039673
0.0073914635 -0.0762626 -0.082113005 -0.061744887 0.0056264005 -0.09301453 -0.008317935 -0.005358417
0.09636416 -0.065492585 0.053826567 0.011291433 0.0026143044 -0.02654136 0.0115168 0.036894068

lstm.bias_ih_l1 f4 [512]
00000000: 11e1 71bd 8901 6abd e88c 323b 9173 153d
00000010: d42c c73d b2f6 9fbd 8e9e 463c f612 22bd
00000020: b69a a3bd fa36 83bd f7a3 2a3d 668f 4f39
00000030: 41a1 c2bd 4e5c 1abd c064 b4bc 1316 ee3c
00000040: 7651 c2bd dd4a 82bc 4686 183d fec9 243c
00000050: 42bd ff3c 0808 273d 2477 4fbd 8f3c adbd
00000060: 0654 18bb 1c99 94bd 1bdb a5bd b580 e0bc
00000070: 58b3 3ebd 12b4 493d d6d4 2fbd f51c b5bc
00000080: 0311 813d 63ab 0cbd 3466 e9bc 64ae 5e3d
00000090: 6a7c b23c ca9a c1bd d334 ee3c 842c 983d
000000a0: 0195 77bd ac1f 6dbc c1c7 a8bd 0c54 953d
000000b0: 32c6 58bd ec5f babd 1a28 8e3c 8b04 b4bd
000000c0: aa04 2cbd bdfe a73b 308b 413c 380d 323d
000000d0: 6403 aebd d735 603d 7572 d33d 63c5 2f3d
000000e0: 58c0 50bd a36f 983b e269 aebd e73f 9e3c
000000f0: 58f9 a9bb a3d3 b73d c35c febc bc8b 8e3d
00000100: bc20 95bd f7e8 27bd c1b5 34bd dcdd 173c
00000110: e57f b23d a92e 00bd a6e2 dfbc 436a 323d
00000120: bb9b 2dbd 5446 dbbc 271d c5bd 607f 96bd
00000130: f632 333d 8d61 a8bd 2072 86bd 0d7f 30bd
00000140: 7684 b1bd eb5e 953d 87a7 113d 5c0c 963d
00000150: 1f45 26bd 85df a23c 0c6d 85bd 1e12 3b3d
00000160: cb35 9cbd c434 873d 9d62 f23c 26a8 4b3d
00000170: e9ff e0bc 93a0 023c f965 863d d11c 08bd
00000180: 64d1 34bd 11bb a23b f950 64bc 398c a2bd
00000190: 4983 913d ff38 133d 9bba 1c3d eda2 9d3b
000001a0: c163 643b 198d bcbd 6ce9 2bbd 837d 7f3d
000001b0: 6db2 2c3b 482b 0bbd 496c a2bc e19f 273d
000001c0: c237 8bbd 44dc 4a3d 49c2 b73b 0002 7bbd
000001d0: 59cc 5bbd 4f03 e93a 25e5 7d3d 1855 9a3d
000001e0: 6615 17bd 6553 c5bd 6ea3 d33b 32ca dc3b
000001f0: e98a acbd 8842 78bd 366b 363d 309b dc3c
00000200: a49a 9bbc d698 58bd 5901 bdbc ca90 debc
00000210: 2f10 84bd 672a 8cbd 7d1a fa3c 223b 87bd
00000220: 268d 7a3c b174 a63c ceae 56bd fa13 573d
00000230: 41dd debc 1c52 3dbc 8ef3 c9bd 2e81 45bd
00000240: e9ac 3b3d b7a2 c6bd 33d8 6fbd f841 4dbc
00000250: 4901 fb3b 722c 6dbd 7385 cebc d03e b1bd
00000260: 8bbe 623d a763 64bd 5b9b 43bc b361 50bc
00000270: 4e45 e33c c40a 87bc 384d 86bd 16e1 f9bc
00000280: 4b55 a1bd 80a2 4cbd a5d1 dc3b a80d afbb
00000290: 2070 693d 463f 163d 8a84 29bd 772a dcbc
000002a0: b2aa 8bbd c84d 44bd a9e4 c8bd c4d8 293d
000002b0: 2334 3e3c 704b a6bd 18e3 71bd e89c d2bb
000002c0: 2818 51bd 1c29 523d 043e 9ebd 1a0d 243d
000002d0: 0de7 3f3c 7a32 893c ca13 55bc d928 32bd
000002e0: 7408 5d3c eaf7 8ebd 5920 423c bce9 bf3c
000002f0: 2cc8 393d 7ea5 83bd 4e1d 823d 4ca5 183d
00000300: b72c 8fbc a735 ba3b 32aa ad3d 8a3b 393d
00000310: f49a 96bd 970b 813d 6cc7 82bd f4b5 94bd
00000320: ca78 a6bd c66d 833d 685c 5a3d 7996 57bd
00000330: 207d 993d af5b cbbb 69f5 26bd a2e8 1dbc
00000340: f5a7 25bd 8231 443d f031 3f3d 9986 1b3d
00000350: b1dd 14bd d4b8 f73b de0c 8f3c e83d 6c3d
00000360: 2510 993d 8b2a 49bd 0a2c 1dbd 6ffb b03d
00000370: db08 903d 5d0b 89bd 92ae a0bd 7bf7 dbbc
00000380: 5ee4 563d c60f 7a3d 4ebe 1cbc a08d 92bd
00000390: 8067 843d 5bd8 94bd b66b 90bd 70dd aebc
000003a0: 04fc bf3d 147d 24bb 9f80 e13b ae01 763d
000003b0: 18e2 10bd a5f2 59bd 3ddb 70bd a165 d3bc
000003c0: 604e 923d fe2b 77bd 416c 94bc aa7a 86bc
000003d0: dfe5 a0bd 78b8 7abd 029c ecbb 5712 c53c
000003e0: 81d5 85bd 0e2e c0bd 9f9f 9fbd c6f4 3c3d
000003f0: d0ad ad3d b2e6 513d c619 733d 01c1 91bd
-0.05905253 -0.05713037 0.0027244631 0.036487166 0.09725347 -0.07810725 0.012122763 -0.039568864
-0.07988493 -0.0640697 0.041660275 0.00019794478 -0.09503413 -0.037685685 -0.022020698 0.02906326
-0.09488194 -0.015904838 0.037237428 0.010057924 0.031218175 0.040779144 -0.05065073 -0.08458816
-0.0023243441 -0.07255766 -0.08098432 -0.027405122 -0.046557754 0.049243994 -0.042927586 -0.022108534
0.06302073 -0.034343135 -0.028491117 0.05436553 0.02178784 -0.09453352 0.029077923 0.07430366
-0.060444836 -0.014472883 -0.08241225 0.07291421 -0.05292339 -0.09100327 0.017353106 -0.08789929
-0.041996635 0.0051268027 0.01181297 0.043469638 -0.084967405 0.054738846 0.10324565 0.042912852
-0.050964683 0.00465198 -0.08516289 0.01931758 -0.005187195 0.089759134 -0.031050092 0.06960246
-0.07281634 -0.040993657 -0.044118647 0.009269204 0.087158 -0.0312945 -0.027329754 0.04355837
-0.042384844 -0.026766934 -0.09624701 -0.073485136 0.043749772 -0.08221731 -0.06564736 -0.043089915
-0.08667843 0.07293495 0.035560157 0.07326576 -0.040593263 0.019881973 -0.0651494 0.045671575
-0.07627448 0.06601861 0.029588038 0.049720906 -0.027465777 0.007972854 0.065624185 -0.033230606
-0.044145003 0.0049661477 -0.013935321 -0.079369016 0.07105119 0.035943028 0.0382639 0.004810682
0.0034849497 -0.092066 -0.041970655 0.062375557 0.0026351467 -0.033976823 -0.019827025 0.040923957
-0.06797744 0.049526468 0.0056078774 -0.061281204 -0.053661678 0.0017777475 0.061986107 0.075357616
-0.03688564 -0.09635047 0.0064586913 0.0067379707 -0.084249325 -0.060610324 0.044535838 0.026929468
-0.018994637 -0.05288013 -0.023071932 -0.02716865 -0.06448399 -0.06844025 0.030530209 -0.066030756
0.0152924415 0.020319315 -0.0524128 0.052509286 -0.027205111 -0.011555221 -0.098609075 -0.0482189
0.045819197 -0.09699004 -0.058555793 -0.012527935 0.0076600653 -0.057903714 -0.025210118 -0.08654559
0.055357497 -0.0557591 -0.011938895 -0.012718606 0.027743008 -0.016484626 -0.06557697 -0.030502837
-0.078775965 -0.04995966 0.0067388588 -0.005342204 0.056991696 0.036681436 -0.041386165 -0.026875718
-0.06819667 -0.04792574 -0.098092385 0.04146649 0.01160911 -0.08119857 -0.059054464 -0.006427396
-0.051048428 0.051308736 -0.07726672 0.040051557 0.011712802 0.016747702 -0.013005206 -0.043495987
0.013490785 -0.069808796 0.011848533 0.023426883 0.045356914 -0.064280495 0.06353246 0.037267014
-0.017477376 0.0056826654 0.08479728 0.045222796 -0.07353774 0.06301039 -0.06385693 -0.07261267
-0.081285074 0.06417422 0.05331078 -0.052633736 0.07494569 -0.006205998 -0.040761385 -0.0096379835
-0.04044338 0.047898777 0.046678483 0.03797016 -0.036344234 0.007559875 0.01746219 0.057676226
0.074737824 -0.049112838 -0.038372077 0.08641707 0.07032939 -0.066916205 -0.07845797 -0.026851406
0.05246388 0.0610502 -0.009566857 -0.07155919 0.064650536 -0.07267829 -0.07051794 -0.021345824
0.0937424 -0.0025098966 0.006881788 0.060060196 -0.03537187 -0.05320992 -0.058802832 -0.025805296
0.07143855 -0.06034469 -0.018118026 -0.016415913 -0.078563444 -0.06121108 -0.007220746 0.024056597
-0.06534863 -0.09383784 -0.07794117 0.04613187 0.08480418 0.0512454 0.05935075 -0.07116891
