models/0288.HK_lstm_SMA50_diff.pth (torch, 808517 bytes, 9 tensors)

lstm.weight_ih_l0 f4 [512, 4]
00000000: 046e f93c 2c53 c43d 66d0 3a3c 66f3 d43d
00000010: b093 93bc 0d18 b6bc df32 193c df26 c7bd
00000020: e4ee 153c e6b5 333d 0dde 833d d40c 9f3d
00000030: 256e 703d 4f1e 60bd 66c5 9fbc 8398 0bbd
00000040: 92a2 2d3d 2a6d d83c 4603 bb3c a363 24bd
00000050: 2f08 2b3d dc57 023e 4dbd f33d aa38 913d
00000060: 9557 5c3d 5245 2dbd fc54 893d c8eb 26bd
00000070: 7d6d 0cbd 96bc a23a 0c66 203d 4c49 903d
00000080: 3b94 203d 660f 9fbc 0ec0 d03d a976 dd3d
00000090: 0b24 eb3d aaac 783d ca7f 45bd a3f1 10bd
000000a0: 5e34 153d 3691 c43d 51a9 f43a 3169 abbc
000000b0: 053d 743d f9d3 4f3a f9e4 e63c a8f0 053d
000000c0: 8193 943b 53e1 38bd 636e 88bc 68cc dc3c
000000d0: ea02 45bd 6af8 b8bd 85bf 87bc 8461 fe3c
000000e0: 4bd5 633b 4c1d ba3d 1e92 07bc f20b c23d
000000f0: f3df 2ebd de09 a2bd 9753 833b 70af 803d
00000100: 9cd1 963d 53f6 be3b d7eb 56bd 6aa4 d33b
00000110: 7c83 4b3d 8ba1 6abd a417 7d3d e3ed bb3d
00000120: 9d06 c2bc 1e35 34bd fcb6 563d 4238 6f3d
00000130: 7f9d 873d 1202 483d 42d4 893b 8cfa cb3d
00000140: 7944 9a3d 0181 243d 93de 9d3d 333e 073d
00000150: 3c55 633d eeae 653d 6e92 9bbd 98ed 82bd
00000160: eb3f 8aba 4f0c 093e 7f8a e6bb ad99 5f3d
00000170: 1c1d da3d 38f8 a63d 3216 4c3d 11a1 d7bb
00000180: f7b1 72bd 9056 bf3c 59fe a5bd 62b9 8b3d
00000190: bc4b 283d c536 c03d e088 a13d b099 243c
000001a0: 3f9f 7bbc a806 b23d beec 6a3a 1fd6 ab3d
000001b0: 413a 5dbc 87bf 073d 5d87 a6bc c59c d23d
000001c0: b9c7 263d 51b9 4b3c c5a5 67bc 6b19 06bd
000001d0: 468b 83bd 37b5 a73d 35f4 b93d 6de9 893d
000001e0: b0c2 6e3d 6bd3 0c3c 6c14 b13d 2a2f a63d
000001f0: 562a 0a3d 2858 2d3d cb44 843d 57bf a63c
00000200: c962 83bd ae30 21bc 9e72 46bd 703e 3bbd
00000210: 4bc2 0a3e 70dd d53d ed67 803e 19e5 353e
00000220: d393 7bbd 9ba7 41bb fd69 883d bf6d c4bc
00000230: 3c03 d83c 9198 1c3d 1860 0a3e af4a 333d
00000240: 6cfb 56bd a2fd ee3c 1f71 873d 2f94 193d
00000250: 9cab 1ebd cce8 2bbd 1ddc 253d 19f5 203d
00000260: 24c0 d33c ace8 b8bc 942c a9bc 9955 d1bb
00000270: ee3f 8c3d 28cd d7b9 c4c5 a9bd 2830 f6bb
00000280: 67ca 173d e656 aa3d 6a22 0c3c 9e4e 643d
00000290: 396f 043e 63c3 393d 97d7 1f3d e068 7c3c
000002a0: cc37 94bc 711e 9c3b 4ce6 2bbd 2933 393d
000002b0: 3ee2 423e 3a6f 9c3d 536b 563e c197 723d
000002c0: 9808 913e bad3 0a3e 9ce5 0d3e 06c0 3e3e
000002d0: cdcc 893d 1982 413d 936d e6bc 7555 363d
000002e0: c3d3 973e e568 933e 698c 643e 661d 4f3e
000002f0: 0088 843c 57e8 313d 82cd 893c 2dc1 cb3c
00000300: 0267 c13c fe9c b03c 7444 9fbd 2841 abbd
00000310: b00b b03c fba0 3e3c ae37 14bb 85b0 0fbd
00000320: 15dd 1d3e cdac 9b3d 909d 9c3d 383f ae3d
00000330: 5838 04bd 1f08 46bd eeec 2bbd 0879 9c3d
00000340: 5d90 0f3d bb0d 903d 5573 ed3c bc82 51bc
00000350: 3a2c 953c 853d f03c 680f b5bb eccc 90bc
00000360: b2f6 efbb 1208 aa3d 5853 873d 0dcd 2e3d
00000370: 0ddb a0bc 9820 fd3d c409 903d 9015 423d
00000380: 70d3 a5ba 48a9 e13c 9b04 c53d 76a3 763d
00000390: d41c 69bd 06a4 143d 9236 3a3d 8755 fc3c
000003a0: 83db 5abd 0854 763d a575 6b3d 5941 b73d
000003b0: 8217 8bbc 38dd 6c3d 09a4 77bd 6c57 0dbd
000003c0: f24f 9dbd cbfc 71bd 8b1f 40bc 8e0d abbd
000003d0: 3c74 dcbb f4c1 b43c b9d9 cebc efb7 a93d
000003e0: 541c e53b 0703 0a3e 20c3 893d c58c 953d
000003f0: 5a61 19bd 1784 bfbc a16b df3d 3967 cc3d
0.030447967 0.09586176 0.011402225 0.10397987 -0.018014759 -0.022228265 0.0093505075 -0.09724211
0.009151194 0.043874644 0.06438837 0.07766119 0.058698792 -0.054716405 -0.019503307 -0.034080993
0.042391367 0.026419241 0.02282871 -0.040134083 0.04175585 0.12728828 0.11901341 0.07090886
0.053794462 -0.042302437 0.067056626 -0.040752202 -0.034284104 0.0012415822 0.03915982 0.0704523
0.039203864 -0.019416522 0.101928815 0.10813648 0.11481484 0.06071154 -0.048217572 -0.035386693
0.036426894 0.09598009 0.0018666183 -0.020924183 0.059628505 0.000792801 0.028185355 0.03270021
0.0045341854 -0.04513676 -0.016654199 0.026952937 -0.048098482 -0.09031756 -0.016570816 0.031052358
0.0034764584 0.09087619 -0.008274583 0.09474935 -0.042694043 -0.07912038 0.0040077674 0.06283462
0.073641986 0.005827704 -0.05247101 0.0064588087 0.04968594 -0.057282966 0.061790124 0.09176233
-0.023684794 -0.04399597 0.0524206 0.05840326 0.06621837 0.0488301 0.0042062113 0.099598974
0.075325914 0.04016209 0.07708468 0.033018302 0.055501208 0.05607503 -0.075962886 -0.06392974
-0.0010547613 0.13383602 -0.007035553 0.054589916 0.106500834 0.08152813 0.049825855 -0.00658048
-0.05925175 0.023356706 -0.081051536 0.06822468 0.04108785 0.093854465 0.07887435 0.010046408
-0.015357791 0.08692676 0.0008961669 0.0839045 -0.013502658 0.03314164 -0.020328218 0.10283808
0.040717814 0.01243432 -0.014138644 -0.032739084 -0.06423049 0.08188861 0.09079782 0.067339756
0.058291137 0.008595328 0.08646473 0.081144646 0.03373178 0.0423204 0.06458434 0.02035491
-0.06415326 -0.009838266 -0.04844915 -0.045713842 0.1355068 0.104426265 0.2507929 0.17763175
-0.061420273 -0.0029549364 0.06660841 -0.023978112 0.02636873 0.038231436 0.1351322 0.043772396
-0.05248587 0.029173676 0.06613373 0.037494835 -0.03873788 -0.04197006 0.04049312 0.039296243
0.025848456 -0.022571884 -0.02065114 -0.006388378 0.06848131 -0.0004116085 -0.08289674 -0.007513065
0.03705826 0.08317356 0.008553127 0.055739038 0.12933053 0.04535235 0.039023962 0.0154058635
-0.018093012 0.004764371 -0.041967675 0.045214806 0.19031617 0.07638402 0.20939378 0.059226755
0.2832687 0.1355733 0.1385712 0.18627939 0.06728516 0.04724321 -0.028128421 0.044515092
0.2965375 0.28790966 0.22319187 0.20226058 0.016178131 0.043434467 0.016821627 0.024872387
0.023608688 0.021559235 -0.07776728 -0.08362037 0.021489948 0.01163506 -0.0022616195 -0.03508045
0.15416367 0.076013185 0.0764724 0.08508152 -0.032280296 -0.04834759 -0.041974 0.076402724
0.035049785 0.07033869 0.028985659 -0.012787517 0.018209565 0.02932621 -0.005525518 -0.01767584
-0.0073231095 0.083023205 0.066076934 0.04267602 -0.019635702 0.123597324 0.07033113 0.047383845
-0.0012651514 0.02754654 0.09620019 0.060214482 -0.05691226 0.036289237 0.0454622 0.030802501
-0.053432 0.060138732 0.05748524 0.08948011 -0.016978983 0.05782816 -0.06045917 -0.0345072
-0.07681264 -0.059078973 -0.01172627 -0.08352195 -0.0067277234 0.02206514 -0.025250303 0.08287036
0.0069919024 0.13477717 0.0672667 0.0730224 -0.037446357 -0.023378415 0.109092005 0.09980626

lstm.weight_hh_l0 f4 [512, 128]
00000000: 2cf7 133c 8781 a63a 1d2a fbbc 4101 b53b
00000010: 51b7 843d 443c 29bc edea 92bd edd8 b3bd
00000020: 0a5e e8bc 90b2 97bd 2ea6 bfbc cfa4 a7bb
00000030: db10 37bd e090 fe3b ebcf 403d e1e5 833d
00000040: 14d5 a7bd 628b 8338 5b96 aebc 3f9f aa3d
00000050: e209 26bd b33b 573d 53e5 e3bd aa23 f0bd
00000060: c429 48bd e8df e0bd dc30 9f3c e94f 923c
00000070: da74 113c 5cc5 8ebd f127 b23b 5926 173d
00000080: 2592 7a3d d07a e63c 06d4 7e3d 1a27 b63d
00000090: 3059 a93d 7282 ef3c 681a 1ebd 66b1 5cbd
000000a0: 4b49 c9bb 755a a03d 4be9 623d b8e8 213e
000000b0: cf68 903d 9f69 2bbd ef6d 33bd f28a 873d
000000c0: 9303 213d d862 9fbd 387b b7bd e841 a0bd
000000d0: 248d 393c de84 e63b d4a4 7f3d 1d6b 953d
000000e0: 2bbc 573d 618f 563d c938 f53b 5859 76bd
000000f0: de34 85bb c239 ef3c 5b85 123d 65b4 293c
00000100: dc65 f8bc 7d2a bdbd 4cb4 8c3d 0ff7 ccbc
00000110: b759 1f3d 0aa5 803b 05e0 e73c 1f63 d5bc
00000120: 799f 0c3d c510 6bbc 87ca 873d d94d a1bd
00000130: 9598 b43d 5042 73bc d9bd 16bc 4d5b 63bd
00000140: 7d20 783d 989b 51bd 446a 6f3d f942 053d
00000150: 0ed7 cfbb 522c 023e 605f 6a39 8d94 a73b
00000160: d5e8 ab3d e983 80bd 0ce7 283d 7d9a 873c
00000170: 4519 fabc 849b f6bc 9daa 54bd aca1 63bd
00000180: fc37 8f3b 4a61 adbd c7a1 9cbd 9989 083c
00000190: 5f93 c03d 62db 3bbd 0652 8e3d 94bd 823d
000001a0: 5bc0 513d 33ea abbd cf85 f7bd 64fa c4bd
000001b0: 3239 873d 171a 2abd f777 2dbd 3e18 d1bc
000001c0: 6d33 c23d d9b8 5f3c be7b e7bc 566a 89bc
000001d0: c2d7 943d 42d5 473c fd1c ba3d ef99 9abd
000001e0: 914e 523d 89c0 9e3d ae0b 87bd aa8b cdbd
000001f0: b56a ebbb caa4 fa3c 0783 65bd 8e36 873d
00000200: cfa1 f4bc 656c d7bc ae9f 043d fba6 673b
00000210: 9581 8d3d bbb0 8abd 0408 533c a28e d23a
00000220: 92be 95bc 2df5 2abd b237 b13c 581e 50bd
00000230: 88a0 5d3d 0c4c 07bd 2644 223d 686c dcbc
00000240: 1f07 213d 9293 993d b996 923d 7d12 55bd
00000250: ba8d e13c 3e84 14bc 2515 403d 27b0 5e3d
00000260: f333 1c3d 61de cabb c166 8fbd b7a6 aebd
00000270: 3999 20bc 7eb6 663d 1abf 4e3d 49c0 57bc
00000280: ef4d 0dbd c7fe dabd 80eb 6dbc 495e cb3c
00000290: 17a2 7abc 8910 d33b 69db c03d d7b4 93bd
000002a0: ca1e 2dbd 3e0b 9b3d 072f bd3c 34d5 8a3c
000002b0: 9173 a8bc 9f72 1c3c 0c39 69bd 0dc2 5abd
000002c0: 9f62 0c3d 612f 943d 35e3 7cbd c2f6 b33c
000002d0: c9d4 2bbc 8c49 adbd e5c0 8b3d 65a5 5ebd
000002e0: 2ca1 643d aa0f d63c 7adb 85bd 2f78 a13d
000002f0: 7ca0 02bd d3d0 aebb 7337 313c 024b 2b3c
00000300: 7917 813d 45cc 06bd c1b0 de3c 538b 5d3d
00000310: fe65 79bc 8a5a 8dbb 54b4 733d dc1a edbd
00000320: 15b4 953d 192d 6a3d cefd c33d 841f 31bd
00000330: 52d4 093d 306a b43b 3cf0 f8bb e915 3cbd
00000340: d18d a4bc e8a1 b539 23d3 8dbb fcb9 8fbd
00000350: 5eb8 27bd e685 093d 2947 9dbb 157f 203b
00000360: c1bf 76bb bc3c 8bbc d208 303d d75a 913d
00000370: 1e96 59bd 39a0 29bd aad6 65bd def6 9abd
00000380: 6179 9ebc 40a5 ef3c 698f 753d 5998 763d
00000390: 61b5 02bd f5b3 57bd 2066 da3b af89 f7bc
000003a0: 887d a0bb 4d7d 44bc 9368 923c a793 b03d
000003b0: e590 2e3d 5ade b43d 31b8 b63d f212 9cbc
000003c0: 527a 0dbd 0366 9ebb f2fc 973d 1bdf 04bb
000003d0: 5048 793d 08a3 813d 5b84 b53d 2993 80bd
000003e0: 782f a6bc 86e9 b33d 0730 6b3d 622c 85bd
000003f0: e3f3 b53c 234e a63c 5149 0ebd 2a06 0fbd
0.009031098 0.0012703397 -0.03065973 0.005523831 0.06480277 -0.01032931 -0.07173715 -0.0878161
-0.028365154 -0.07407105 -0.02339467 -0.0051160823 -0.04469381 0.0077687353 0.047073286 0.0644033
-0.08194938 6.272529e-05 -0.02131193 0.08331155 -0.04053677 0.052547168 -0.111277245 -0.117255524
-0.048867956 -0.10980207 0.019432478 0.01786037 0.008877957 -0.06971237 0.0054368903 0.036901806
0.06117453 0.028134733 0.06221392 0.08894177 0.08268964 0.029237006 -0.0385994 -0.053880118
-0.0061427704 0.07829753 0.055398267 0.15811431 0.07051241 -0.041848775 -0.043806013 0.066182986
0.03931005 -0.07782525 -0.08959049 -0.078250706 0.011325154 0.007034882 0.06241305 0.07295821
0.052669685 0.05238283 0.007483576 -0.0601438 -0.00406514 0.029202346 0.03577171 0.010357951
-0.030322008 -0.092366196 0.068703264 -0.02502015 0.038903918 0.003925924 0.028305063 -0.026048241
0.034331772 -0.01434726 0.06630426 -0.078761764 0.08818165 -0.014847353 -0.009200537 -0.055506993
0.06057786 -0.051173776 0.058450952 0.032534573 -0.006342775 0.1271222 0.00022351509 0.005114144
0.083940186 -0.0627516 0.04123597 0.016553158 -0.030529628 -0.030103453 -0.051920522 -0.055574104
0.0043706875 -0.08465822 -0.07648044 0.008333587 0.09403109 -0.045863517 0.069492385 0.063838154
0.051208835 -0.08394279 -0.12086069 -0.09618071 0.06602706 -0.041528787 -0.042350736 -0.025524255
0.09482465 0.013654911 -0.028257247 -0.016774338 0.07267715 0.012196841 0.0908756 -0.07548892
0.051344458 0.07751567 -0.065940246 -0.100364044 -0.0071843513 0.030596156 -0.05603316 0.06602202
-0.029862313 -0.026296804 0.032378845 0.003534733 0.069094814 -0.0677199 0.012880329 0.0016064236
-0.018279348 -0.041737724 0.021633003 -0.050810188 0.054108173 -0.03303151 0.039615773 -0.02690716
0.03931343 0.0749885 0.07157654 -0.052019585 0.0275334 -0.009064732 0.046895165 0.05436721
0.03813548 -0.0061910604 -0.070020206 -0.08527892 -0.009802156 0.05632638 0.050475217 -0.013168403
-0.03449815 -0.10693126 -0.01452148 0.024825232 -0.015297434 0.00644118 0.09416849 -0.07212227
-0.04226569 0.07570504 0.023093713 0.016947366 -0.020562919 0.009548812 -0.05693917 -0.053407717
0.03427374 0.07235599 -0.06174012 0.02196825 -0.010487744 -0.084612936 0.06823901 -0.05435695
0.055817768 0.026130516 -0.065360025 0.07884251 -0.03189133 -0.0053349524 0.010816443 0.010454895
0.06303305 -0.03290965 0.027183892 0.054087948 -0.015222071 -0.0043137716 0.059498146 -0.11577389
0.073097385 0.057171915 0.09569894 -0.043242946 0.03364975 0.0055058226 -0.0075969975 -0.045919333
-0.020087155 0.0003464364 -0.004328148 -0.070178956 -0.04094731 0.03357496 -0.0047997427 0.002448981
-0.0037650915 -0.016996734 0.04297716 0.070974045 -0.05312168 -0.041412566 -0.056112923 -0.075666174
-0.019344987 0.029253602 0.05995122 0.060203884 -0.031911258 -0.052661855 0.0066650063 -0.03021702
-0.004897777 -0.011992765 0.01787213 0.086219124 0.04261865 0.08831473 0.089218505 -0.019052003
-0.034540482 -0.004833938 0.07421292 -0.0020274583 0.06085998 0.06329924 0.088631354 -0.062780686
-0.020286307 0.087847754 0.05741885 -0.06502606 0.02221102 0.02030093 -0.03473789 -0.034917988

lstm.bias_ih_l0 f4 [512]
00000000: ce96 bfbb da15 133d b950 0dbb ef08 11bc
00000010: e536 773b 3796 b03d 8e0d f53b 7e85 c4bb
00000020: 338a 4fbd 723d 01bd 90b9 813c 9698 893c
00000030: 41e1 703c 0cfb 883d c101 753d 26e7 b5bd
00000040: ce7c 8f3d bae4 35bd 1f58 d03c 9ee5 ed3b
00000050: fe00 0d3d 4e26 c73c f6be 0c3d 7038 113d
00000060: b893 523c 2c5d e63d 5514 a23d 7485 c03b
00000070: ab43 163d 0f6a 3e3d 7d28 773d d8ed 5dbd
00000080: b8d7 f13b 54fe 3b3e 63da 4dbd d882 8a3d
00000090: b617 95bb efb5 b0bc ccb4 9ebc 0002 a93d
000000a0: 828a 643c 36aa 693c d5e9 98ba bea6 243d
000000b0: af86 543e c993 9a3d 8350 9b3e 7652 4ebd
000000c0: 3188 993d a3d3 373c 4609 df3d 79dd f13d
000000d0: ef62 593d fd13 603d 73e2 8e3d ae4c 1abd
000000e0: 1578 79bc 0c68 96bd 5df6 a03c c07b a03d
000000f0: 3c47 313c df39 9dbd fa81 0dbd 2aad ba3d
00000100: a7ee d4bb e483 873d 75d7 4fbc 42db 873d
00000110: ac18 743d bc75 fabc e732 f03c f5fe 513e
00000120: d262 0f3b 2baa 533d 22ea 313c 0e91 8e3c
00000130: c3dd 973d b996 46bd 2d5f 1c3d 0a60 953d
00000140: 8288 63bd 5d9b 723c 2e5d 9e3c e0c1 713d
00000150: a468 993c 679a a93d 4882 3d3c 6007 9d3d
00000160: e68b d53c 8886 a73d e2b7 ac3d cc57 d13c
00000170: 2ae4 9b3b cbf7 1c3d 2abe bfbc e821 653d
00000180: 8f63 99bd 2f77 aabc 1da6 8f3d dd25 933d
00000190: 3837 423d adbe 113d 162b b23d ba54 753d
000001a0: b7a2 a33c 55ba e73d 4eea be3d 20fc 9e3c
000001b0: 7270 6abd 4d18 903d 1191 fcbb 112a a93d
000001c0: 13f2 b4bc 8563 033b bdd8 06bd a920 e8ba
000001d0: 58e1 d8bc 2292 ab3d 1e47 bc3d b17b ba3c
000001e0: da6f 823d b2d8 fe3c b25d 123d 18aa bc3d
000001f0: 629a afbc 4f36 8b3c c176 493d 3203 66bd
00000200: cb5d 8bbc c570 5fbc 4fd5 00bc e2be 97bd
00000210: 17f1 b53c bad3 8dbd 5cbd 823d b6f3 963d
00000220: 6ce7 453d fcd7 fabc 77fa 5d3d 933b 8ebd
00000230: a36c bfbd 2d30 843d 3c37 083d 01a9 2e3d
00000240: f22c a0bd d197 be3c d273 23bc 1017 a2bd
00000250: 0adb 39bd 80d7 7ebb 7d52 743d 65db 5ebd
00000260: 0211 9d3d fd69 8e3d 01b1 d5ba 1138 ad3c
00000270: 65b4 fbbb 7e91 c6bc 959d 953d 850f 213d
00000280: c3f2 2d3d eccd 6b3d a9de 03bd 246d efbd
00000290: e0da 9fbc 5163 64ba 0f45 973b 6056 753d
000002a0: a50a 0f3d b263 b93d 9fae bf3d d234 afbc
000002b0: f9e7 91bd b7ea 87bd 0e49 10be d22e b0bd
000002c0: 88ea 2abd d619 143d bc8f 58bd 0b7e 7cba
000002d0: 027b b0bd ebe3 b7bd 8945 0fbc a832 b6bc
000002e0: 175c ff3b ba9e 32bc 801f a8bd 3f44 d43a
000002f0: 22ef f5bc 84c6 b33d 8878 8fbd 6e1d 8f3d
00000300: 5c07 7abd 62b0 503d 25ff b2bd 32b1 8dbd
00000310: 6a94 72bd 29b2 00bd 13d5 ff3c e41d d13c
00000320: 7983 80bc a43b 8bbd 4c49 7ebd 9aa7 2d3d
00000330: 6fa0 a13d 085a 813d 9502 ba3c e43f ba3d
00000340: d1d1 46bd 53cf b0bd 95fe 7cbc 3b6d 0abd
00000350: 47f9 c8ba 72fb 2d3d 4060 3b39 c7a6 64bd
00000360: 5479 6ebd b6d6 e3bc 8789 a23b 6997 febc
00000370: 4caf 0fbd b7e4 3c3d 283d c13b e68a 693c
00000380: cf82 183d 4497 54bd cbdd bbbd 10da 4dbc
00000390: 850e 8c3d 1b6f 6f3d 9b8f a6bd 1245 8ebd
000003a0: 7a4b 30bd 9263 ebbd 46dd 49bd de3a 123d
000003b0: d05e 1fbd 135a 11bd 15f0 5c3d a9a5 a9bd
000003c0: 7f05 d1bb 5b7f 6fbd 5b84 ba3d 7e69 35bd
000003d0: 2312 2ebd ff82 d93c 3e90 6bbc 279a 9c3d
000003e0: ef75 913d cb66 f43c a36d 40bc 6afa 753d
000003f0: 1369 8abb 6626 263d 3be0 9abd 0fd4 3bbd
-0.0058468347 0.03590951 -0.0021563007 -0.008852228 0.0037721929 0.08622401 0.0074784225 -0.005997359
-0.050668906 -0.03155274 0.015835553 0.016796391 0.014702142 0.066885084 0.059816126 -0.08881979
0.070062265 -0.044407584 0.025432644 0.0072600385 0.034424774 0.024310257 0.034361802 0.035454214
0.012852602 0.1124824 0.07914034 0.005875284 0.036685627 0.046487864 0.060341347 -0.054181904
0.007380452 0.18358737 -0.050257098 0.06763238 -0.0045499457 -0.021571128 -0.01937332 0.082523346
0.013949038 0.014261773 -0.0011666367 0.04019808 0.20754503 0.07547719 0.30334863 -0.05037161
0.074966796 0.011219892 0.10890441 0.11809821 0.053072866 0.054706562 0.069767855 -0.037670784
-0.015226384 -0.07344064 0.019648725 0.078361034 0.010820206 -0.07677054 -0.034547783 0.0911506
-0.006498176 0.06616953 -0.012685646 0.06633617 0.05959384 -0.030573718 0.029321147 0.20507415
0.002187897 0.051675957 0.010859044 0.017403152 0.074153446 -0.048483584 0.038176704 0.072937086
-0.055550106 0.014807549 0.01933154 0.059022784 0.018726654 0.08281403 0.011566706 0.07667422
0.026067685 0.08179957 0.0843351 0.02555456 0.004757424 0.03832225 -0.023406107 0.05594054
-0.074896924 -0.020808784 0.070141055 0.07184956 0.047415942 0.035582233 0.08699624 0.059895255
0.01997505 0.11314837 0.09322034 0.019407332 -0.057236142 0.07035885 -0.007707723 0.08259977
-0.022088086 0.0020048332 -0.03292154 -0.0017709929 -0.02647464 0.08377482 0.09193252 0.022764059
0.0636899 0.031109188 0.035733886 0.0921213 -0.02143592 0.01699367 0.04918552 -0.05615539
-0.017012497 -0.013637726 -0.007863357 -0.07409455 0.022209687 -0.06925149 0.06383774 0.07370703
0.048316404 -0.030620568 0.05419394 -0.06944957 -0.09346893 0.06454501 0.0332558 0.042641643
-0.07821073 0.023265751 -0.009976344 -0.07914555 -0.045374908 -0.0038885772 0.05964898 -0.05440845
0.076692596 0.069538094 -0.0016303362 0.021144899 -0.007681417 -0.024239298 0.07305447 0.03932144
0.042467844 0.05756943 -0.032194767 -0.11690739 -0.019513547 -0.0008712309 0.0046163867 0.059896827
0.03492226 0.090522185 0.09359478 -0.021387491 -0.071243234 -0.06636565 -0.14090368 -0.0860268
-0.041727573 0.03615745 -0.05287145 -0.0009631819 -0.08617212 -0.08979019 -0.008744606 -0.022240952
0.0077929604 -0.010902101 -0.08209133 0.0016194655 -0.030021254 0.08778098 -0.070054114 0.06988035
-0.061042175 0.05094946 -0.08740071 -0.06918563 -0.05922357 -0.031419907 0.031229531 0.025526948
-0.015687691 -0.06798485 -0.06208162 0.042396165 0.078919284 0.06316 0.02270631 0.090942174
-0.04853994 -0.08633294 -0.015441556 -0.033795577 -0.001533308 0.042476125 0.00017869566 -0.055823114
-0.058221176 -0.027812343 0.004960242 -0.031078057 -0.035079286 0.046116557 0.005897183 0.014254307
0.037234124 -0.05190207 -0.09173163 -0.012564197 0.06838707 0.058455568 -0.08132859 -0.06946768
-0.04304073 -0.11493601 -0.04928329 0.03570067 -0.03890878 -0.035486292 0.053939898 -0.0828355
-0.006378829 -0.058471065 0.09107276 -0.04429006 -0.042497765 0.026551722 -0.014377652 0.0764659
0.07102572 0.029834172 -0.011744889 0.060053267 -0.0042239516 0.040563963 -0.075623 -0.04585653

lstm.bias_hh_l0 f4 [512]
00000000: d895 f43c 1683 883c 9436 8fbd e35a 163d
00000010: 8ee8 d6bc 1deb f7bc a832 d43c fcf2 cc3c
00000020: 4260 8e3c a672 663d 287a 103d 4a00 233b
00000030: 1355 2d3c 40db 99bd 4fee 963c 7992 02bd
00000040: 9fb1 8cbd 9635 883d c730 83bd 3c8d d33c
00000050: 01b1 e03d 9607 0d3d 0f76 ee3d 3f85 5bbd
00000060: d8eb bbbd c112 f23c b8da 713d 3b7c e63d
00000070: 3798 1f3c de18 4abd 040d 10bd 2493 64bd
00000080: afa4 afbd 43ae 3d3e 9f7f 27bd ee63 4a3d
00000090: b942 07bd 90c8 a0bd f285 86bd bdef a7bc
000000a0: 0b93 6bbd 0ae5 0a3d 0b23 9e3d c105 be3d
000000b0: 83d1 513e 6281 003d 920d cf3e 28db 853d
000000c0: 9994 8fbd cc11 813d 2174 373d bcd4 ef3d
000000d0: c5ab 8bbd d9f5 ce3c e7d6 863d 4465 823d
000000e0: 9427 0fbd 45c1 fd3c 8074 a2bd 9b09 48bd
000000f0: 5b6c d1bc 17f5 853d 8520 49bd 6400 37bd
00000100: f76d c03d 34b1 bf3d dfd2 503d 9901 d23d
00000110: 2598 22bd 3d9f 9c3c 719c 713d 3fe5 643e
00000120: 33e4 5fbc 8d6c a23d 95b7 583d 3553 54bd
00000130: 9495 8bbd 9b79 103d 37e7 833d 2d45 153d
00000140: aaf5 f1bc 2699 0c3d 4821 ee3d a3c7 bc3b
00000150: 411a c2bb 1ccc ebbb 71d7 6ebc f59b 963d
00000160: 1340 c93d 9c4d 2dbd 49f2 bc3d 9553 c53c
00000170: 0760 06bc 1bb8 5e3d 504b 40bc af3f 133d
00000180: 3bef 2d3d d48a 2cbc 023f ab3d 101a cd3d
00000190: 824a d2bb 2fa8 733d cfff 6f3d 0caf bb3c
000001a0: 1f69 4fbd 70d8 663e d0b7 3c3e 3952 a9bc
000001b0: c9ff 7b3d 2f39 cc3d eaa9 45bb a19e e63d
000001c0: 6b13 6abd 92ee 4a3d 26b3 e53c 347d e53d
000001d0: e761 23bd 43bf 983d 843d a03d b680 3dbd
000001e0: a642 593d 2d2c 023d 3ab7 edba 8b35 7f3b
000001f0: 1b84 ad3c 5c62 a53d a4ba eb3c afb5 e13c
00000200: d904 9a3d df08 3b3d f1c2 83bc da37 babd
00000210: 79b4 0c3d eef4 27bd 5d66 0c3c d351 79bd
00000220: 9e36 8bbc 1018 113d aff5 72bd e750 9d3d
00000230: aedc 8b3d b7dd 7c3d 2adf 7bbd 08b2 71bd
00000240: 01de 123d 7541 e4bc 3909 a9bd 6721 0bbc
00000250: 3584 08bd fb56 c9bc fcc7 333d 348b 6d3d
00000260: 3f6e fb3c 0192 fa3b 112b 10bd 062b 61bd
00000270: 2f44 ae3d 6ca5 7fbd fff4 193c 713c 8a3d
00000280: 918b dd3c 1260 403a 99b1 cb3c c416 68bd
00000290: 3c6c 65bd 0eaa 45bd 173f b7bd a39b 693d
000002a0: 1049 02bd db15 eb3c cf0a 15bd fdc9 91bc
000002b0: d298 b6bd 8125 9ebd 9619 79bd b1fd e0bb
000002c0: d48e 513d 2e93 8f3d 6947 1e3c 9aae cd3b
000002d0: b60e 22bd f66d b1bd a21f 27bc 5fc5 cdbc
000002e0: e567 4cbc 1d1f febc ef3f 94bd 2314 95bd
000002f0: b25b 813d f678 0abd 9f46 933d 9c47 b03d
00000300: bcba de3c bea5 81bc 8be8 a0bc abc8 2dbd
00000310: 40f8 75bc bb6a 9ebd c2db 8b3d 0581 a2bd
00000320: 6233 053c eba1 403b 9262 b83d dda7 93bd
00000330: 7481 43bd 1730 383c 81a0 093d 99be 69bc
00000340: d2f4 fbbb 1b16 ff3c 281c 37bc 30ce 293d
00000350: e9a1 b53d 25de 4e3c f9f6 76bc c3c5 243d
00000360: 061b 58bd adb4 2cbd 2fd0 043d 4a33 7f3d
00000370: f176 98bd e8fa b33d edee 61bc ea2a 2ebd
00000380: 4fac a1bd 8adf 9e3d baac 2c3d 49bd 393d
00000390: 10e5 61bd 4874 92bd 9235 e93b a849 bd3d
000003a0: a5f0 4dbd ecbc b0bc 7b7c a63d 9612 ae3d
000003b0: 70bd 973d dd50 a4bd 3e46 913d 3682 56bd
000003c0: 74e6 043c f17b b5bd 77fa 64bb 8212 9e3d
000003d0: 479c 773c 8ebb 6f3c 789f 9bbd 2a4e 233b
000003e0: b968 bebc e5b0 9dbd 62d5 85bd 9c3e 89bc
000003f0: fecf 8639 9c72 9cbb b6c9 673d 7815 f23c
0.029856607 0.01666407 -0.06992832 0.03670777 -0.026233938 -0.030263478 0.025903061 0.025018208
0.017379884 0.05626168 0.035272747 0.0024871998 0.010579365 -0.07512522 0.018424181 -0.03187797
-0.06869816 0.06650846 -0.06405788 0.025824182 0.10971261 0.034431063 0.11643612 -0.05359387
-0.09175843 0.029549958 0.059046477 0.11254164 0.009740881 -0.04934012 -0.035168663 -0.055804387
-0.08576333 0.18523507 -0.040893193 0.049411707 -0.033022616 -0.07850754 -0.06568517 -0.020500058
-0.057513278 0.033909835 0.07721528 0.09278441 0.20490079 0.03137339 0.4044004 0.06535941
-0.07010765 0.063022226 0.044788484 0.11710498 -0.06819872 0.025263714 0.06583958 0.06366971
-0.034949854 0.030975947 -0.07932377 -0.048837285 -0.025564363 0.06540888 -0.04910328 -0.044678107
0.09395974 0.09359971 0.050982352 0.10254211 -0.039695878 0.0191189 0.058987085 0.22353075
-0.013665247 0.07930861 0.052909452 -0.051837165 -0.06815639 0.035272222 0.06440585 0.036442924
-0.029536087 0.03432574 0.11627442 0.0057611032 -0.00592354 -0.0071959626 -0.014577732 0.07353965
0.09826674 -0.042310342 0.092259 0.024087707 -0.008201606 0.054374795 -0.011736706 0.035949405
0.042464476 -0.010531146 0.08361627 0.10014737 -0.0064175734 0.059486564 0.058593567 0.022910617
-0.05063736 0.22543502 0.18429494 -0.02066909 0.061523233 0.099718444 -0.003016109 0.11260725
-0.057147425 0.049543925 0.028039526 0.11205521 -0.03988829 0.07458355 0.07824233 -0.046265326
0.053042077 0.03178041 -0.0018136271 0.0038941826 0.021181157 0.08075401 0.02877552 0.027552454
0.07520456 0.045662757 -0.016084166 -0.09092684 0.0343518 -0.041005068 0.008569327 -0.06086905
-0.016993817 0.03542334 -0.059316333 0.076814465 0.06829201 0.06173488 -0.061492123 -0.059007674
0.03585625 -0.027863244 -0.08253712 -0.00849185 -0.033329207 -0.024577608 0.04389189 0.057994083
0.030692218 0.0076467996 -0.03519732 -0.05497267 0.08509099 -0.062413618 0.0093967905 0.067498095
0.02704409 0.00073385343 0.024864959 -0.056662336 -0.056011423 -0.04825788 -0.0894758 0.057033192
-0.03180796 0.028696945 -0.03638726 -0.01779651 -0.08915867 -0.07721997 -0.060815416 -0.00686618
0.051161602 0.07010494 0.00966058 0.0062769176 -0.03956481 -0.086635515 -0.010200413 -0.025118528
-0.012475942 -0.031020695 -0.07238757 -0.072792314 0.063163176 -0.033806764 0.07191204 0.086074084
0.027188651 -0.015826102 -0.019642135 -0.0424277 -0.015012801 -0.07735201 0.06829025 -0.07934765
0.008129926 0.0029393386 0.09003176 -0.07209752 -0.047730878 0.011241934 0.033600334 -0.014266633
-0.007689097 0.03113847 -0.011176147 0.0414564 0.088687725 0.012626206 -0.015073531 0.040227663
-0.052760147 -0.042164493 0.0324251 0.062304772 -0.07444561 0.08788091 -0.0137898745 -0.042521395
-0.078941934 0.077574804 0.042156912 0.045346532 -0.05515009 -0.07151085 0.007116982 0.092425644
-0.050278325 -0.02157446 0.081292115 0.08499639 0.07409179 -0.08023236 0.07093476 -0.052370273
0.008111585 -0.088615306 -0.0034939328 0.07718374 0.015112943 0.014632119 -0.075987756 0.0024918416
-0.023243295 -0.076997556 -0.0653484 -0.016753487 0.00025713438 -0.0047744047 0.05658885 0.029551253

lstm.weight_ih_l1 f4 [512, 128]
00000000: 41c1 993d 78dc aabb 9afb 403d 1168 a83d
00000010: 218e 773d a417 3abc 3d13 babd 89cd b1bc
00000020: 731f 6bbd 9648 bd3c d1c8 403d ba73 a03d
00000030: f777 16bd 3ec9 4fbd 3779 a23c a08e 913d
00000040: a76c e7bc b03e 963d 815d 68bd 0a02 cd3d
00000050: 8f79 8f3d c83f 62bd 47f3 6ebd 8489 293d
00000060: 3455 fabc a339 253d 85a4 093c 4591 8a3d
00000070: 8e02 49bd a272 19bd c324 2c3d 6d9a 943d
00000080: bead 6c3d 7236 45bb 1b23 03bd bdef 42bd
00000090: 60e8 4a3d 30db 493d d186 613d 7733 37bc
000000a0: 31b3 8dbd b6b8 273d 6344 84bd 87e8 833c
000000b0: dc49 82bd e7a3 47bd 1326 da3c 9c9b f33c
000000c0: 1354 a13d eea4 18bd 1a9d 213c 0b0c 173d
000000d0: fd6e 65bb 2731 703d 3156 793a c74d 09bb
000000e0: feb1 49bd df49 933d 65d8 aa3d 13a3 373d
000000f0: a6b0 3e3d ebc1 753d 0f3c ca3c 1a62 633d
00000100: 77e3 3bbd 308c 3cbd e36e 95bd e56a 383d
00000110: 22be 173d 285f 863d c839 f93c 6623 b03d
00000120: f7b3 44bd 223d d1bc eb6a b43d bbf2 a03c
00000130: 7f6b 4e3c 5c0b 843d fcd0 273d c9e1 abbc
00000140: de2f aebc e669 8a3d 276a b83d 2702 23bd
00000150: cebe 393c 519d 5fbc f6b4 953d 0491 823d
00000160: f64f 6cbc 9e58 3ebd c3ad 9fba 83c3 95bd
00000170: 8e74 8ebd 501d 97bd 6486 523c 4be9 4a3d
00000180: cf51 5dbb 170e 5ebc 86d6 69ba 9218 c2bc
00000190: ca1f 553d 5492 acbc dacf 173d e835 633d
000001a0: 67f0 96bd ff77 72bc b59c 92bd e09b ae3d
000001b0: fbc7 973d 79d4 90bc ba73 5f3d 6f5f 31bd
000001c0: fdbc 5cbc 8f5d adbc 73b8 a4bd 5c04 90bd
000001d0: 53a8 13bc 9077 3e3d 23e3 a43d cd3b bcbb
000001e0: 5064 e33c 138e 5e3c ad2d b93b 4e71 13bd
000001f0: 44d5 6a3d a054 96bd 5c3f 6e3d 2f42 b13b
00000200: e879 cc3c d206 1bbc 71c1 a6bd 9362 9fbd
00000210: 9eaf 653d dfbd 8b3b d3c8 41bd 5863 b83c
00000220: db78 91bd a6ff d1b8 1e94 2abd 9ad8 56bd
00000230: 570d 093d ce44 21bd 34f8 8cbd 1304 11bd
00000240: cc0e 943d 2a11 2fbd f771 963d f3e8 013d
00000250: ab5d 16bc 2247 06bd 8a75 b23d 1fed 04bd
00000260: 6604 0a3b 5af1 723d 77ed 393d b307 893d
00000270: 5eee 403d 1ec5 a3bd c2f9 583d 2535 353c
00000280: 3e31 bebc e919 513d f9c3 fbbb 1ca3 403b
00000290: a45a 623d 6f21 8fbd ee98 843d 7792 813d
000002a0: b21f adbd f78e 4c3c 1977 8f3d eb08 30bd
000002b0: ae66 a3bc 2c75 a6bd 76b8 e73d ae8f 6c3d
000002c0: fc89 513d 3aa5 293d e0d3 713d 706d 84bd
000002d0: 7a4a a8bd ccce b53b 63b9 ffbc 7780 18bd
000002e0: dab9 563d f443 98bc 1df1 623c 72be 2ebd
000002f0: ca86 74bd 58d7 98bc f096 69bb f6fe aa3c
00000300: 6e2d 993d bda7 53bd da21 3fbd 5b0e 763c
00000310: c994 51bd de95 a13a ac26 a53d 8d78 ef3d
00000320: 6f9c a4bd 7059 653b e976 b23b 52f1 16bd
00000330: d5df c73b f4c4 213d 8f14 153d 7d6d dcbb
00000340: ea32 4abd a999 383d 3236 8ebd a472 61bd
00000350: ba51 c13c cb95 3bbd 85ff 85bd e417 90bd
00000360: 006c c33c 8764 55bc e4eb b1bd b831 043c
00000370: 7fbd 33bd 73db e23c a663 7a3d 395b 42bc
00000380: 8d97 1a3d b185 8cbd ea40 833d c950 083a
00000390: 90c5 37bd f313 78bb bb75 753b 2930 ae3c
000003a0: 2e3d 883d be57 cbbc e518 b9bd d812 853c
000003b0: f923 04bd 1b16 823d fdf3 5abd 247a 5b3d
000003c0: 8228 9bbd 4500 ad3c 367d a7bd bc1e 5c3c
000003d0: 7fe3 773c dc6a 90bd ce65 133d 6ee2 163d
000003e0: fbc7 bdbd a83c 90bd 08e5 9b3d 616f 573d
000003f0: 4256 8f3c 559b 7dbd 94f2 ae3d fc31 b1bc
0.075075634 -0.00521427 0.047114946 0.08222974 0.06043828 -0.011358175 -0.09085701 -0.021704452
-0.05740304 0.0231059 0.047066513 0.07834573 -0.0367355 -0.05072903 0.01983319 0.07107282
-0.028250052 0.073361754 -0.056729797 0.100101545 0.07005607 -0.055236608 -0.058337476 0.04139091
-0.030558206 0.04033817 0.008401041 0.06765989 -0.049074702 -0.037462838 0.042027246 0.07256017
0.05778288 -0.0030092266 -0.0320159 -0.047591913 0.049538016 0.0492813 0.05506021 -0.011181704
-0.06918944 0.04094764 -0.06458356 0.016102089 -0.06361744 -0.048740294 0.026629483 0.029737286
0.07877364 -0.037266664 0.009864116 0.03687672 -0.003500878 0.058640625 0.000951144 -0.00209509
-0.049242012 0.07191824 0.08342055 0.044833254 0.046555184 0.059999388 0.024686841 0.05551348
-0.045871224 -0.04603213 -0.072965406 0.045023818 0.03704656 0.06561118 0.03042306 0.08600502
-0.04802319 -0.025541846 0.088094555 0.019646993 0.012598871 0.06447479 0.040970787 -0.020981686
-0.02126306 0.0675848 0.09004622 -0.039796975 0.011336995 -0.013648347 0.07309906 0.06375316
-0.014423361 -0.04647123 -0.0012182522 -0.073126815 -0.06955825 -0.07378638 0.012849424 0.04953889
-0.0033770686 -0.013553164 -0.0008920211 -0.023693357 0.05203227 -0.021065868 0.037063457 0.05547133
-0.07370072 -0.014799117 -0.07158796 0.085258245 0.0741119 -0.01767944 0.054553725 -0.043303903
-0.013472793 -0.021162776 -0.080429934 -0.070320815 -0.0090123 0.046500742 0.080511354 -0.0057444335
0.027757794 0.013583678 0.005651197 -0.035996728 0.057332292 -0.0734036 0.058165893 0.005409501
0.024960473 -0.009462075 -0.08142365 -0.077824734 0.056075685 0.0042645778 -0.04731066 0.022508308
-0.071031295 -0.00010013515 -0.04164516 -0.05245266 0.033459987 -0.039372258 -0.068832785 -0.035404276
0.07229385 -0.04274098 0.07345956 0.0317163 -0.009177606 -0.03278268 0.08713825 -0.0324527
0.002105975 0.059312202 0.04539248 0.06690922 0.047102325 -0.079965815 0.052972563 0.011060034
-0.02321684 0.0510501 -0.007683274 0.0029394096 0.055262223 -0.06988799 0.064744815 0.06326764
-0.08453311 0.012485257 0.07005138 -0.042977255 -0.019946422 -0.081278175 0.1131448 0.05775421
0.051156983 0.041417338 0.05903995 -0.06466186 -0.0821733 0.0055483337 -0.031216329 -0.03723189
0.052423336 -0.01858709 0.013851431 -0.04266209 -0.059698857 -0.018657371 -0.0035642944 0.020873528
0.07479368 -0.05167364 -0.046663143 0.015018071 -0.051167283 0.0012327989 0.08064017 0.11692915
-0.0803765 0.0034995936 0.005446304 -0.036851235 0.006099681 0.03949447 0.03639656 -0.006726919
-0.04936496 0.045068417 -0.06943931 -0.05504097 0.02359854 -0.04579715 -0.06542877 -0.07035807
0.02385521 -0.013024456 -0.08687571 0.0080684945 -0.04388189 0.027692532 0.06113019 -0.0118625695
0.037742186 -0.06861437 0.06408866 0.0005200026 -0.044866145 -0.0037853688 0.0037454206 0.021263199
0.06652294 -0.024822112 -0.090379514 0.016244337 -0.03226087 0.063518725 -0.05345534 0.05358328
-0.075760856 0.021118293 -0.08178179 0.013435062 0.015129923 -0.07051632 0.03598576 0.036837034
-0.09266659 -0.07042819 0.076120436 0.052596454 0.017497186 -0.061915714 0.08542362 -0.02163028

lstm.weight_hh_l1 f4 [512, 128]
00000000: ccf3 7b3d 5730 f9bc 5909 5ebd 6890 5b3d
00000010: 0636 013c 00a7 d13c 2062 65bd 3601 99bd
00000020: ecef 8abd cb3b 16bd 6af7 143d ca59 ca3d
00000030: 6c49 753d 4c35 24bb 3835 22bc b683 02bd
00000040: 44b8 5e3d ea86 a33d 8953 5ebd ef68 61b9
00000050: a510 31bb 2343 263d e9ae 68bd a8d2 0fbd
00000060: bb81 0fbd f0ce acbc a871 36bd 756c b9bc
00000070: f559 693d 8800 643d c859 0a3d ba0f 64bd
00000080: 38a3 05bd 2729 ed3c 6aae 48bc 2661 4d3d
00000090: 1228 d0bc 0e00 31bc f139 66bd 9ee8 90bd
000000a0: 2c83 dbbc a333 51bb 2896 74bd c870 abbd
000000b0: 2f0d 1a3c cd6a bc3d 2f3f 69bd 47d0 d8bb
000000c0: 1764 e23a 221f dabd 97b5 5d3d 050e 79bd
000000d0: 48dc 0dbc e9e8 b5bc 5a17 86bd a1d1 60bd
000000e0: abbe c8bc 2fd2 6d3d 01ae 80bd 53d7 d53c
000000f0: 72fd 103d 3fb3 7abd 65d4 873c a219 533d
00000100: d488 c93d ab95 863d 9ae3 02bd 37bf 32bd
00000110: b05e 453d b322 3fbc 914d aabd cfd9 98bd
00000120: 2b6e 50bc 473b d6bc 75b4 633d 8108 8cbd
00000130: 77b2 4cbd 6c28 0c3d 6ccf 553d cfe1 8bbd
00000140: b756 a43d eea6 363d edc3 ad3d faea 313d
00000150: a208 92bc 9302 92bd 79a1 6dbd 528c 963d
00000160: 7b82 40bc 1ed5 233d f173 8ebd 008a fb3c
00000170: fb28 dc3c 05a4 54bc fe1e 3bbd aa36 91bd
00000180: ac83 e73c 17f4 88bd 58c0 903d e11b bc3c
00000190: 6de7 fe3b 94a6 8cbd fb14 4c3c e2d2 8fbd
000001a0: a08e 1f3d 8df8 3d3d 752a 753d 5721 2b3d
000001b0: 89d4 bfbd a03d 94bd a39c 933d b17e 933d
000001c0: c331 dd3c 5106 1c3d fab7 cf3b 67da 35bc
000001d0: db88 a4bc 2874 a9bc 7c4e a43d acaa 463d
000001e0: 6ea0 1cbd fc67 70bc 915c 923c 8eeb 7f3d
000001f0: 5620 28bb be9c 563d 3730 e0bc f9b4 e13c
00000200: b10a 8ebd 0005 5b3b cdcf 883d ef91 01bd
00000210: e6db adbc 6af6 9e3d 0cae 05bd 5804 fc3c
00000220: c30a aebd c3b3 3fbd f3dc 903d 2e71 d63c
00000230: 500a a5bd aade 123d 6c8c abbc e89c 823c
00000240: 62db 8c3d 32cd 363d a035 50bd c242 a2bc
00000250: 9d8d 0d3d 4395 91bd a738 623d 7a36 433d
00000260: 71e0 763d ba40 cb3c 8a8a ccbc 6969 94bd
00000270: 40ae cb3c 7418 2d3c 315c 06bd ff5f e7bb
00000280: 6fa1 6ebc 601d 9a3d 2f32 683c 659c 4f3d
00000290: cada 9ebd d4d8 c5bc c0fd a23d da2d aebd
000002a0: 4ba2 963d e017 c83d 8533 053c cd45 0bbd
000002b0: c2fd 983d dd81 d43d 29bc 833d 32f7 2a3c
000002c0: bf4d 8a3c 98cc 13bd 5d6a c3bc 8c85 9cbd
000002d0: 3881 0c3b 8bb1 853a f4f3 203d f23e cbbd
000002e0: 14fa 9c3c 3a2a 9abd d426 06bc 67e7 813d
000002f0: e31f 653c 2cfb b3bc 2428 0cbd 35fe 24bd
00000300: 415c 6b3b b98b ce3d a225 26bd 4be1 7e3d
00000310: 489b 9bbd 8e3d 68bd b8ac 68bb 57bb 7abc
00000320: 6e93 afbd 117a b8bd 05ca b23c d7d4 80bd
00000330: 878f 623d 1689 523d b321 1abd 6b74 df3c
00000340: b295 be3d f936 01bd d8f4 bc3d b2aa 60bc
00000350: 913f c53b 1e1b d43c e1ec 9b3d a50d 8abd
00000360: 5da3 933d a88c 78bc a624 12bd 26c7 4c3b
00000370: 569e 8a3d 02a6 693c f50d 30bd 2ccf 57bd
00000380: 106a 87bd 286d e13c 066d 22bd bb35 9dbd
00000390: de43 c1bd 91c5 cabc ada3 82bd 454c fdba
000003a0: ea63 d93c 665a 88bd 01c1 4cbd cb08 7f3d
000003b0: e038 8c3d 042e 273b a482 8c3d a5fd a4bc
000003c0: 5ede 92bd 3997 a13d 4b81 3b3d 4905 8fbd
000003d0: 34f1 7dbc 0ffd 20bd 4835 843c 170e 533d
000003e0: e32b 14bd bff3 ca3d 188e 5cbd 54ac fcbc
000003f0: 2859 273d 9386 b7bd 8d76 debc e77a 46bd
0.0615118 -0.030418558 -0.054208133 0.053604513 0.007886415 0.025592327 -0.056001782 -0.07470934
-0.06784043 -0.036678117 0.036368765 0.09880407 0.059884474 -0.0025056181 -0.009900384 -0.03186389
0.05437495 0.07984717 -0.054278884 -0.00021496763 -0.0027017978 0.04059137 -0.056807432 -0.035113007
-0.03503583 -0.02109477 -0.044541985 -0.022634724 0.056970555 0.05566457 0.03377703 -0.05567906
-0.03262636 0.028950287 -0.012248615 0.050141476 -0.025409732 -0.010803236 -0.0562076 -0.07075618
-0.026795946 -0.0031921647 -0.059713513 -0.08371121 0.009402557 0.09200058 -0.056945022 -0.0066166255
0.0017272261 -0.10650469 0.054128256 -0.060804386 -0.008658476 -0.022205787 -0.06547423 -0.054887418
-0.02450498 0.058061775 -0.062831886 0.026103651 0.035397954 -0.0612061 0.01658077 0.051538117
0.09840551 0.06571516 -0.03195534 -0.043639388 0.048186004 -0.011665988 -0.08315576 -0.07463419
-0.012721579 -0.026151313 0.05559202 -0.068375595 -0.049974885 0.034218237 0.052199766 -0.06830179
0.08024352 0.04459279 0.084846355 0.04343698 -0.017826382 -0.07129397 -0.05801532 0.07350983
-0.011749859 0.039998166 -0.06955708 0.030705452 0.02687501 -0.012978558 -0.045683853 -0.070905045
0.028261028 -0.066871814 0.07067937 0.022962512 0.007779053 -0.0686771 0.012456174 -0.070226446
0.038954377 0.046379615 0.059854943 0.041779842 -0.0936671 -0.072383165 0.072076105 0.07201899
0.027001267 0.03809196 0.0063390704 -0.011099434 -0.020084789 -0.02068527 0.08022782 0.04850261
-0.038238935 -0.014673229 0.017866405 0.0624805 -0.002565404 0.052395575 -0.02736674 0.027552115
-0.06935633 0.0033419728 0.0668026 -0.031633314 -0.02122302 0.077618435 -0.032636687 0.03076379
-0.084981464 -0.046802294 0.07073393 0.026177015 -0.080586076 0.03585688 -0.020940982 0.01594396
0.068777815 0.044629283 -0.05083239 -0.019807223 0.03455888 -0.071085475 0.05522981 0.047659375
0.060272638 0.024811137 -0.024968404 -0.07246668 0.024863362 0.010564912 -0.032802764 -0.007061004
-0.014564856 0.07525134 0.014172121 0.05068626 -0.077565745 -0.024151243 0.07958555 -0.08504839
0.07355174 0.09770179 0.008129959 -0.034002114 0.074702755 0.10376332 0.06432373 0.0104349125
0.016882775 -0.036083788 -0.023854429 -0.076426595 0.0021439325 0.0010200007 0.03929515 -0.09924115
0.019162215 -0.07527585 -0.008187968 0.063429646 0.013984653 -0.021970354 -0.03421797 -0.040281493
0.0035913142 0.10085244 -0.040563233 0.062226575 -0.07597977 -0.056699328 -0.003550334 -0.015303454
-0.08573042 -0.09007657 0.021824846 -0.06290596 0.05531266 0.051400267 -0.037629794 0.027277192
0.09305896 -0.031546567 0.09226388 -0.013712572 0.0060195406 0.025891837 0.076135404 -0.06740884
0.072088934 -0.015170254 -0.035679482 0.0031246631 0.067684814 0.014260771 -0.04298206 -0.05268781
-0.06612027 0.02751787 -0.039654754 -0.07676264 -0.09436773 -0.02475241 -0.06378875 -0.0019325098
0.0265369 -0.06657867 -0.04998875 0.062264245 0.068467855 0.0025509605 0.06860855 -0.020140478
-0.071713194 0.078901716 0.0457776 -0.0698343 -0.015499402 -0.039303835 0.016138688 0.05152711
-0.036174666 0.09909772 -0.05384645 -0.030843891 0.04085651 -0.08961215 -0.027156139 -0.048457053

lstm.bias_ih_l1 f4 [512]
00000000: d393 423c ae8c d83c 08d9 7ebd 3f2c 89bd
00000010: 1a7d c5bc 156a 473a eb1c b0bd 0cb8 c03c
00000020: dadc 2a3b 5e8a fe3c 7a5d 75bc 6266 c2bd
00000030: 7704 c8bd d367 33bd 4922 bd3c ff7c ef3b
00000040: a4bd 563d 7f9c 85bd 376f 81bd 76c4 38bd
00000050: 889e 5cbd d704 acbd 517d 37bd 656e 3bbc
00000060: befa cbbd 353f 833d 6ffe 54bc 7a23 0c3d
00000070: 3a0b acbd 20e2 aebd 5fa2 903d cdd3 a93c
00000080: a070 813d a80a 703d 924c fbbc 7950 613d
00000090: 55ba d6bc f868 113d 90af aebc 11f7 64bd
000000a0: 6353 82bd 76f1 7e3d 7fe2 303c b6ce 4ebd
000000b0: 50e6 ddbc b8e4 8ebd 6ba4 233d b7ad 44bd
000000c0: 77d4 033d 8518 d43d a696 b83c a4e4 e93c
000000d0: b7e8 a6bd 35fc a4b8 17e0 47bd 1c73 d7bc
000000e0: 09a0 413d eb44 793d 9216 12bd fc98 3d3c
000000f0: e919 40bd e53c c13c 7c13 e0bc 336e 80bd
00000100: a294 2dbd 4382 75bd 1eb6 59bc 2266 b93c
00000110: 26ef 503d 784b 70bc f2e8 4abc 0ade 9f3a
00000120: 12f1 f73c a5cf 743d 99af d53c a396 5ebd
00000130: be3c 3dbd c227 a3bd e213 583d 2b8a 7c3c
00000140: 2be3 51bd 3471 403d 83fe 933d 54db 013d
00000150: 9013 89bd 92dd 68bd b474 203c 61be c73c
00000160: 3190 493d 94cf fcbc b94c edbc 875b 26bd
00000170: 3246 9fbd 3287 953d e966 503c fa27 e6bc
00000180: 7b35 a43d b98e af3d 8488 6cbc 9ca6 b13b
00000190: d7fe 11bd 798a 83bd 5f4b 0dbd d065 c83c
000001a0: 612d babc 3c58 a0bc 6b24 303d 364b 323d
000001b0: 1713 ab3d f91c 85bd d5fc c1bd 7563 67bd
000001c0: a923 8f3d 8237 38bc 2427 813d 892c d2bb
000001d0: f0f3 133d 627e 7f3d 47c4 7fbc e2e8 163e
000001e0: 967f 54bd c9d1 f43c 2dc2 5d3d c070 ebbc
000001f0: dfb8 b3bc 95dc 8e3c a5a1 123e b0e3 973d
00000200: c0de 323c 7386 f5bc a75f 9ebd 5dff 94bd
00000210: a797 38bd 8653 15bd bd17 e63c 2def 3abd
00000220: 1f4f b8bc 3323 e6bb f214 233d b382 913d
00000230: ceca 863c bff4 9f3d 3cd2 9ebd cfec b3bd
00000240: dabd 19bd fdac 1c3a 0a50 513c 28e7 6e3d
00000250: 1a1c 883d 6f27 b2bd deac 3dbc 2fae 4ebd
00000260: a381 6e3c 08f3 c23d 5431 523d e5c1 a63c
00000270: f710 d93a 136f 04bd c8ec c0bd 1eba 38bd
00000280: 7fc8 7f3c 47d2 943d ddc2 953c 04e9 d53b
00000290: a701 87bc dbe5 44bd fea8 923d 73c8 08bd
000002a0: dc4d 4ebd 926e 8b3c 692e b1bd 124a faba
000002b0: 978f 82bc 9805 91bd 6740 a6bd 9937 af3d
000002c0: d6ba 4b3d 0519 09bd 34db 95bd 16e0 8b3d
000002d0: a4e3 28bc 3f24 d03c 7a05 d33b cb50 0ebd
000002e0: ee9f 85bd 4d58 2f3d da19 76bc 7a0e 5e3c
000002f0: 14ff a9bc 1638 9ebd 7692 7cbc 0235 adbd
00000300: f06d 42bd 8983 ba3d b8cc b9bd 6dd1 9b3d
00000310: 5e2f d93c bf75 fe3b 791d c9bc 1fc2 923d
00000320: 82c2 953d 8315 c33d ff18 d0bc 6116 2d3d
00000330: 490a a83d c1d6 fb3b 267d 1c3d 4450 a13d
00000340: 54eb 433d 59ce 9b3b e548 653c 5d32 c63d
00000350: 0547 02bd 751b 90bd a0ef 94bc 534f a6bd
00000360: 48ba 41bc ec1e a3bd 56e5 803c a6b2 4cbd
00000370: a63b 993d 9263 383d b9da 6abd 7b01 53bc
00000380: 1735 943c e233 6cbc afb3 ba3d 5675 2bbd
00000390: a1a1 2ebd 485a 84bd d456 713c 2e1a 1e3d
000003a0: 7b37 ca3c b3cd 03bd 9920 90bd 46b6 8ebd
000003b0: 015d 283d 3b09 e33c 62d4 31bd 6a6c 373d
000003c0: f64d 943d 76df b13c ac11 313c 5c5e 003d
000003d0: 0e81 483d d92f d2bb 7f28 613d 06c3 c7bd
000003e0: 9eaf 04bd 99f0 2dbc 5416 b1bc f465 a13d
000003f0: c8cf 803c deb4 a8bd 49c4 32bd 72eb 3cbd
0.011876064 0.026434269 -0.062218696 -0.066978924 -0.024107505 0.0007607055 -0.08599266 0.02352526
0.002607158 0.031071838 -0.0149759 -0.09492184 -0.097664766 -0.043800186 0.023087637 0.007308602
0.05242695 -0.0652399 -0.06320041 -0.045109235 -0.053862125 -0.083993606 -0.044797245 -0.011439894
-0.09959935 0.0640854 -0.013000115 0.03421352 -0.08400579 -0.08539224 0.0706222 0.020730877
0.0632031 0.058603913 -0.03067616 0.055008385 -0.026211897 0.035500497 -0.02132395 -0.055899683
-0.06363561 0.062241994 0.010796188 -0.050490104 -0.02708736 -0.069772184 0.039951723 -0.04801723
0.032185044 0.10356239 0.022532772 0.028551407 -0.081498556 -7.8671066e-05 -0.048797693 -0.026300006
0.047271762 0.06085674 -0.035666056 0.011572119 -0.04689971 0.023588607 -0.02735304 -0.06271019
-0.042378075 -0.05993868 -0.013288049 0.022631709 0.05100932 -0.014666431 -0.01238464 0.001219691
0.030266318 0.059768338 0.026084708 -0.054342877 -0.046200506 -0.079665676 0.052753337 0.015413801
-0.051242035 0.04698296 0.07226279 0.03170331 -0.066931844 -0.05685193 0.009793449 0.024382772
0.049209777 -0.0308607 -0.028967248 -0.04061463 -0.077770606 0.07301177 0.012719848 -0.028095234
0.08018013 0.08572144 -0.014436845 0.0054214727 -0.035643425 -0.06422896 -0.034495708 0.02446261
-0.022726716 -0.019573323 0.04300348 0.043528758 0.083532505 -0.06499667 -0.09472052 -0.056491334
0.069892235 -0.011243703 0.063062936 -0.0064140004 0.03612131 0.062376387 -0.015610761 0.14737275
-0.051879488 0.02988519 0.05414026 -0.028740287 -0.02193874 0.017439166 0.14319475 0.07416475
0.010917366 -0.029971337 -0.07733088 -0.07275269 -0.045066502 -0.036456607 0.028087491 -0.045638252
-0.022498665 -0.007023239 0.039814897 0.07105007 0.016454127 0.078103535 -0.07754943 -0.08785402
-0.037534572 0.0005976705 0.01277543 0.058325917 0.06645985 -0.086989276 -0.011576859 -0.050459083
0.014557275 0.09519011 0.051316574 0.020356128 0.0016560842 -0.03233249 -0.094201624 -0.04509937
0.015611767 0.0726667 0.018281395 0.006528022 -0.01648028 -0.04807077 0.07161139 -0.03339429
-0.05036722 0.017020497 -0.0865143 -0.0019095561 -0.01593761 -0.07081145 -0.081177525 0.08555526
0.049738728 -0.033471126 -0.073172 0.068298504 -0.01030818 0.025407908 0.006439862 -0.03474502
-0.06524645 0.04280882 -0.015020812 0.013553256 -0.020751514 -0.07725541 -0.015415778 -0.08457376
-0.047468126 0.091071196 -0.0907225 0.07608304 0.026511844 0.0077655013 -0.024550186 0.07165932
0.0731249 0.095255874 -0.025402544 0.04225767 0.08205087 0.007685513 0.03820529 0.078766376
0.04783185 0.004754823 0.01399443 0.09677575 -0.03180601 -0.07036487 -0.018180668 -0.08120599
-0.011824198 -0.07964882 0.015734356 -0.04997506 0.0748208 0.045016833 -0.057337496 -0.012878771
0.018091721 -0.014416667 0.09116303 -0.041859947 -0.04263461 -0.06462532 0.014730174 0.038599186
0.024684658 -0.032178592 -0.070374675 -0.0696836 0.04110432 0.027714362 -0.043415435 0.044781126
0.07241432 0.021713 0.010807436 0.031339988 0.0489512 -0.0064143953 0.05497026 -0.09753995
-0.032394044 -0.010616445 -0.021617092 0.07880774 0.015724078 -0.08237623 -0.043644223 -0.046122976
