models/2318.HK_lstm_SMA50_diff.pth (torch, 808517 bytes, 9 tensors)

lstm.weight_ih_l0 f4 [512, 4]
0	0x3d4418cd	0.047875214
1	0x3dc1cc7e	0.09462832
2	0xbaa5de84	-0.0012654816
3	0x3da79044	0.08181813
4	0x3dfde82d	0.123978
5	0x3dccefdf	0.10006689
6	0x3e4994b4	0.19685632
7	0x3d08a35f	0.033358928
8	0x3c114100	0.008865595
9	0x3d98526f	0.07437598
10	0x3d337952	0.043816872
11	0xbd18a729	-0.03726879
12	0x3db50f7d	0.08840845
13	0x3d27d0f1	0.040970746
14	0x3da923c5	0.082587756
15	0xbdd1a846	-0.10237174
16	0x3cf37993	0.029721057
17	0x3dab9ace	0.08379136
18	0xbd55d0bf	-0.05220103
19	0x3d6f5f05	0.058440227
20	0xbb91307b	-0.004430828
21	0x3ac2de85	0.0014867341
22	0xbcd4b46e	-0.025964942
23	0xbd1d7c78	-0.03844878
24	0xbd029cdd	-0.031887878
25	0xbd8d9087	-0.06912332
26	0xbc6b4133	-0.014358806
27	0xbb853a39	-0.0040657786
28	0x3d2049a9	0.039132748
29	0xbc8ed4cf	-0.01743546
30	0xbd88814f	-0.06665289
31	0x3d16aaa8	0.036783844
32	0x3d3ca9aa	0.04606024
33	0xbd87dd39	-0.06633992
34	0xbd430557	-0.047612514
35	0x3dadeb50	0.08492148
36	0x3d81b20d	0.063327886
37	0xbd040247	-0.032228734
38	0xbd210cbb	-0.03931878
39	0x3d992a62	0.07478787
40	0xbc932db5	-0.01796613
41	0x3cf38c1d	0.029729897
42	0x3c8efcfb	0.017454615
43	0xbd152185	-0.03640892
44	0xbb364122	-0.0027809818
45	0x3dbcace2	0.09212662
46	0xbd191102	-0.037369736
47	0xbb4e09e9	-0.0031439012
48	0x3e0d89fb	0.13822167
49	0x3dbd9894	0.092576176
50	0x3dfc0a29	0.123066254
51	0xbc80f273	-0.015740609
52	0x3d9ad11e	0.07559417
53	0x3d96fb4b	0.07372149
54	0x3d4790d3	0.0487221
55	0x3c2aced9	0.010425293
56	0x3dccc325	0.09998158
57	0xbcad82cb	-0.021180531
58	0x3df71df8	0.12066263
59	0x3d125b35	0.035731513
60	0x3da64c8c	0.08120069
61	0xbc7a61a2	-0.015282067
62	0x3d55acfb	0.05216692
63	0xbd1bf361	-0.0380739
64	0x3d871db3	0.065974616
65	0xbcac32a7	-0.021020247
66	0x3dd3b755	0.10337702
67	0x3db8b6fd	0.09019277
68	0x3da14da7	0.07876139
69	0x3db0644e	0.086128816
70	0x3db3eba5	0.0878518
71	0x3d4237c3	0.04741646
72	0xbd6f0ad0	-0.05835992
73	0x3da1be62	0.07897641
74	0x3da02955	0.078203835
75	0xbcfdc22f	-0.030976383
76	0x3d0acc60	0.033886313
77	0x393f529c	0.00018245954
78	0xbc1c907f	-0.009555935
79	0x3db9899a	0.090594485
80	0xbbb39580	-0.0054804683
81	0x3d786907	0.060647037
82	0x3e125bd5	0.14292844
83	0x3b6f54b1	0.0036518986
84	0x3d309b33	0.04311676
85	0xbb08c0dc	-0.0020866906
86	0x3d1a7713	0.037711214
87	0x3b45bbd4	0.0030171769
88	0x3d300c74	0.042980626
89	0x3d16b353	0.03679211
90	0x3db4370d	0.087995626
91	0xbccff344	-0.025384553
92	0xbd748eb6	-0.059706412
93	0xbd39d035	-0.045364577
94	0x3db4bcaf	0.08825051
95	0x3d950657	0.072766
96	0xbd1eadb8	-0.03873989
97	0x3db11b3c	0.08647773
98	0xbd95cbd2	-0.07314266
99	0x3cbf4b5d	0.023351366
100	0x3cab15e1	0.020884456
101	0xbcf5d4d6	-0.030008715
102	0xbd7183b3	-0.05896349
103	0xbcaa600d	-0.020797754
104	0xbbd52b45	-0.0065054023
105	0x3d813e74	0.0631074
106	0x3cfe1d7b	0.031019917
107	0x3da96976	0.08272068
108	0x3e4d2d5e	0.20036837
109	0x3de0f5fd	0.109844185
110	0x3d9c2809	0.076248236
111	0x3d74a3cb	0.059726518
112	0x3d775609	0.060384784
113	0x3e10db47	0.14146148
114	0x3cbab5b8	0.022791728
115	0xbcd4961c	-0.025950484
116	0x3d96e32b	0.073675476
117	0xbc5897f6	-0.013219824
118	0xbd912201	-0.07086564
119	0x3a79b426	0.00095254404
120	0xba44531e	-0.0007489192
121	0xbdd49ef9	-0.10381884
122	0xbdaa1d80	-0.08306408
123	0xb911fee5	-0.00013923233
124	0xbd46481b	-0.04840861
125	0x3c6f3c44	0.014601771
126	0x3b664b41	0.003514007
127	0xbd9dc08a	-0.077027395
128	0xbd95cb00	-0.0731411
129	0xbce337c0	-0.027736545
130	0x3db387f3	0.08766165
131	0xbcf9671e	-0.030444678
132	0x3d6ea935	0.058266837
133	0x3c2e861b	0.01065209
134	0x3d1471a8	0.036241204
135	0x3ccc04fe	0.024904724
136	0x3d8563ad	0.06513152
137	0x3cc33314	0.023828067
138	0xbd431423	-0.047626626
139	0x3dc06393	0.09393992
140	0x3da24a37	0.079243116
141	0x3d18a6bb	0.03726838
142	0x3dd85204	0.10562518
143	0xbc334a1e	-0.010942964
144	0xbd627bb5	-0.055293757
145	0xbca8f952	-0.020626698
146	0xbda54ec4	-0.08071664
147	0x3d1af353	0.03782971
148	0x3c599b16	0.013281604
149	0xbd155f35	-0.03646775
150	0x3d69dcf9	0.0570955
151	0xbc818255	-0.015809217
152	0x3e0433fa	0.12910452
153	0x3d85e745	0.06538252
154	0x3d4b078b	0.04956774
155	0x3e12596c	0.14291924
156	0x3e6497dd	0.22323556
157	0x3dcdf7d9	0.10057039
158	0x3df8b59a	0.12144013
159	0x3d6a68de	0.057228915
160	0xbdae46ed	-0.08509622
161	0xbd2a19cd	-0.04152851
162	0xbd68b25b	-0.056810718
163	0xbd0df07e	-0.03465318
164	0xbd56d92c	-0.052453205
165	0xbbe728ec	-0.007054439
166	0x3dbd0561	0.092295416
167	0x3c329a68	0.010901071
168	0x3d3d7430	0.046253383
169	0x3d926b43	0.07149365
170	0x3d87dabe	0.06633519
171	0x3d9c54d2	0.07633366
172	0x3cb7b07f	0.022423027
173	0x3e1c274f	0.1524937
174	0x3df5f5d9	0.12009782
175	0x3ddd89a7	0.10817271
176	0xbdabb1b9	-0.08383507
177	0xbd5d67c2	-0.05405403
178	0xbd6affd4	-0.057372883
179	0xbd99a13d	-0.07501457
180	0xbc83aaea	-0.01607271
181	0x3d2c99b8	0.042138785
182	0xbce67f6a	-0.028136928
183	0x3b032b6e	0.00200149
184	0x3d2b0a48	0.04175785
185	0x3d937c03	0.07201388
186	0xba41a6d9	-0.0007387228
187	0x3bc4edda	0.0060097994
188	0x3daa3728	0.083113015
189	0x3deb1bb7	0.114798956
190	0x3da1008d	0.07861433
191	0x3c096b8e	0.008387459
192	0xbd5033ea	-0.05083076
193	0x3cb22677	0.021746857
194	0xbd89aba0	-0.06722188
195	0xbd4f63f3	-0.05063243
196	0x3e5cc854	0.21560794
197	0x3d7d5642	0.06184984
198	0x3d773613	0.060354304
199	0x3d5e3360	0.054248214
200	0x3d4087ab	0.047004383
201	0x3d183e0e	0.037168555
202	0xbcd10f9a	-0.025520135
203	0xbc924cc8	-0.017858878
204	0x3d38d08b	0.045120757
205	0x3bb32615	0.005467186
206	0x3dd6d822	0.10490443
207	0xbcb90c91	-0.022589
208	0xbcf3ef3d	-0.029777164
209	0x3d1ef0de	0.038803928
210	0x3d778faa	0.060439743
211	0x3db07b19	0.08617229
212	0x3e2f5f2d	0.1712615
213	0x3db6af0a	0.08920105
214	0x3d945ca0	0.07244229
215	0x3e220ae1	0.15824462
216	0x3d2df561	0.04247034
217	0x3d78fddb	0.06078897
218	0xbb5b24c4	-0.0033438662
219	0x3d0d5ebf	0.034514185
220	0x3d76e4a8	0.060276657
221	0x3dd76db6	0.105189726
222	0x3c304baa	0.010760227
223	0x3c23ea31	0.010004566
224	0x3d42c5fc	0.047552094
225	0xbbe74356	-0.0070575876
226	0xbd4db496	-0.05022105
227	0x3d3f07bd	0.04663824
228	0x3d7ba26d	0.0614342
229	0x3d9c4a3d	0.07631347
230	0xbc27e332	-0.010247039
231	0x3d2563d3	0.040378403
232	0xbdb2a7e2	-0.08723427
233	0xbd13372e	-0.035941295
234	0x3c725a1c	0.014791992
235	0x3dc2bcf5	0.09508697
236	0xbd0d255b	-0.034459453
237	0x3c9ffb97	0.019529147
238	0x3cdde5fa	0.0270872
239	0xbbda7526	-0.006666797
240	0xbd21018b	-0.039308112
241	0x3a472fed	0.0007598389
242	0xbd3a582a	-0.045494236
243	0xbcd89acf	-0.026441006
244	0xbd89fbd4	-0.067374855
245	0xbcc12228	-0.023575857
246	0xbd6e3c29	-0.058162842
247	0xbd08d846	-0.03340938
248	0x3e019b67	0.12656938
249	0x3d62f27a	0.055407025
250	0x3d4ff35f	0.050769206
251	0x3dc4b22a	0.096042946
252	0x3d13a780	0.036048412
253	0xbd496af5	-0.049174268
254	0xbd4a2f73	-0.049361657
255	0x3cc84121	0.024445118

lstm.weight_hh_l0 f4 [512, 128]
0	0xbd6feeda	-0.058577396
1	0x3dccb16e	0.099947795
2	0xbc1b86fc	-0.009492632
3	0xbc3c3aaa	-0.011488596
4	0x3d42c69b	0.047552686
5	0xbd5b7bb3	-0.053584766
6	0x3c45f774	0.012082923
7	0xbdf0ab57	-0.117514305
8	0x3ce02c1f	0.027364789
9	0xbdce9ce7	-0.100885205
10	0x3dab0cf6	0.083520815
11	0xbd0a5c6d	-0.03377955
12	0x3c14f7bd	0.0090922685
13	0xbda36b12	-0.079794064
14	0xbd08a637	-0.03336164
15	0xbcf7e4ba	-0.030260433
16	0xbd2a1ab7	-0.041529384
17	0xbcad850d	-0.021181608
18	0x3d9f7dc1	0.077876575
19	0x3db99ab3	0.0906271
20	0x3c7fe5c4	0.015618745
21	0x3d3f4cc0	0.046704054
22	0xbd6dfe2a	-0.058103718
23	0xbd978439	-0.07398266
24	0x3a81edb7	0.0009912763
25	0xbd917056	-0.071015045
26	0x3c8844d3	0.01663438
27	0xbcb7227f	-0.022355316
28	0xbc60904e	-0.01370628
29	0x3d3f1a4e	0.046655945
30	0x3df598f5	0.11992065
31	0x3cb70f2f	0.022346107
32	0x3ce5c2b7	0.028046949
33	0x3d88884b	0.06666621
34	0x3d723c12	0.05913932
35	0x3df7d661	0.121014364
36	0xbce57f9c	-0.02801495
37	0x3c8f1998	0.017468259
38	0x3d82cc52	0.06386627
39	0x3d838113	0.06421103
40	0xbd5ba19f	-0.05362093
41	0xbda8b7cd	-0.08238182
42	0xbc6d836b	-0.0144966645
43	0x3d3b5375	0.045733888
44	0x3da2cc2c	0.07949099
45	0xbd6f3f32	-0.058409877
46	0x3d55d23b	0.052202445
47	0xbd9c9c5d	-0.076470114
48	0x3daef67e	0.085431084
49	0xbc12ea0f	-0.008966937
50	0xbd05962e	-0.032613926
51	0xbccd9325	-0.025094578
52	0x3db04109	0.086061545
53	0xbd99205e	-0.07476877
54	0xbc5f901e	-0.0136452
55	0xbdeae3c0	-0.11469221
56	0xbdae1cf8	-0.08501619
57	0x3cd66e77	0.02617572
58	0x3dc47732	0.09593047
59	0xbb7fa9eb	-0.003901119
60	0xbc58197c	-0.01318967
61	0xbccc89ad	-0.024967993
62	0x3dc61dc1	0.09673644
63	0x3c9e0a7a	0.019292105
64	0xbd312490	-0.04324776
65	0x3d3eefc2	0.04661537
66	0xbca06e5d	-0.019583875
67	0xbd9266fc	-0.07148549
68	0x3cb11e25	0.02162082
69	0xbcb64410	-0.022249252
70	0xbd8b1a5a	-0.067921355
71	0xbd7c1b85	-0.061549682
72	0x3cd318cc	0.02576866
73	0x3cddc5dd	0.027071888
74	0x3d810f4b	0.06301745
75	0x3dbd2863	0.09236219
76	0xbd13d85a	-0.036095
77	0xbd35bf17	-0.04437169
78	0x3d952927	0.0728324
79	0x3c0097fb	0.007848735
80	0x3c8eab2d	0.017415607
81	0x3c47e598	0.0122007355
82	0x3bbbd576	0.0057322336
83	0xbd996b7b	-0.074912034
84	0xbd5dc1da	-0.05413995
85	0xbd2af6ff	-0.04173946
86	0xbcb60163	-0.022217458
87	0x3b42126c	0.002961303
88	0x3dd5e915	0.104448475
89	0xbc60e78b	-0.013727079
90	0x3daefe52	0.085446015
91	0xbd9d7caa	-0.076897934
92	0xbde0cb53	-0.10976281
93	0xbd9a43cf	-0.07532465
94	0x3d5de3f4	0.05417247
95	0xbbf5a000	-0.00749588
96	0x3bfba19a	0.0076791765
97	0x3d259962	0.04042948
98	0x3bb811c4	0.005617352
99	0xbdd62b6c	-0.10457501
100	0xbce044ab	-0.027376493
101	0x3d038d98	0.032117456
102	0xbd135f7f	-0.035979744
103	0xbdb89e23	-0.09014537
104	0xbd342f60	-0.043990493
105	0xbd9745ee	-0.07386385
106	0xbda27b1d	-0.07933638
107	0x3c9dcdda	0.019263197
108	0xbd674807	-0.056465175
109	0xbc9fd520	-0.019510806
110	0x3dc1fb6e	0.094717845
111	0xbdf4b263	-0.11948087
112	0xbd608509	-0.054814372
113	0xbd1277b7	-0.0357587
114	0x3dbed5a3	0.09318092
115	0xbd78ffba	-0.060790755
116	0xbdc9ce65	-0.0985382
117	0x3de2b235	0.110691465
118	0x3bd0dbc3	0.006373854
119	0x3d6613fe	0.05617141
120	0x3d548e6a	0.05189363
121	0xbd4eb3ca	-0.05046443
122	0x3d64a6bd	0.055823077
123	0xbd324a5f	-0.043527957
124	0xbd53e934	-0.05173607
125	0x3dbf12f6	0.093297884
126	0x3da4b51c	0.08042356
127	0xbd8eca1a	-0.069721416
128	0xbddccb62	-0.1078098
129	0x3e0e5e02	0.13903049
130	0x3d996161	0.07489277
131	0x3d81e3fa	0.06342311
132	0x3d445a53	0.047937702
133	0x3cb4b82d	0.022060478
134	0x3dcad0f2	0.099031344
135	0x3ce22a35	0.027608017
136	0xbc2d777a	-0.010587567
137	0x3c1b8633	0.009492445
138	0x3d09ceb6	0.0336444
139	0x3c1dd432	0.009633111
140	0xbe0483d4	-0.12940913
141	0xbd6d7114	-0.057969168
142	0xbdff3a71	-0.12462319
143	0x3aee3d13	0.001817616
144	0xbdf6e405	-0.1205521
145	0x3d897474	0.06711665
146	0x3d567729	0.052359734
147	0xbc2bdb21	-0.010489256
148	0x3c1db758	0.009626232
149	0xbcf1ae78	-0.029502138
150	0xbd55d0b0	-0.052200973
151	0x39f11d6e	0.0004598903
152	0xbc82d46e	-0.015970435
153	0x3cb0d83f	0.02158749
154	0x3d0b213a	0.033967234
155	0x3d979b58	0.07402676
156	0x3e02f5a2	0.12789014
157	0xbd97adc0	-0.07406187
158	0x3d1abe47	0.03777912
159	0xbe0f0498	-0.13966596
160	0x3dd310ba	0.10305925
161	0x3e05454c	0.13014716
162	0x3e13794e	0.14401743
163	0x3d457a77	0.048212495
164	0xbdb47a61	-0.088124044
165	0xbdc67d06	-0.09691815
166	0x3c730187	0.014831907
167	0x3dc77fef	0.09741198
168	0xbc13b6d4	-0.009015758
169	0x3e0b8aee	0.13627216
170	0x3de13b1b	0.109976016
171	0xbd943057	-0.072357826
172	0x3df0d787	0.117598586
173	0xbc3077fc	-0.010770794
174	0x3c0a484d	0.008440089
175	0x3cbb9c40	0.022901654
176	0xbc8f66f7	-0.017505152
177	0x3e2a383a	0.16623011
178	0x3b985536	0.00464883
179	0xbdf9b674	-0.12193003
180	0x38d82fcc	0.000103085855
181	0xbcd3e389	-0.025865333
182	0xbd43b7e0	-0.04778278
183	0xbe17f5aa	-0.14839807
184	0x3ca58cc7	0.02020873
185	0xbab98f31	-0.0014157054
186	0x3e0a3a9d	0.13498922
187	0xbe08fb27	-0.13377057
188	0xbdeba179	-0.11505408
189	0x3db2efe9	0.087371655
190	0xbcc522b0	-0.024064392
191	0x3c06707c	0.008205529
192	0x3c624e52	0.013812618
193	0xbd20a59c	-0.039220437
194	0xbcb3c800	-0.021945953
195	0xbd70f8a4	-0.058830872
196	0xbdab440e	-0.0836259
197	0xbc2bd3fc	-0.010487553
198	0xbabafb06	-0.0014265485
199	0x3b6d90ea	0.0036249706
200	0xbda31e60	-0.07964778
201	0x3cce8011	0.025207551
202	0x3dd2883c	0.10279891
203	0x3de7180d	0.11283884
204	0x3cfeac57	0.031088037
205	0xbcd5f430	-0.026117414
206	0x3dc93cbc	0.09826037
207	0xbded782f	-0.11595189
208	0xbd20e88e	-0.03928428
209	0x3ddaffbb	0.10693308
210	0xbd210b17	-0.039317217
211	0xbc0d6782	-0.008630635
212	0xbd1532dc	-0.036425456
213	0xbc5f6ed4	-0.013637263
214	0xbb317423	-0.002707728
215	0x3dc4028c	0.09570798
216	0x3a163f8c	0.0005731515
217	0xbdb221be	-0.08697842
218	0xbbe44f1e	-0.0069674393
219	0x3dd2e265	0.102970876
220	0xbc6f7115	-0.014614363
221	0xbdc55396	-0.096350834
222	0xbccef29d	-0.025262171
223	0xbd4c701c	-0.049911603
224	0x3cb6e512	0.022326026
225	0xbbe6f93d	-0.0070487545
226	0x3d9c8a1a	0.07643528
227	0xbdc00e95	-0.09377781
228	0x3dbd8ad2	0.092549935
229	0x3d4c584a	0.049888887
230	0xbe01a4ee	-0.12660572
231	0xbd8b6ec6	-0.06808238
232	0xb88a68d5	-6.599879e-05
233	0x3d3951f8	0.045244187
234	0xbc82efb7	-0.015983446
235	0x3e2898b1	0.16464497
236	0xbd1ec780	-0.038764477
237	0xbd1ac5ba	-0.037786223
238	0xba6ec13b	-0.0009107773
239	0xbe1cce1a	-0.15312997
240	0xbe061c50	-0.13096738
241	0xbdb27b03	-0.08714869
242	0xba2b886a	-0.00065434596
243	0xbddcf258	-0.10788411
244	0xbc13aa1e	-0.009012727
245	0x3b52d5af	0.0032170822
246	0xbd599fe2	-0.05313099
247	0xbb010a0f	-0.0019689833
248	0xbcf1f916	-0.029537719
249	0xbd0112d8	-0.03151211
250	0xbb188274	-0.0023271115
251	0xbc0fb9d2	-0.00877233
252	0xbd7e8039	-0.062134
253	0x3e02d23f	0.12775515
254	0x3e1e7bff	0.15476988
255	0xbd10540f	-0.035236415

lstm.bias_ih_l0 f4 [512]
0	0xbafea507	-0.0019427844
1	0x3ddaa3ec	0.10675797
2	0xbc9603b4	-0.018312313
3	0xbd7443ba	-0.0596349
4	0xbcb2d7b6	-0.021831375
5	0x3d262cae	0.040569954
6	0x3d83885e	0.06422494
7	0x3d5d0660	0.053961158
8	0xba794335	-0.0009508611
9	0xbc9c8c5c	-0.019109897
10	0xbc0c7297	-0.008572242
11	0x3d953524	0.072855264
12	0x3d0c567c	0.034262165
13	0xbd7618c1	-0.0600822
14	0x3c9dec6c	0.019277774
15	0x3d21b6ed	0.039481092
16	0x3d073b04	0.033015266
17	0x3d8969b8	0.067096174
18	0x3d87c659	0.06629629
19	0x3d50e413	0.05099876
20	0x3dddfff8	0.10839838
21	0x3cd70479	0.02624725
22	0x3da3d52d	0.079996444
23	0xbd93f90b	-0.072252356
24	0x3db51eaf	0.08843743
25	0x3d73bd93	0.059506964
26	0xbd840b51	-0.06447471
27	0x3d89d749	0.067305155
28	0xbd4d4433	-0.050113868
29	0xbcec3078	-0.028831705
30	0xbd359bd6	-0.04433807
31	0xbc8bedc8	-0.017081156
32	0xbd2d8579	-0.042363618
33	0x3cdda3b8	0.027055606
34	0x3d628345	0.05530097
35	0x3df0c336	0.117559835
36	0x3d2cbd2a	0.04217259
37	0x3d736e95	0.05943163
38	0x3dca1051	0.09866393
39	0x3e1350fc	0.14386362
40	0x3bf6c860	0.007531211
41	0xbd87bc1a	-0.066276744
42	0x3c215950	0.009847954
43	0xbcc3b523	-0.023890084
44	0x3d9d26fc	0.07673451
45	0xbdb534bc	-0.08847949
46	0xbdb6b106	-0.08920483
47	0x3ce7ce15	0.02829651
48	0x3d5a2749	0.05326012
49	0x3d5ba4ab	0.053623836
50	0x3d3eb876	0.046562634
51	0x3cd650c6	0.026161563
52	0x3cba0da6	0.022711586
53	0x3d4f1ee2	0.05056656
54	0xbd1098cc	-0.03530197
55	0xbcb551dc	-0.02213376
56	0xbd22327c	-0.039598927
57	0x3aaff771	0.0013425184
58	0xbcd3b916	-0.025845092
59	0xbbe65d51	-0.007030167
60	0xbd7e8289	-0.062136207
61	0xbce9873b	-0.028506866
62	0xbb8ef7fc	-0.004363058
63	0x3be78926	0.00706591
64	0xbd4263fe	-0.04745864
65	0xbd1bb406	-0.03801348
66	0x3daf73ae	0.08566986
67	0xbc2c8b13	-0.010531205
68	0x3e49fa88	0.19724476
69	0xbd09e0d5	-0.033661682
70	0x3d111aed	0.03542607
71	0xbc991082	-0.01868463
72	0x3bdcf700	0.006743312
73	0xbcbbea03	-0.022938734
74	0x3d9f73a4	0.077857286
75	0x3e30a804	0.17251593
76	0x3d062570	0.032750547
77	0xbda408c8	-0.080094874
78	0x3e024151	0.12720229
79	0x3db3972f	0.0876907
80	0x3ca405cd	0.020022297
81	0x3d5934e9	0.053028975
82	0x3c79c58d	0.015244854
83	0x3e1b6cca	0.15178218
84	0xbd292b98	-0.04130134
85	0x3d4487c0	0.047981024
86	0x3e1278e0	0.14303923
87	0x3c2d7f36	0.0105894115
88	0xbc0b2bc9	-0.008494326
89	0xbbe7a241	-0.0070689027
90	0x3d931f92	0.07183756
91	0x3d739b19	0.059474085
92	0x3d90f2cd	0.070775606
93	0x3d86fd9c	0.06591341
94	0x3cbe7c42	0.02325261
95	0x3d7c0759	0.061530445
96	0x3d2fefd0	0.042953312
97	0xbd488ae1	-0.04896057
98	0x3c70ff80	0.014709353
99	0x3d26cbcc	0.0407217
100	0xbcf739da	-0.030178953
101	0x3d16ecb3	0.036846828
102	0x3e08f964	0.13376385
103	0x3d884595	0.06653897
104	0xbc35fae3	-0.011107179
105	0x3da64d32	0.081201926
106	0x3db3c5f3	0.0877799
107	0x3e004997	0.12528072
108	0x3d2e5f5a	0.042571403
109	0xbd1bda70	-0.038050115
110	0xbc736206	-0.014854914
111	0x3e31783c	0.17331022
112	0x3dc74205	0.09729389
113	0x3e33e2f3	0.17567043
114	0x3c2924c9	0.010323712
115	0xbaa87549	-0.0012852337
116	0xbda9ba2a	-0.08287461
117	0x3d94d7da	0.07267733
118	0x3cb7f6ca	0.022456545
119	0x3c19b3a8	0.009381212
120	0xbd949c12	-0.072563305
121	0x3d61143e	0.054950945
122	0xbd406310	-0.046969473
123	0xbd07d182	-0.033158787
124	0xbd16f390	-0.036853373
125	0x3c6c8817	0.014436743
126	0x3dc5f10c	0.09665117
127	0x3d9c8b1a	0.07643719
128	0xbc11b749	-0.008893796
129	0x3d450f03	0.04811002
130	0xbd220646	-0.039556764
131	0xbda290e5	-0.07937793
132	0x3c44e241	0.012016834
133	0x3cf6ae7a	0.030112494
134	0x3d85e21b	0.06537267
135	0x3d72bd42	0.05926252
136	0x3d6857c8	0.05672434
137	0x3d356f3f	0.044295546
138	0xbd0cc8a0	-0.03437102
139	0x3d9c6289	0.076359816
140	0x3d3a036a	0.045413412
141	0xbd60abab	-0.054851215
142	0x3b7dd3f4	0.003873107
143	0xbd9413bc	-0.072303265
144	0x3d8a8890	0.067643285
145	0x3d823f27	0.063597016
146	0x3c20abd5	0.009806593
147	0xbd9e83d4	-0.07739988
148	0x3dd37167	0.10324364
149	0xbdc8d7aa	-0.0980676
150	0xbdb2597b	-0.08708473
151	0x3da5a959	0.08088941
152	0xbcf76ed0	-0.030204207
153	0x3d8b1973	0.067919634
154	0xbd221ac4	-0.039576307
155	0xbd08676a	-0.03330175
156	0xbd349d15	-0.044095118
157	0xbbebe2d7	-0.0071986723
158	0x3d3b177f	0.045676704
159	0x3d150618	0.036382765
160	0x3d7aeb56	0.06125959
161	0x3d374d39	0.04475138
162	0x3cb9fa73	0.022702431
163	0x3d1cabaa	0.03824965
164	0xbd9f0bdf	-0.07765936
165	0x3daa2c57	0.083092384
166	0x3c91172d	0.017711246
167	0xbc19d9b0	-0.00939028
168	0xbcecca33	-0.02890501
169	0x3d2e05bd	0.04248594
170	0x3d65503a	0.055984713
171	0x3d7096ed	0.058737684
172	0x3bbc2f63	0.0057429536
173	0x3c168b50	0.009188488
174	0x3d4ed57c	0.050496563
175	0xbdc5b1fb	-0.09653088
176	0xbda00894	-0.07814136
177	0x3cd6dc75	0.026228169
178	0x3bebe7bf	0.007199257
179	0xbd6831e6	-0.05668821
180	0xbd83f500	-0.064432144
181	0xbd0a31cb	-0.033738893
182	0xbd5bbca7	-0.05364671
183	0xbda2ce0d	-0.07949457
184	0x3d679e78	0.056547612
185	0x3ccc25bb	0.024920335
186	0x3d17a22f	0.037019905
187	0x3cdfd3b0	0.02732262
188	0x3be40e5b	0.006959719
189	0x3d079d8c	0.033109233
190	0xbd82c70c	-0.063856214
191	0x3d9977b0	0.07493532
192	0x3bfb13d4	0.007662276
193	0xbb0b71ac	-0.002127747
194	0x3d069a37	0.032861914
195	0x3c87fc20	0.016599715
196	0x3b8a4f3e	0.004220872
197	0x3c91dc6d	0.017805303
198	0xbd0cb87d	-0.03435563
199	0x3d00edfb	0.031476956
200	0x3bb9c8e8	0.005669702
201	0xbd976693	-0.07392611
202	0xbd95b939	-0.07310719
203	0xbd6b2613	-0.057409357
204	0x3c903afe	0.017606255
205	0xbd0b61ea	-0.034028925
206	0x3d29351a	0.041310407
207	0xbd0b5934	-0.034020618
208	0xbd5f169b	-0.054464918
209	0x3bb2e4d8	0.005459409
210	0xbc7fce68	-0.015613176
211	0xbd9a9b1e	-0.075491175
212	0xbd009bf4	-0.03139873
213	0x3b9d21fc	0.004795311
214	0x3cacea1e	0.02110773
215	0xbdbf7eff	-0.093503945
216	0xbd2ccec5	-0.04218938
217	0xbc85735a	-0.016290355
218	0xbd75ce70	-0.060011327
219	0xbdc371d9	-0.09543199
220	0x3d045048	0.032303125
221	0xbccad59f	-0.024760066
222	0x3c4d26b7	0.012521437
223	0xbc033e59	-0.00801047
224	0xbd52f488	-0.051502734
225	0xbda78cb7	-0.08181136
226	0xbbdbdbc3	-0.0067095472
227	0x3d88e167	0.06683617
228	0xbd84dff5	-0.06488029
229	0x3d122ce8	0.035687357
230	0x3d94d24f	0.07266676
231	0x3d9741ba	0.07385583
232	0xbd7a5b74	-0.061122373
233	0x3d75cc51	0.060009304
234	0xbd83e0de	-0.064393744
235	0xba6ccfce	-0.0009033651
236	0xbcfda9c0	-0.030964732
237	0x3da20519	0.079111286
238	0x3cf8cebf	0.030372022
239	0xbdda7591	-0.10666955
240	0xbd984f07	-0.07436948
241	0x3d95e11a	0.07318325
242	0x3d5ccd00	0.05390644
243	0xbc63176b	-0.013860564
244	0xbd74e3c3	-0.059787523
245	0xbdad9f35	-0.08477632
246	0x3d9337b4	0.07188359
247	0xbdab7e7b	-0.083737336
248	0xbbbaab0d	-0.0056966604
249	0x3d5bc57b	0.05365513
250	0xbd5f99b6	-0.05458995
251	0xbd0e07d4	-0.034675434
252	0x3d98bae6	0.07457523
253	0xbd118858	-0.03553042
254	0x3d9c0570	0.076182246
255	0x3c6814fd	0.01416516

lstm.bias_hh_l0 f4 [512]
0	0xbd19db61	-0.03756273
1	0x3cb53004	0.022117622
2	0xbd0ae2cd	-0.0339077
3	0xbc90c20a	-0.01767065
4	0x3d23b389	0.03996614
5	0xbd2a4308	-0.041567832
6	0x3d3cd2a2	0.046099313
7	0xbbea4a5a	-0.0071499767
8	0xbd9dd8f2	-0.07707395
9	0x39616abf	0.00021497438
10	0xbc3b371e	-0.011426715
11	0x3d801057	0.062531166
12	0x3dd68622	0.104748026
13	0x3c84b28f	0.016198425
14	0x3cf7a4a5	0.030229876
15	0x3d374013	0.04473884
16	0xbd03f2c1	-0.03221393
17	0x3da9a5ba	0.08283563
18	0xbd65116b	-0.055924814
19	0x3cd1ff33	0.025634384
20	0x3df9b466	0.121926114
21	0xbd8a385c	-0.06749031
22	0xbc597ce2	-0.013274403
23	0x3d4b7062	0.049667723
24	0x3d63b25c	0.05559002
25	0x3d4975d5	0.04918464
26	0x3d01548a	0.031574763
27	0x3da8e676	0.08247082
28	0x3df561b9	0.1198153
29	0x3c8d6b80	0.017263174
30	0x3db5d20e	0.088779554
31	0x3d4f8d4a	0.050671853
32	0x3d741e0c	0.059598967
33	0xbd75b3f4	-0.05998607
34	0x3c318cd7	0.0108368015
35	0x3b13c4bc	0.0022547683
36	0xbda468ec	-0.08027825
37	0xbd7a9b32	-0.061183162
38	0x3dc557ce	0.09635888
39	0x3d4431f1	0.04789919
40	0xbdb81fd5	-0.089904465
41	0xb90ba3ee	-0.00013317142
42	0x3ad46229	0.001620357
43	0x3d4ebd2d	0.05047338
44	0x3d1458d1	0.036217514
45	0xbabd56fd	-0.001444548
46	0xbd4d8129	-0.050172005
47	0x3ddb5bd2	0.10710873
48	0xbacc006b	-0.0015564089
49	0x3e0f366a	0.13985601
50	0xbcc9bdee	-0.024626698
51	0x3c630ebe	0.013858495
52	0x3dbdbea1	0.09264875
53	0x3d343664	0.043997183
54	0x3c9b4d7d	0.018957848
55	0x3cc8401b	0.02444463
56	0xbabe76b0	-0.0014531221
57	0xbd62ac43	-0.055340063
58	0x3dae173a	0.08500524
59	0x3c8261e5	0.01591582
60	0x3cea0645	0.028567443
61	0xbd17c870	-0.037056386
62	0x3dc29900	0.09501839
63	0xbcf23ba2	-0.02956945
64	0xbd7bf1c3	-0.06150986
65	0xbcbd7207	-0.023125662
66	0xbd1bd416	-0.038044058
67	0x3d548722	0.051886685
68	0x3e099a96	0.13437876
69	0xbd727bdf	-0.059200164
70	0x3b2ead51	0.0026653598
71	0xbc895478	-0.01676391
72	0xbd9b023d	-0.07568786
73	0xbd74f9b3	-0.059808444
74	0xbda6f790	-0.081526875
75	0x3e5a40f6	0.21313843
76	0x3d59ae89	0.053144965
77	0x3d7cc917	0.06171521
78	0x3def1b02	0.11675073
79	0x3c7faaaa	0.015604654
80	0x3c8f71d8	0.01751034
81	0x3cee25b8	0.02907072
82	0xbcdceb81	-0.026967766
83	0x3d7330c4	0.05937268
84	0x3af5c7e3	0.0018751587
85	0x3d541de6	0.051786326
86	0x3e17d901	0.14828874
87	0xbccea7e4	-0.02522654
88	0x3d516a6b	0.05112688
89	0xbd4943c9	-0.04913691
90	0xbd77507a	-0.060379483
91	0xbd9506c9	-0.07276685
92	0xbc4c0bb2	-0.01245396
93	0x3dc17635	0.09446374
94	0x3d3b6c34	0.045757487
95	0xbcca381b	-0.024684956
96	0x3deb7dcf	0.114986055
97	0xbc99375d	-0.018703157
98	0xbd787ef9	-0.060667966
99	0x3d37baa8	0.044855744
100	0x3d4eb58b	0.0504661
101	0x3c09faa3	0.008421573
102	0x3d89674d	0.06709156
103	0xbd1804c5	-0.037113924
104	0x3c945f79	0.018111931
105	0x3d9ee242	0.07757999
106	0xbd45681a	-0.048194982
107	0x3e010620	0.12599993
108	0xbd162d37	-0.036664214
109	0x3dc19eb5	0.09454099
110	0xbd47a538	-0.04874155
111	0x3e1465c6	0.14491948
112	0xbc1c281f	-0.00953105
113	0x3e8c66e3	0.27422246
114	0x3d900a82	0.07033254
115	0x3d125255	0.03572305
116	0xbda4e329	-0.0805114
117	0x3c80f4c7	0.015741719
118	0x3d75ea30	0.06003779
119	0x3d64b8b3	0.055840205
120	0xbcf108ae	-0.029423084
121	0xbd065131	-0.032792274
122	0x3db65c91	0.089043744
123	0xbb97da42	-0.0046341727
124	0xbc661d0c	-0.014045011
125	0xbd3f3230	-0.046678722
126	0xbcb180ed	-0.021667922
127	0x3dd07016	0.10177629
128	0x3d9a265b	0.07526847
129	0xbc2fb1fe	-0.010723589
130	0x3baa08a6	0.0051890193
131	0xbb98e782	-0.0046662698
132	0xbdadc8bf	-0.08485555
133	0x3d15a496	0.036533915
134	0xbbdbb907	-0.0067054066
135	0x3cef5488	0.029215112
136	0xbd67b76f	-0.05657142
137	0x3dd5d170	0.10440338
138	0x3d9194ae	0.071084365
139	0x3b1c6275	0.0023862396
140	0xbd5e17bc	-0.054221854
141	0xbdad67c8	-0.0846706
142	0xbd8106b7	-0.06300109
143	0x3d116315	0.035494883
144	0x3d9920ce	0.0747696
145	0xbbe46fe1	-0.006971345
146	0xbd91478a	-0.07093723
147	0x3d777b4f	0.06042033
148	0x3de1a9d8	0.11018723
149	0xbdc39b85	-0.09551147
150	0x3d24e3c2	0.04025627
151	0xbc8377ff	-0.01604843
152	0x3d2587e5	0.040412802
153	0x3d9288b8	0.07154983
154	0x3d02b6ec	0.03191273
155	0x3cd003c6	0.025392424
156	0x3db098d0	0.08622897
157	0xbc52e6d3	-0.012872416
158	0xbca1c887	-0.01974894
159	0x3d299435	0.041401107
160	0x3af3ff47	0.0018615507
161	0x3c3c3a32	0.011488484
162	0x3d9f59e9	0.07780821
163	0x3d6eb18f	0.0582748
164	0xbd9002e5	-0.07031802
165	0x3da92290	0.082585454
166	0x3cd15a0c	0.025555633
167	0xbd2a9a9c	-0.041651353
168	0xbdc10928	-0.094255745
169	0xbd5a9d0a	-0.05337242
170	0x3d58c4a7	0.052921917
171	0x3d526198	0.051362604
172	0x3d00627f	0.031343933
173	0xbd483af3	-0.048884343
174	0x3d1ea037	0.03872701
175	0xbd6f855b	-0.058476787
176	0x3d1ccf99	0.038283918
177	0x3d484858	0.048897117
178	0xbd2e15e5	-0.04250135
179	0xbcc6306f	-0.024193017
180	0xbb0dfde5	-0.0021666226
181	0xbd7ff9e8	-0.06249419
182	0xbdac14e1	-0.0840242
183	0x3c478f72	0.012180196
184	0x3d1620ae	0.03665226
185	0x3ceaa13f	0.028641341
186	0xbd90390a	-0.07042129
187	0xbcc51d2c	-0.024061762
188	0x3c7e060d	0.015504372
189	0x3cb16f57	0.021659536
190	0xbcc927f5	-0.024555186
191	0x3d0da88d	0.03458457
192	0x3b38152b	0.002808879
193	0xbdb98c1f	-0.09059929
194	0xbd601ec6	-0.054716848
195	0x3d9214a9	0.07132847
196	0xbca08fe7	-0.019599868
197	0x3c204d6d	0.009784085
198	0x3b903005	0.0044002556
199	0xbc09714f	-0.008388831
200	0x3c17976e	0.009252412
201	0xbac1c655	-0.0014783839
202	0x3d8c967b	0.06864639
203	0x3d9fc3b8	0.07801002
204	0xbc17acc6	-0.009257501
205	0x3ce29756	0.027660053
206	0xbdb296af	-0.08720147
207	0x3c810d93	0.015753543
208	0x3cdd3b43	0.027005797
209	0x3cbf7d28	0.023375109
210	0xbd4278e2	-0.047478564
211	0xbd439f4b	-0.047759335
212	0x3d86acfb	0.06575962
213	0x3cb4ca90	0.022069246
214	0xbd888cf1	-0.066675074
215	0xbdbda46a	-0.09259875
216	0x3dbc590c	0.09196672
217	0x3d0011b5	0.031266887
218	0x3d176626	0.03696265
219	0xbd1f1cc8	-0.038845807
220	0xbd5d3c15	-0.054012377
221	0x3d38ac62	0.045086272
222	0xbd8a4f51	-0.0675341
223	0x3cf87550	0.030329376
224	0xbcdee918	-0.027210757
225	0x3d49a916	0.04923352
226	0xbcad0cfa	-0.021124352
227	0xbd994096	-0.07483022
228	0x3d356dda	0.044294216
229	0x3d30ccf8	0.043164223
230	0xbd5eeae8	-0.054423243
231	0x3daf802a	0.08569367
232	0x3cca912d	0.024727428
233	0x3da09683	0.07841208
234	0x3d92759c	0.071513385
235	0x3d8acee1	0.0677774
236	0xbcf1fd24	-0.029539652
237	0x3db63ad8	0.08897942
238	0x3d6c65f1	0.057714406
239	0xbcabf7ab	-0.02099212
240	0xbcd90a39	-0.026494132
241	0xbda1248f	-0.07868301
242	0xbd289399	-0.041156385
243	0xbb51d97b	-0.0032020498
244	0x3d93c9f8	0.07216257
245	0xbd710e74	-0.058851674
246	0x3d73ee9b	0.059553724
247	0x3db4346d	0.08799062
248	0x3d402fae	0.04692047
249	0xbd920169	-0.07129175
250	0xbd65889b	-0.05603848
251	0xbcc7276b	-0.024310788
252	0x3c834929	0.016026096
253	0x3d8ee396	0.06977002
254	0xbc96302d	-0.018333519
255	0x3c85f532	0.01635227

lstm.weight_ih_l1 f4 [512, 128]
0	0xbda4e298	-0.08051032
1	0x3c7bcc85	0.0153685855
2	0xbcea35bd	-0.028590078
3	0xbc5a3be1	-0.01331994
4	0x3c790802	0.015199663
5	0x3d4a36b9	0.049368594
6	0xbd85e55a	-0.06537886
7	0xbd00fd0a	-0.031491317
8	0xbd6124b9	-0.054966662
9	0x3c708628	0.014680423
10	0x3b4a84be	0.0030901874
11	0xbd490601	-0.04907799
12	0x3bd48ed5	0.0064867535
13	0x3d940076	0.072266504
14	0x3c56ac8d	0.013102663
15	0x3cec43d7	0.028840942
16	0xbd8c9278	-0.06863874
17	0xbb46ec29	-0.0030353165
18	0xbc9c720b	-0.019097349
19	0x3d13bb22	0.036067136
20	0xbcb50246	-0.02209581
21	0x3d7401ba	0.05957196
22	0x3aeff799	0.0018308043
23	0xbd1e47cc	-0.03864269
24	0x3db91613	0.090374134
25	0xbd9d35a0	-0.07676244
26	0xbda0c9ae	-0.07850967
27	0xbc209e3b	-0.00980335
28	0xbd0f3995	-0.034967024
29	0xbc012ec9	-0.00788469
30	0xbd0841ca	-0.033265866
31	0xbcabd680	-0.020976305
32	0x3d4ef023	0.05052198
33	0x3aae88eb	0.0013315951
34	0xbda635e0	-0.081157446
35	0x3da82ceb	0.082116924
36	0x3d07971b	0.03310309
37	0x3da01b36	0.0781769
38	0xbce1df2a	-0.027572233
39	0x3dca7387	0.09885316
40	0x3dc51aa6	0.096242234
41	0x3b283b82	0.0025670235
42	0x3c854734	0.016269304
43	0xbd96a2da	-0.0735528
44	0xbd21b6a7	-0.03948083
45	0xbdba28f8	-0.090898454
46	0x3cb4f2cb	0.022088429
47	0xbcb6bd24	-0.022306986
48	0x3d13f11c	0.03611861
49	0x3e07aba6	0.13249072
50	0x3b63c1fc	0.0034753075
51	0xbd685bd1	-0.056728188
52	0x3d579326	0.052630566
53	0xbc7f627e	-0.015587447
54	0x3bad2c2c	0.0052848067
55	0x3dc08877	0.094010286
56	0x3d06bfe7	0.032897856
57	0xbd56f418	-0.05247888
58	0x3c1fcb3b	0.009753044
59	0xbd48453b	-0.04889415
60	0x3dc78b98	0.09743422
61	0xbd4d50c9	-0.05012587
62	0xbb7c6f4e	-0.0038518491
63	0xbd06c4f1	-0.03290266
64	0x3c8dfbbc	0.01733195
65	0x3d0d22e6	0.03445711
66	0x3cb53399	0.02211933
67	0xbd2e512f	-0.04255789
68	0x3d7f8e23	0.06239141
69	0xbc7da237	-0.01548057
70	0xbd2bbf05	-0.041930217
71	0x3c128a90	0.008944169
72	0xbb015cca	-0.0019739144
73	0x3c67ddd5	0.01415201
74	0xbbdfded4	-0.006831983
75	0x3bf15649	0.0073650223
76	0xbcc301d9	-0.023804592
77	0xbdbbe7da	-0.091750816
78	0xbdc38539	-0.095468946
79	0x3cca7495	0.024713794
80	0xbd97b4cc	-0.07407531
81	0x3d1912be	0.03737139
82	0xbda0ac02	-0.07845308
83	0xbdb0eec7	-0.08639293
84	0x3cd4c2d5	0.02597181
85	0x3d5ca72d	0.05387037
86	0xbd986f59	-0.07443113
87	0x3d879d1f	0.06621765
88	0x3c981278	0.018563494
89	0x3c3151ac	0.010822695
90	0xbcd4f45f	-0.025995431
91	0x3c5bc9e7	0.0134148365
92	0x3d7b7775	0.06139322
93	0xbc26bd0c	-0.010176908
94	0xbd1fe138	-0.039033145
95	0x3da4cd54	0.08046976
96	0xbcd59b38	-0.02607499
97	0x3dc2d6d2	0.0951363
98	0xbd699427	-0.057026055
99	0x3d2d2dd0	0.04228002
100	0xbd072441	-0.03299356
101	0x3d8be8b5	0.06831495
102	0x3dabcf8f	0.08389198
103	0x3d1eca9c	0.038767442
104	0xbdacd310	-0.084386945
105	0xbb871cf2	-0.0041233236
106	0xbd2f8821	-0.042854432
107	0x3cc5e541	0.024157168
108	0x3da5bfb7	0.08093207
109	0xbd7ea4db	-0.062168937
110	0x3c631447	0.013859815
111	0x3d95b7a9	0.07310421
112	0xbc5754a3	-0.013142738
113	0x3d77211f	0.06033432
114	0xbc3916b4	-0.011296917
115	0xbc970343	-0.018434172
116	0x3dd7fa8a	0.105458334
117	0x3cf6ed31	0.030142399
118	0xbd546028	-0.051849514
119	0xbd21d414	-0.039508894
120	0x3cda58df	0.026653705
121	0x3d645b8f	0.05575138
122	0xbbf14794	-0.007363269
123	0x3db0c6c7	0.08631664
124	0x3df527fa	0.119705155
125	0x3d2ae7a3	0.041724812
126	0xbd73e35f	-0.05954301
127	0xbd9dd32f	-0.07706296
128	0xbd6094f3	-0.05482955
129	0xbd6e1855	-0.058128674
130	0xbab24392	-0.001360046
131	0x3d4a90a0	0.04945433
132	0x3cdf4116	0.027252715
133	0x3c34ce72	0.0110355485
134	0x3bc220f1	0.005924337
135	0xbc517a13	-0.012785452
136	0xbce83446	-0.028345238
137	0x3aeee041	0.0018224792
138	0xbd451930	-0.048119724
139	0x3aaed39b	0.001333821
140	0xbc892efe	-0.01674604
141	0xbd898992	-0.067156926
142	0xbd27af1e	-0.04093849
143	0x3d878b80	0.066184044
144	0x3d2b0138	0.04174921
145	0xbd190403	-0.03735734
146	0x3b84b3cc	0.004049754
147	0x3d77abe0	0.060466647
148	0xbb716ec1	-0.0036839696
149	0xbd9798fb	-0.074022256
150	0xbd59542a	-0.05305878
151	0xbd165014	-0.036697462
152	0xbcb02d38	-0.021505937
153	0xbda19288	-0.07889277
154	0xbd8db303	-0.069189094
155	0x3cc282cf	0.023744015
156	0x3cf44453	0.029817736
157	0x3c56e8f3	0.013117063
158	0xbba48671	-0.0050209095
159	0xbd68e616	-0.056860052
160	0x3d6dfab1	0.058100406
161	0xbd9070e0	-0.07052779
162	0x3ce382c5	0.027772317
163	0x3d0a67c7	0.033790376
164	0xbd7647f9	-0.060127232
165	0x3cb77b0f	0.022397546
166	0xbda1c18b	-0.078982435
167	0xbdcb1691	-0.099164136
168	0x3bd1d6c6	0.006403777
169	0x3d218103	0.039429676
170	0xbdb04152	-0.08606209
171	0x3d29043d	0.041263808
172	0x3b5c589c	0.0033622151
173	0xbceb6778	-0.028735861
174	0x3d79082b	0.060798805
175	0x3d8bb792	0.06822123
176	0xbd151c2d	-0.036403824
177	0x3bfeef83	0.007780017
178	0xbc802712	-0.01564363
179	0x3db73195	0.08945004
180	0xbda937d0	-0.082625985
181	0x3d9377f4	0.072006136
182	0xbdb02354	-0.08600488
183	0xbda3ce24	-0.079983026
184	0x3d3c44d5	0.04596408
185	0x3d056961	0.0325712
186	0xbdcdac83	-0.100426696
187	0xbd82cb1a	-0.06386395
188	0xbd7dea39	-0.06199095
189	0x391595bc	0.00014265528
190	0x3cdf57fe	0.027263638
191	0x3d116ea5	0.03550591
192	0xbcfa6fad	-0.03057083
193	0x3cf34f45	0.029700885
194	0xbcc4c680	-0.024020433
195	0x3ca02d50	0.019552857
196	0xbc86bb6d	-0.016446793
197	0x3d246462	0.040134795
198	0xbd9a58fa	-0.07536502
199	0xbcc7ad6c	-0.024374686
200	0x3bef6fec	0.0073070433
201	0x3da85f47	0.08221298
202	0x3d5c7701	0.05382443
203	0xbd27b2d0	-0.040942013
204	0x3d3c4091	0.045960013
205	0x3d1b4372	0.037906118
206	0xbcb22c69	-0.021749692
207	0xbd5c6128	-0.053803593
208	0xbcf57831	-0.029964538
209	0xbda969b0	-0.082721114
210	0xbc7dc210	-0.015488163
211	0xbd7a9d93	-0.06118543
212	0x3d2c7c34	0.042110637
213	0xbd8e6e7a	-0.069546655
214	0xbdde2d5b	-0.108484946
215	0x3d1a9346	0.037738107
216	0xbd3f4a45	-0.04670169
217	0xbda842af	-0.08215844
218	0xbd727e14	-0.05920227
219	0x3dc7307b	0.09726044
220	0xbcba0015	-0.022705117
221	0x3d9af147	0.07565551
222	0x3d48e902	0.04905034
223	0xbd939a99	-0.072072215
224	0x3bf0844b	0.0073399893
225	0xbd1dc502	-0.03851796
226	0x3d0e6d2b	0.03477208
227	0xbd633984	-0.055474773
228	0x3d8e0c74	0.06935969
229	0x3c092abc	0.008372005
230	0xbd3ce21f	-0.046114083
231	0x3d9567a7	0.07295161
232	0xbc7da533	-0.015481281
233	0xbd59258c	-0.053014323
234	0x3dbc9921	0.092088945
235	0x3d8f2a1f	0.06990456
236	0x3c746d4f	0.014918639
237	0xbd740db2	-0.059583373
238	0x3cce0532	0.025148962
239	0xbd87bbbb	-0.066276036
240	0x3ca274de	0.019831117
241	0x3e29e5da	0.16591588
242	0x3c461ace	0.012091352
243	0x3d87dec5	0.06634287
244	0x3d9ee70c	0.077589124
245	0xbd91e568	-0.07123834
246	0x3d26fc29	0.040767822
247	0xbd75a2ca	-0.0599697
248	0x3d06cea7	0.032911923
249	0xbd6bc8f3	-0.057564687
250	0x3d9c61d6	0.07635848
251	0xbd8c4391	-0.06848825
252	0xbc91650b	-0.017748376
253	0x3c33d71b	0.010976578
254	0x3be8e5f5	0.007107491
255	0x3cb4c8a1	0.022068324

lstm.weight_hh_l1 f4 [512, 128]
0	0x3db8550f	0.09000599
1	0x3d6ef75f	0.05834138
2	0x3d8ea10a	0.069643095
3	0xbdad4c2a	-0.08461793
4	0xbda7cc9a	-0.081933215
5	0x3e09d9fc	0.1346206
6	0x3dbbcc0a	0.09169777
7	0xbd539b33	-0.05166168
8	0x3d0505ff	0.03247642
9	0x3ce877fd	0.028377527
10	0xbc9a56c9	-0.01884021
11	0xbb92e215	-0.0044825175
12	0xbd645651	-0.05574638
13	0xbc3b19ae	-0.011419697
14	0x395c1d17	0.00020991672
15	0xbdaf58e3	-0.08561876
16	0x3da21b67	0.07915383
17	0xbbd4693f	-0.006482273
18	0x3c21cbff	0.009875297
19	0x3db98eaf	0.09060418
20	0x3d311001	0.043228153
21	0xbdc77c61	-0.0974052
22	0x3d9df56a	0.07712825
23	0xbd0578ec	-0.032586023
24	0x3dc79cb5	0.09746686
25	0x3d48c3c5	0.049014825
26	0x3d545a9e	0.05184423
27	0xbc1ed413	-0.009694117
28	0xbdbe9e9c	-0.09307596
29	0x3d88d27b	0.06680771
30	0x3cd87fd1	0.026428135
31	0xbd5695c7	-0.052388933
32	0xba23f8f5	-0.0006255054
33	0x3d2c9449	0.042133603
34	0x3d01e606	0.031713508
35	0x3da6cd26	0.08144598
36	0xbd8d0922	-0.068865076
37	0x3d547360	0.051867843
38	0xbd9995ce	-0.07499276
39	0xbd5b4a26	-0.05353751
40	0x3d9e5611	0.077312596
41	0x3d911454	0.070839554
42	0x3d9ef5c2	0.07761718
43	0xbd3f9484	-0.046772495
44	0x3d098be8	0.03358069
45	0xbd22e291	-0.03976685
46	0x3dc5cb82	0.09657957
47	0xbd2e3395	-0.04252966
48	0xbd9496ff	-0.07255363
49	0x3d0b0ea6	0.033949517
50	0xbc9b367a	-0.018946875
51	0xbc56c185	-0.013107662
52	0x3d02c259	0.031923626
53	0x3d07135b	0.032977443
54	0xbcdafe0a	-0.026732463
55	0xbd543cfa	-0.051815964
56	0x3d12b4fd	0.035817135
57	0x3d3d3f4a	0.046202935
58	0x3d18b00d	0.03727727
59	0x3c671fca	0.0141067
60	0xbc8c04b7	-0.017092092
61	0x3dd2f1f4	0.10300055
62	0x3c82470a	0.015903015
63	0xbdb6f60d	-0.08933649
64	0xbdc452b1	-0.09586085
65	0x3d808b24	0.06276539
66	0xbb70e3d7	-0.0036756897
67	0x3d01e685	0.03171398
68	0x3d00d3d4	0.031452015
69	0x3bb9ae42	0.005666525
70	0xbd8fa67f	-0.070141785
71	0x3d285042	0.041092165
72	0x3d3473ff	0.044055935
73	0xbc55b150	-0.013042763
74	0x3d49cd1c	0.049267873
75	0xbcbe0c2b	-0.023199162
76	0xbda6be92	-0.08141817
77	0x3d05344e	0.032520585
78	0x3d837760	0.06419253
79	0x3d5c1e26	0.05373969
80	0x3d95937e	0.073035225
81	0x3cac1d75	0.02101014
82	0x3db4604a	0.08807428
83	0xbd10b5c4	-0.035329595
84	0xbc8f47c4	-0.017490275
85	0xbc79bab8	-0.015242271
86	0x3d155b8c	0.03646426
87	0x3cfc4f50	0.030799538
88	0x3db86bd0	0.090049386
89	0x3cbf873b	0.023379913
90	0x3d2ff28b	0.042955916
91	0x3d4fed0f	0.050763186
92	0x3d3ca941	0.04605985
93	0xbce1fdb2	-0.027586792
94	0xbd973a6e	-0.073841915
95	0xbd2a1178	-0.041520566
96	0x3dafcf21	0.085844286
97	0x3dae0ca4	0.08498505
98	0x3d691ee2	0.056914218
99	0x3d69746c	0.056995794
100	0xbc2c8788	-0.01053036
101	0x3d608bfc	0.054821
102	0x3c32fc6b	0.010924439
103	0x3d20e6a8	0.03928247
104	0xbd64494d	-0.055733968
105	0x3cd4216b	0.025894841
106	0xbd5a33f6	-0.05327221
107	0xbd802d0d	-0.06258593
108	0x3ce1cac7	0.027562512
109	0xbdbfd765	-0.09367255
110	0x3c166f4b	0.009181808
111	0x3d8967b7	0.06709235
112	0xbd45eec9	-0.048323426
113	0x3d9602f6	0.073247835
114	0x3dc48d29	0.09597237
115	0xbcf3deb9	-0.029769288
116	0xbc4a68bc	-0.012354072
117	0xbe0521d5	-0.13001187
118	0x3db2fe51	0.08739913
119	0x3d7dd70d	0.061972667
120	0xbc888837	-0.016666515
121	0x3ccc6d44	0.024954446
122	0xba0b19f3	-0.0005306296
123	0x3d816a5f	0.06319117
124	0x3ccf2efc	0.025290959
125	0x3d59e764	0.053199187
126	0x3c873ce0	0.01650852
127	0xbceaa95a	-0.028645206
128	0x3da163e3	0.0788038
129	0xbcea2b29	-0.028585033
130	0x3d7d5a77	0.061853852
131	0xbd5e1851	-0.05422241
132	0x3e028a75	0.1274813
133	0xbda7fd73	-0.082026385
134	0x3dbb23d1	0.09137691
135	0x3d4f39d7	0.05059227
136	0x39b29886	0.00034064444
137	0x3d378fdb	0.044814926
138	0x3d342327	0.043978836
139	0xbc3cf679	-0.011533373
140	0x3d0c01da	0.034181453
141	0xbcaf89f4	-0.021428086
142	0x3d007663	0.031362902
143	0x3dc42606	0.09577565
144	0xbce94f89	-0.028480308
145	0x3b03409e	0.0020027529
146	0x3dbacf00	0.09121513
147	0x3d378d7b	0.04481266
148	0x3db1e5ab	0.08686384
149	0xbcdf245d	-0.027239019
150	0xbbd89e7a	-0.0066106888
151	0x3cddb990	0.027066022
152	0xbd90b8b6	-0.07066481
153	0x3d71828b	0.058962386
154	0xbde4805b	-0.11157294
155	0xbca51bcb	-0.020154854
156	0xbd1b03bd	-0.037845362
157	0x3d18d37e	0.03731107
158	0x3cdca171	0.02693245
159	0xbd95dedf	-0.073179
160	0xbcc7b2a3	-0.024377173
161	0x3c592964	0.013254497
162	0xbe01ce28	-0.12676299
163	0x3d9aeef0	0.07565105
164	0xbd67a75b	-0.056556087
165	0x3b50c064	0.0031852955
166	0x3cbd710c	0.023125194
167	0xbd65bea2	-0.056090005
168	0x3d6fc0aa	0.05853335
169	0xbcacf650	-0.021113545
170	0x3c5f869b	0.013642932
171	0xbd0b68f9	-0.034035657
172	0xbc67f3b4	-0.014157224
173	0x3bcd1e5a	0.0062597217
174	0x3dab1908	0.08354384
175	0x3c0baff1	0.008525834
176	0xbcf4e602	-0.029894833
177	0xbb89796f	-0.004195384
178	0xbd97514d	-0.07388554
179	0x3cbf3873	0.023342347
180	0x3d8ffb9d	0.07030413
181	0xbd510375	-0.051028688
182	0xbd6dd8f9	-0.05806825
183	0x3da2eea8	0.07955676
184	0xbd847469	-0.06467516
185	0xbc50c4f0	-0.012742266
186	0x3cea1539	0.028574573
187	0xbd554abb	-0.05207322
188	0xbca69b40	-0.0203377
189	0xbd1b0b84	-0.03785278
190	0x3d807472	0.0627221
191	0x3dfc5e7b	0.12322708
192	0x3cfa6f98	0.03057079
193	0xbd0980de	-0.033570163
194	0xbb9218db	-0.0044585294
195	0xbd8b944e	-0.06815396
196	0x3d816ca6	0.06319551
197	0x3bd5a889	0.006520335
198	0xbdacbdaf	-0.08434617
199	0xbd82ee12	-0.063930646
200	0xbc49b6c7	-0.012311644
201	0xbd2d1549	-0.042256627
202	0x3cad68ce	0.021168139
203	0x3d9c5833	0.0763401
204	0x3d06a26a	0.032869734
205	0xbda83db4	-0.08214894
206	0xbd22b109	-0.039719615
207	0xbd480abd	-0.048838366
208	0xba89b780	-0.0010506958
209	0x3d4822d1	0.04886133
210	0xbd6791c2	-0.05653549
211	0xbd60e9fa	-0.054910637
212	0xbcf5e809	-0.03001787
213	0xbcc62faa	-0.02419265
214	0x3ca10cc8	0.019659415
215	0x3cd91f28	0.026504114
216	0x3bc4b19f	0.0060026194
217	0xbd88a12e	-0.066713676
218	0xba3bec42	-0.0007168689
219	0xbbd78e8e	-0.006578273
220	0xbddbd36d	-0.10733686
221	0xbd52c2b1	-0.051455203
222	0xbd8f6903	-0.07002451
223	0x3d571909	0.05251411
224	0x3e00cf70	0.12579131
225	0x3dc033b2	0.0938486
226	0x3db8fd62	0.09032704
227	0x3d0e180d	0.034690905
228	0x3d8079a0	0.06273198
229	0x3c3a91c5	0.011387293
230	0x3d9ab028	0.075531304
231	0xbc728f0f	-0.014804616
232	0xbca4827f	-0.020081757
233	0x3d1ddcc3	0.038540613
234	0xbda92af5	-0.082601465
235	0xbd40562e	-0.046957187
236	0xbc638fa5	-0.013889228
237	0xbd97033e	-0.07373665
238	0x3da46b3f	0.08028268
239	0xbca1365e	-0.019679245
240	0x3d6579c4	0.056024328
241	0xbd38b669	-0.045095835
242	0x3cda4f2f	0.026649086
243	0xbd9ca1a3	-0.07648017
244	0xbd2742a0	-0.040835023
245	0xbb8a292d	-0.0042163343
246	0xbd083566	-0.03325405
247	0xbca1a6ee	-0.019732919
248	0xbda24f87	-0.07925325
249	0xbcb735eb	-0.022364577
250	0xbb3ced6a	-0.0028828033
251	0x3d8fdb46	0.07024245
252	0xbb99e1b3	-0.004696095
253	0x3d2e92c4	0.042620435
254	0x3d917985	0.07103256
255	0x3da7bf97	0.0819084

lstm.bias_ih_l1 f4 [512]
0	0xbc264af5	-0.010149707
1	0xbd8d2ff3	-0.06893911
2	0xbd5e474b	-0.05426721
3	0x3dade7f0	0.08491504
4	0x3c65eb2d	0.014033121
5	0xbc633fd9	-0.013870203
6	0x3d02df25	0.03195109
7	0x3cc26ee6	0.023734521
8	0x3c979543	0.01850379
9	0x3d927181	0.071505554
10	0xbce517a1	-0.027965369
11	0xbd95e478	-0.073189676
12	0xbd3f22fb	-0.04666422
13	0xbcfd5260	-0.030923069
14	0x3da5c7d2	0.08094753
15	0x3a565f21	0.00081776275
16	0xbd59bb76	-0.053157292
17	0x3b86c0f0	0.0041123554
18	0xbc1ced82	-0.009578111
19	0xbdd13908	-0.10215956
20	0xbd87d2ca	-0.06632002
21	0x3d427a54	0.047479942
22	0x3d980aa3	0.07423904
23	0xbd197256	-0.037462555
24	0x3bee195c	0.0072662067
25	0x3d2f7470	0.042835653
26	0x3d703513	0.058644366
27	0xbd57ce7b	-0.05268715
28	0x3d250f20	0.040297627
29	0x3b93befb	0.0045088506
30	0x3cf09a50	0.029370457
31	0xbd896e13	-0.06710448
32	0x3c99efd7	0.018791122
33	0x3b9731dc	0.004614098
34	0xbd09aeb5	-0.03361388
35	0x3cf23d48	0.029570237
36	0xbd0f167e	-0.03493356
37	0x3d1ed1ea	0.03877441
38	0xbd9a9653	-0.07548203
39	0xbdc8ef6b	-0.0981129
40	0xbc8ee3c5	-0.017442593
41	0xbd11ccc6	-0.035595678
42	0xbdc13590	-0.09434044
43	0xbcc8271a	-0.024432708
44	0xbcc7d63d	-0.024394149
45	0xbbbbabf0	-0.0057272837
46	0xbce236c2	-0.027614001
47	0xbbc293d0	-0.005938031
48	0xbb41fd93	-0.0029600605
49	0xbc984e56	-0.018592041
50	0x3d0f36a1	0.034964208
51	0xbc7605cf	-0.015016033
52	0xbd914659	-0.07093496
53	0x3c003130	0.007824227
54	0xbbe56bc2	-0.007001371
55	0xbccbca5c	-0.024876766
56	0x3d2f94c1	0.042866472
57	0xbcc18066	-0.023620795
58	0xbdd63546	-0.1045938
59	0xbdb10e4a	-0.086453035
60	0xbd459cf0	-0.04824537
61	0x3c3c84f9	0.0115063125
62	0xbbe9c35d	-0.007133885
63	0x3d96c8c5	0.073625125
64	0x3d80996c	0.06279263
65	0xbdb3b086	-0.087739035
66	0x3d23e39b	0.040011983
67	0x3d8ec7ab	0.069716774
68	0x3cbf65a6	0.0233639
69	0x3d2d75c4	0.04234864
70	0xbd58174c	-0.052756593
71	0x3b4bc3e7	0.0031092109
72	0xbd8df3ee	-0.069312915
73	0xbd4a39a0	-0.04937136
74	0x3d040663	0.032232653
75	0x3d8df728	0.06931907
76	0x3c202bb4	0.009776045
77	0xbd906634	-0.07050744
78	0xbd0e020d	-0.034669925
79	0xbcb4722e	-0.022027101
80	0x3d35f362	0.04442156
81	0x3d7119ff	0.058862682
82	0xbd08c952	-0.03339512
83	0xbd380cf3	-0.044934224
84	0x3d572f1f	0.052535173
85	0xbd65edf5	-0.056135137
86	0xbd5fc60b	-0.054632228
87	0x3d5176da	0.051138736
88	0x3d99ab47	0.07503372
89	0x3cdf2c61	0.027242841
90	0xbdb26f60	-0.08712649
91	0x3d1e290f	0.038613375
92	0xbd2ad56e	-0.04170745
93	0xbd3b9581	-0.045796875
94	0x3d80b588	0.06284624
95	0xbdad2556	-0.08454387
96	0x3da783ac	0.08179411
97	0xbd1b2e5f	-0.03788602
98	0xbcdaeff2	-0.026725743
99	0x3d19a4b1	0.037510578
100	0x3d6c9a7b	0.05776451
101	0xbcf1df3c	-0.029525392
102	0x3d16cfac	0.036819145
103	0xbcdb0132	-0.026733968
104	0xbdb080f8	-0.08618349
105	0x3d9245a4	0.07142189
106	0x3c962d5d	0.018332178
107	0xbcf5b4b6	-0.029993396
108	0xbd85babf	-0.065297596
109	0x3cd00158	0.025391266
110	0xbc9d5c96	-0.019209187
111	0x3d6cf304	0.057848945
112	0x3c46f2eb	0.012142877
113	0xbd1836c5	-0.037161607
114	0xbcd9c64e	-0.026583817
115	0x3d9c8fde	0.07644628
116	0xbd5be1b5	-0.053682048
117	0x3e020159	0.12695827
118	0x3dfea5ef	0.12433993
119	0xbcb86fe3	-0.02251429
120	0x3d1b1240	0.0378592
121	0xbdac45b5	-0.08411733
122	0xbc8110ad	-0.015755022
123	0xbdb704c5	-0.089364566
124	0xbcf0c8ab	-0.029392561
125	0x3d59ae5d	0.0531448
126	0x3d9cbc3b	0.076530896
127	0xbd435ae2	-0.047694094
128	0x3d8bd058	0.06826848
129	0xbd48c931	-0.049019996
130	0xbd0f0ad6	-0.034922443
131	0x3d170fa1	0.03688014
132	0x3d23fb83	0.040034782
133	0xbcc6aaf6	-0.024251442
134	0xbc3bd559	-0.01146444
135	0xbdabf196	-0.08395688
136	0xbdb6a47a	-0.0891809
137	0x3c9448f9	0.018101202
138	0x3d851342	0.06497814
139	0x3cba2770	0.022723883
140	0x3daafd99	0.08349151
141	0xbdac80c4	-0.084229976
142	0xbd5bfe69	-0.05370942
143	0x3d8d33ac	0.06894621
144	0x3d8eae9d	0.069668986
145	0x3d9bfe2a	0.07616837
146	0xbd64b3b7	-0.055835452
147	0xbdb2218e	-0.08697806
148	0x3c236104	0.009971861
149	0x3d5c8a8a	0.05384306
150	0x3d328f28	0.043593556
151	0xbdb2358e	-0.08701621
152	0x3d58d087	0.052933242
153	0x3d3e78b2	0.046501823
154	0xbc864d55	-0.016394297
155	0xbd053592	-0.03252179
156	0x3c741f52	0.0149000455
157	0x3cf03952	0.029324207
158	0xbd170daf	-0.036878284
159	0xbd305ee1	-0.043059234
160	0x3d31b9d3	0.043390106
161	0x3d906fd3	0.07052579
162	0xbd88f60b	-0.06687554
163	0xbd44ca24	-0.04804434
164	0xbcb87ffa	-0.022521961
165	0xbd8b4be2	-0.06801583
166	0x3da6dced	0.08147607
167	0x3d1c2de6	0.03812971
168	0x3d2abf07	0.041686084
169	0x3ce28f29	0.027656155
170	0x3d677f24	0.056517735
171	0x3ca38db1	0.019965025
172	0x3d4cdfbc	0.050018057
173	0xbda8113d	-0.08206413
174	0xbd19f0b9	-0.037583087
175	0xbd738ce0	-0.05946052
176	0xbab96201	-0.0014143587
177	0x3c8073e9	0.01568027
178	0x3c8258a0	0.0159114
179	0xbdb7b5c1	-0.08970214
180	0xbd7c7c3b	-0.061641913
181	0x3ced0375	0.028932313
182	0xbccc32b5	-0.024926523
183	0x3da132bb	0.07871004
184	0x3b7b1337	0.0038311013
185	0xbc8de6ca	-0.017321963
186	0xbdba0bf7	-0.09084313
187	0x3d87e0c5	0.06634668
188	0xbd5c0516	-0.053715788
189	0xbc9a80bf	-0.018860219
190	0x3d5be471	0.053684656
191	0xbd8fb7f4	-0.07017508
192	0x3cfb27a0	0.030658543
193	0xbda2851e	-0.07935546
194	0x3d6ddb10	0.058070242
195	0x3d9cacf5	0.076501764
196	0xbd343612	-0.043996878
197	0xbccc1081	-0.024910213
198	0x3baf2540	0.0053450167
199	0xbd0bf6a2	-0.034170754
200	0xbbedc7a6	-0.007256466
201	0x3d3f29ab	0.046670597
202	0x3cabb62a	0.020960886
203	0xbc897dc0	-0.016783595
204	0xbd6a10f2	-0.057145067
205	0x3ce01ca4	0.027357407
206	0xbd2d13b0	-0.042255104
207	0xbd65bb7e	-0.05608701
208	0x3d81a7aa	0.063308075
209	0xbc701a27	-0.014654673
210	0xbde442ae	-0.11145531
211	0xbd96fa3d	-0.07371948
212	0x3c1421e1	0.0090412805
213	0x3c9d409a	0.019195843
214	0x3d767244	0.060167566
215	0x3d01039f	0.031497594
216	0xbca1e6e2	-0.019763414
217	0x3ca7eae5	0.020497749
218	0xba6dd961	-0.00090732245
219	0x3beaa023	0.007160203
220	0xbc827ba4	-0.015928097
221	0x3d44229c	0.04788457
222	0xbd2c62b5	-0.04208632
223	0xbcc117ea	-0.023570973
224	0xbd1f7115	-0.038926203
225	0xbd49a114	-0.04922588
226	0xbc5dd9bd	-0.013540682
227	0x3d0f76c7	0.035025384
228	0xbcc042a9	-0.023469286
229	0xbd94d464	-0.07267073
230	0xbd3395a0	-0.043843865
231	0x3d9e091e	0.07716583
232	0x3d7d029d	0.06177007
233	0xbc7de2b9	-0.015495949
234	0xbc41ec05	-0.011836057
235	0xbc8d4bec	-0.017248116
236	0x3c9d1bb8	0.019178256
237	0xbbd2dea2	-0.0064352313
238	0xbdb9ba55	-0.09068743
239	0xbd0cc8ae	-0.03437107
240	0x3d865328	0.065588295
241	0x3a4722aa	0.0007596413
242	0x3d8b768e	0.06809722
243	0xbd03c84e	-0.032173447
244	0x3cc93663	0.024562066
245	0x3d5fdc83	0.054653656
246	0xbdb9d270	-0.09073341
247	0xbd6204dc	-0.055180416
248	0x3c90b055	0.017662207
249	0x3d194a41	0.03742433
250	0x3c9d9783	0.019237285
251	0x3d464697	0.048407163
252	0xbd9426b2	-0.07233943
253	0xbd5ef363	-0.05443133
254	0x3d32f55e	0.04369103
255	0xbcb3d5fa	-0.021952618
