models/3690.HK_lstm_SMA50_diff.pth (torch, 808517 bytes, 9 tensors)

lstm.weight_ih_l0 f4 [512, 4]
0	0x3c312c22	0.010813745
1	0x3d98eb9c	0.07466814
2	0x3c5ce5df	0.01348254
3	0xbc7f1748	-0.0155695155
4	0x3e12a2f0	0.14319968
5	0x3d1ef029	0.038803253
6	0x3d828a88	0.06374079
7	0x3bf7a8b1	0.0075579514
8	0xbd350d99	-0.04420242
9	0x3d98f2c2	0.074681774
10	0x3c4f55e2	0.012654753
11	0xbc9c9117	-0.019112153
12	0xbd4f914e	-0.050675683
13	0xbcf0f59c	-0.02941399
14	0x3d77f71f	0.060538407
15	0x3d319983	0.04335929
16	0x3b86bc76	0.0041118218
17	0x3da763a8	0.08173305
18	0x3db15fdb	0.08660861
19	0xbd2d0efb	-0.042250615
20	0x3dbf21a3	0.093325876
21	0x3c51993c	0.012792882
22	0x3dbedab6	0.093190596
23	0x3d72d95d	0.059289325
24	0x3d8d481b	0.06898519
25	0x3d45388f	0.04814964
26	0xbcf27da2	-0.029600922
27	0x3d22d229	0.039751206
28	0xbce8ae49	-0.028403418
29	0xbbbc9ae7	-0.0057557705
30	0x3c88ccda	0.016699243
31	0x3cfd7314	0.030938663
32	0x3d56a382	0.052402027
33	0xbd0c7e47	-0.034300115
34	0x3d3d7a97	0.04625949
35	0x3d9f4177	0.07776158
36	0xbd135802	-0.035972603
37	0x3d5317f7	0.051536527
38	0x3d42e436	0.04758092
39	0x3d95b891	0.07310594
40	0x3db25a03	0.087085746
41	0xbd45174e	-0.04811793
42	0x3ba88a07	0.0051434073
43	0xbcddc4b3	-0.027071333
44	0x3c0bbf6b	0.008529524
45	0x3dd1c72f	0.102430694
46	0x3d9d4f2a	0.07681115
47	0x3d527ee6	0.05139055
48	0xbd754a43	-0.059885275
49	0x3c50efe7	0.01275251
50	0x3d42cb54	0.04755719
51	0x3d4ad9ba	0.049524046
52	0x3d5cb29e	0.05388128
53	0x3ddc039d	0.10742877
54	0xbd79bffe	-0.060974114
55	0x3ceded8a	0.029043932
56	0xb9cb0903	-0.00038725891
57	0x3cf4a0d2	0.029861841
58	0xbd229fec	-0.039703295
59	0x3d9ed3a1	0.07755209
60	0x3d647a97	0.055780973
61	0x3c61aa52	0.013773518
62	0xbd4145a2	-0.047185548
63	0x3d331579	0.04372165
64	0x3dc048c6	0.093888804
65	0x3d9ef0e2	0.077607885
66	0x3e45c7d8	0.19314516
67	0x3d80548d	0.06266127
68	0x3cded259	0.027199911
69	0x3d335e39	0.04379103
70	0x3df3973b	0.11894079
71	0xbd569d60	-0.05239618
72	0xbd8b31a6	-0.06796579
73	0x3cab44a5	0.020906756
74	0xbd474863	-0.048653018
75	0xbd6b24dd	-0.057408202
76	0xbc9e857d	-0.019350762
77	0xbd71dfc4	-0.05905129
78	0xbda93d35	-0.082636274
79	0x3d083041	0.033249144
80	0xbd97d3ea	-0.07413466
81	0x3d92bcb9	0.07164902
82	0xbd9a95de	-0.07548116
83	0xbd7d71a8	-0.06187597
84	0xbcfaf611	-0.030634912
85	0xbc009dcd	-0.007850123
86	0x3dc48230	0.09595144
87	0x3d8146c6	0.06312327
88	0x3e0b5e9c	0.1361031
89	0x3e253f6d	0.16137476
90	0x3def7450	0.11692107
91	0x3b94f462	0.0045457343
92	0x3d6f34bd	0.058399905
93	0x3de2cac7	0.11073833
94	0x3c7a1cb9	0.015265637
95	0x3d4abcbb	0.049496394
96	0xbd5ed4d2	-0.05440218
97	0x3c5f56c6	0.013631528
98	0xbc40bd4b	-0.011763881
99	0xbdb09134	-0.08621445
100	0xbd1a9976	-0.037744008
101	0x3d27f589	0.041005645
102	0xbaea30cd	-0.0017867327
103	0xbd576ec4	-0.05259587
104	0xbc8b1708	-0.016978756
105	0x3caab972	0.02084038
106	0x3d978452	0.07398285
107	0x3d47f60b	0.04881863
108	0xbda58084	-0.08081153
109	0xbce7e8d7	-0.028309269
110	0xbc3350cc	-0.010944556
111	0xbd1e3666	-0.038626097
112	0x3d12f64c	0.03587942
113	0x3d1fb83a	0.03899405
114	0x3dd5a0bc	0.10431048
115	0xbd8f3fa8	-0.06994563
116	0x3d934f57	0.07192867
117	0x3da348e7	0.079728894
118	0x3cdaf636	0.02672873
119	0x3cd25616	0.025675815
120	0x3d75ca1f	0.06000721
121	0x3dab07fd	0.08351133
122	0xbcd8f7dc	-0.026485376
123	0xbcbf8350	-0.023378044
124	0xbcd2afd3	-0.025718605
125	0x3d4a6378	0.049411267
126	0x3d1d247f	0.038364884
127	0x3db7e690	0.08979523
128	0x3da4173b	0.08012243
129	0xbcbe2852	-0.023212586
130	0xbd8ecf23	-0.06973102
131	0x3b956418	0.0045590512
132	0x3d3bda11	0.04586226
133	0x3de2f501	0.11081887
134	0xbd006d5f	-0.031354304
135	0x3cd075f4	0.02544687
136	0x3cca577f	0.024699925
137	0x3d68aa07	0.056802776
138	0xbbed1396	-0.007235001
139	0x3d1e8f0f	0.03871065
140	0xbd64a0b6	-0.05581733
141	0x3d2b4d73	0.04182191
142	0xbcfb298a	-0.030659456
143	0xbd8aebca	-0.067832544
144	0x3c8e0576	0.017336588
145	0x3dc94ad1	0.09828723
146	0x3c58c220	0.013229877
147	0xbd3a86a2	-0.045538552
148	0x3ce40358	0.027833626
149	0xbcaeb9f5	-0.021328906
150	0xbd054573	-0.032536935
151	0xbceb95c6	-0.028757941
152	0x3dd44989	0.10365588
153	0xbce3d5c9	-0.027811902
154	0x3d33df41	0.043914083
155	0xbc3d82ed	-0.01156686
156	0x3d12e6e7	0.035864737
157	0xbcc70723	-0.024295395
158	0xbd76a9d3	-0.06022055
159	0xbbf2e071	-0.0074120094
160	0x3d3300a0	0.043701768
161	0x3daf8910	0.085710645
162	0x3dacabf4	0.08431235
163	0x3d8815e9	0.06644804
164	0x3d2b5a15	0.041833956
165	0x3dc1c2a0	0.0946095
166	0x3b7b9b84	0.0038392255
167	0x3d883181	0.06650067
168	0xbc09e808	-0.008417137
169	0xbd3f1d7b	-0.046658974
170	0x3d9b7c24	0.07592037
171	0x3d95dcbe	0.07317494
172	0xbcf73193	-0.030175006
173	0xbc80bdee	-0.015715566
174	0xbd8ec761	-0.06971622
175	0xbcc07f5d	-0.023498232
176	0xbd5291c8	-0.05140856
177	0x3c0edd9a	0.008719826
178	0x3aba3269	0.0014205697
179	0x3da24d0d	0.079248525
180	0x3e3c1655	0.18367894
181	0x3e1ece28	0.1550833
182	0x3e420ce9	0.18950237
183	0x3d89abf8	0.067222536
184	0x3dceb52f	0.10093152
185	0x3db88ede	0.09011625
186	0x3c93bc7d	0.018034214
187	0x3bb1b7a6	0.005423504
188	0xbd4541cd	-0.048158456
189	0xbd260a25	-0.04053702
190	0xbde501f4	-0.11182013
191	0xbda254d0	-0.07926333
192	0xbdb6b90c	-0.08922014
193	0x3ca349cf	0.019932656
194	0x3c9daf04	0.019248493
195	0x3c27eb7e	0.010249017
196	0x3d97949c	0.07401392
197	0xbc9d57c0	-0.019206882
198	0x3d6cf81e	0.05785381
199	0x3c019354	0.007908661
200	0x3c8fc38a	0.017549295
201	0x3dae618c	0.08514699
202	0x3ce5dca8	0.028059319
203	0x3d078673	0.033087205
204	0x3ca18c53	0.019720232
205	0xbd06c6cb	-0.032904427
206	0x3da899dd	0.08232472
207	0x3c96d9ed	0.018414462
208	0xbd64616c	-0.05575697
209	0xbb27024a	-0.0025483542
210	0x3d9005af	0.07032334
211	0x3d0e3c47	0.034725454
212	0x3d978961	0.0739925
213	0x3d805397	0.062659435
214	0xbd4c4960	-0.049874663
215	0x3db58ce4	0.088647634
216	0xbd4f3c8d	-0.050594855
217	0x3d96050d	0.07325182
218	0x3ce37974	0.027767874
219	0x3d5307f7	0.051521268
220	0x3dc9cab9	0.098531194
221	0x3c622a36	0.013804009
222	0x3d6e93b0	0.058246315
223	0x3d2236f4	0.03960319
224	0x3d80be9a	0.06286354
225	0x3e1b0910	0.15140176
226	0x3d2339dc	0.0398501
227	0x3db5800b	0.08862313
228	0xbcb2fa00	-0.021847725
229	0x3c3397c2	0.010961475
230	0x3d2da23a	0.04239104
231	0x3d2fe7c2	0.04294563
232	0x3da5250f	0.08063709
233	0xbd8d5362	-0.0690067
234	0x3d4e439b	0.050357442
235	0xbcd5cfcf	-0.026100067
236	0x3d047e7d	0.03234719
237	0x3d0f8b02	0.035044678
238	0x3dac2d3c	0.08407065
239	0x3d8d77c6	0.069076106
240	0x3d40ca64	0.047068015
241	0x3c9c74a8	0.019098595
242	0xbcf64b95	-0.030065337
243	0x3d0ec769	0.03485814
244	0xbd8a5104	-0.06753734
245	0x3d35fa0d	0.04442792
246	0x3b05e9c5	0.0020433527
247	0xbcff6704	-0.031177051
248	0x3d86f782	0.06590177
249	0xbc403e83	-0.011733654
250	0x3d4f3e24	0.05059637
251	0x3d1645e5	0.03668775
252	0x3dfba993	0.12288203
253	0x3d23f5a2	0.040029176
254	0x3d612b64	0.05497302
255	0x3c624b91	0.013811962

lstm.weight_hh_l0 f4 [512, 128]
0	0xbdc565a7	-0.09638529
1	0xbb774afa	-0.0037733898
2	0x3e144993	0.14481191
3	0x3d246037	0.04013082
4	0xbd83ad4d	-0.06429539
5	0x3d4b7b5c	0.04967819
6	0x3da65233	0.08121147
7	0xbd87548a	-0.066079214
8	0x3d7117fd	0.058860768
9	0xbcb70190	-0.022339612
10	0xbd4f63d0	-0.050632298
11	0xbd6c6e1b	-0.057722192
12	0x3be9b3d2	0.007132032
13	0xbcea38ac	-0.028591476
14	0x3d229cc3	0.03970028
15	0xbd7be306	-0.061495803
16	0xbdb23a19	-0.087024875
17	0x3d665b5d	0.056239475
18	0xbd1071f9	-0.035264943
19	0xbd795beb	-0.060878675
20	0x3c91eef2	0.017814133
21	0xbd262aaf	-0.04056805
22	0x3dda6557	0.1066386
23	0x3d875d92	0.06609644
24	0x3d454b0a	0.048167266
25	0xbbacef65	-0.0052775615
26	0xbcd54fbf	-0.026039002
27	0x3d3b158d	0.04567485
28	0x3d7b73d3	0.061389755
29	0x3e098398	0.13429105
30	0x3cdda137	0.027054412
31	0x3c2b45ab	0.010453622
32	0xbd8995b5	-0.067180075
33	0x3ce998e3	0.028515285
34	0xbd32162e	-0.043478183
35	0x3bce534c	0.006296551
36	0xbc26b889	-0.010175833
37	0x3dabec0c	0.08394632
38	0x3d95cfc4	0.07315019
39	0x3cc4ad40	0.024008393
40	0xbbb3d94e	-0.005488551
41	0xbd48d79e	-0.049033754
42	0x3d8410f8	0.06448549
43	0xbd879e41	-0.066219814
44	0x3d527f3c	0.05139087
45	0x3e18ecb6	0.14934048
46	0x3da21bab	0.079154335
47	0xbda75265	-0.081700124
48	0x3c8d1bba	0.017225135
49	0xbccc0e34	-0.024909116
50	0xbd6ecb1a	-0.05829916
51	0x3d340056	0.043945633
52	0xbdaea693	-0.08527865
53	0x3badb0a2	0.0053005973
54	0x3c27bbd7	0.010237656
55	0xbe2f974a	-0.17147556
56	0xbcda4bfa	-0.026647557
57	0xbd3abb9e	-0.045589082
58	0x3cdc34b1	0.026880594
59	0x3d4d70c4	0.05015637
60	0xbd74adc3	-0.059736025
61	0x3bc7603b	0.0060844696
62	0xbd33296a	-0.043740667
63	0xbc648e8c	-0.013950001
64	0xbcbf83bb	-0.023378244
65	0xbd3b9afd	-0.045802105
66	0xbd890d75	-0.0669202
67	0x3d064f0b	0.032790225
68	0xbdb49923	-0.08818271
69	0x3df2e622	0.118603006
70	0x3c4b5b04	0.012411837
71	0x3d279f64	0.04092349
72	0xbba02ffb	-0.004888532
73	0x3cdbe23c	0.026841275
74	0x3d82d084	0.063874274
75	0x3d018962	0.03162516
76	0x3d28739d	0.041125882
77	0x3d3d985c	0.04628788
78	0xbd6b738e	-0.05748325
79	0x3d2076e0	0.039175868
80	0x38242b66	3.9141065e-05
81	0xbcf6cd61	-0.03012723
82	0xbd4cd3b3	-0.05000658
83	0x3d90fd7d	0.07079599
84	0xbc9f9820	-0.019481719
85	0x3b8bf6bb	0.004271356
86	0xbd6592c3	-0.056048166
87	0xbd141131	-0.036149208
88	0x3d628b8c	0.055308864
89	0x3dacc109	0.08435256
90	0xbc137476	-0.008999934
91	0xbca18f26	-0.019721579
92	0x39fef438	0.00048628612
93	0x3d64d9cc	0.05587177
94	0x3cb3f8f7	0.021969302
95	0x3cfced52	0.030874882
96	0xbd82d2b7	-0.06387847
97	0xbb61e4fe	-0.0034468765
98	0x3c628e76	0.013827911
99	0x3d0f004f	0.034912404
100	0x3db75f19	0.08953685
101	0xbd5f969f	-0.054587003
102	0xbdaa8b54	-0.08327356
103	0x3e0322e4	0.12806278
104	0x3bb6f0bc	0.005582897
105	0x3d73762d	0.059438873
106	0xbdbf8e7d	-0.09353349
107	0xbc8874ff	-0.01665735
108	0x3debd7fc	0.11515805
109	0x3d166d11	0.036725108
110	0x3cba54f6	0.02274559
111	0xbbeab98f	-0.0071632336
112	0x3bf991a9	0.007616241
113	0xbd8abd93	-0.0677444
114	0xbcd10f9f	-0.025520144
115	0x3dba84bb	0.091073476
116	0x3dbb4eee	0.09145914
117	0x3d3e82fb	0.04651163
118	0xbc08a89b	-0.00834098
119	0x3d973872	0.07383813
120	0xbdc7a76d	-0.09748731
121	0x3de1a4dc	0.110177726
122	0xbce0305a	-0.027366806
123	0x3d9be526	0.07612066
124	0x3b880390	0.0041508153
125	0x3cdc0324	0.026856966
126	0xbd9e821d	-0.07739661
127	0xbdd7b72f	-0.105329864
128	0x3d8e136e	0.069373
129	0x3d8555eb	0.06510528
130	0x3d37c0ee	0.044861726
131	0xbb0b7224	-0.002127775
132	0xbd202674	-0.03909917
133	0x3c1e26c2	0.009652795
134	0x3cf304fe	0.029665466
135	0x3d7cd325	0.0617248
136	0x3db06e81	0.08614827
137	0x3d30c120	0.04315293
138	0x3cd4214b	0.025894782
139	0xbdc4c3ff	-0.09607696
140	0xbd485b85	-0.048915405
141	0x3d01f903	0.031731617
142	0x3cf24261	0.029572668
143	0x3cd3d14b	0.025856635
144	0x3db4e1cf	0.08832132
145	0xbdb03328	-0.08603507
146	0x3aa84711	0.0012838562
147	0x3d45c184	0.048280254
148	0x3d4b4ec2	0.049635656
149	0xbddafbca	-0.10692556
150	0x3c8683fa	0.016420353
151	0x3daa57d9	0.08317537
152	0x3d9980a4	0.074952394
153	0x3ba72bb0	0.0051016435
154	0xbdc0e7a1	-0.0941918
155	0x3c9c6370	0.019090384
156	0x3d0ec6e8	0.03485766
157	0x3c0a1ccf	0.00842972
158	0xbd603ba7	-0.05474439
159	0xbd45aa9f	-0.04825842
160	0x3d4cf9e3	0.050042998
161	0xbdf8710e	-0.121309385
162	0x3b3a92d8	0.0028468873
163	0x3e08cc78	0.13359249
164	0xbdb2839f	-0.08716511
165	0xbd83a1ca	-0.06427343
166	0x3d139017	0.036026087
167	0xbc64c67e	-0.01396334
168	0x3df5c5ec	0.12000641
169	0xbd44ef0a	-0.048079528
170	0xbd877b84	-0.066153556
171	0xbd5bbb5d	-0.05364548
172	0xbd7b1592	-0.061299868
173	0xbc964121	-0.018341603
174	0x3d193da8	0.037412316
175	0xbd81972d	-0.063276626
176	0xbdc7c90b	-0.09755143
177	0xbd2aa6eb	-0.04166309
178	0x3dd18582	0.10230543
179	0x3d65216b	0.055940073
180	0x3cf9db36	0.030500036
181	0x3af72871	0.0018856657
182	0x3c1a17c2	0.009405078
183	0x3dc6f20e	0.09714137
184	0xba6397ed	-0.00086820015
185	0x3d22bb80	0.039729595
186	0xbde10cbd	-0.10988758
187	0x3d2a215b	0.041535717
188	0x3da8d4de	0.08243726
189	0xbd5bba0c	-0.053644225
190	0xbbdfbca7	-0.006827909
191	0xbd7b6d7f	-0.06138372
192	0xbe11ae9d	-0.14226766
193	0x3d6a2b32	0.0571701
194	0xbd0114f3	-0.03151412
195	0x3d4b741f	0.04967129
196	0xbdf7b35f	-0.12094759
197	0x3d1b28ce	0.03788071
198	0xbad2deea	-0.0016088162
199	0xbd963f49	-0.073362894
200	0xbba96668	-0.0051696785
201	0xbcddd001	-0.027076723
202	0xbcda9f0f	-0.026687173
203	0xbdbbcdad	-0.09170089
204	0x3dbaff50	0.09130728
205	0xbdc3baff	-0.09557151
206	0x3e05a91e	0.13052794
207	0x3d805293	0.0626575
208	0xbdd556a7	-0.10416918
209	0xbca58725	-0.020206043
210	0x3beb9d12	0.007190355
211	0x3dbe1f1d	0.09283278
212	0x3c76b72b	0.015058319
213	0xbcb74016	-0.022369426
214	0xbc4c82b3	-0.012482333
215	0xbe0eaa50	-0.13932157
216	0xbd0babc3	-0.03409935
217	0x3d201cf5	0.039090116
218	0x3d454bcc	0.04816799
219	0xbd2f2d2c	-0.04276769
220	0xbdd817aa	-0.105513886
221	0xbafbe6ca	-0.0019218561
222	0x3d50542f	0.050861534
223	0x3cc1a650	0.023638874
224	0xbd69da06	-0.05709269
225	0x3d1a2661	0.037634257
226	0x3cf79aab	0.030225119
227	0x3d236b88	0.03989747
228	0x3dea8d15	0.114526905
229	0x3d047fd7	0.03234848
230	0xbd7675f6	-0.06017109
231	0x3b448124	0.00299842
232	0xbc7e6fbd	-0.01552957
233	0x3b6e6a10	0.0036379136
234	0xbda6aa44	-0.08137944
235	0xbd63fc10	-0.055660307
236	0xbd51df52	-0.051238365
237	0xbe0f273b	-0.13979809
238	0xbdbd0616	-0.092296764
239	0x3c5695bb	0.013097222
240	0x39f546a4	0.00046782673
241	0x3de549de	0.1119573
242	0x3ce2d253	0.027688181
243	0x3a990b11	0.0011676272
244	0xbe12398d	-0.14279766
245	0xbde12321	-0.109930284
246	0xbc5b5234	-0.013386298
247	0xbdbdf489	-0.09275157
248	0xbc4cfc4a	-0.012511322
249	0xbe1bb99f	-0.15207528
250	0x3e0dff1e	0.1386685
251	0xbb9f6639	-0.004864481
252	0xbdc1b1a7	-0.094577126
253	0xbdbcb3cf	-0.09213983
254	0x3d8b414a	0.06799562
255	0x3df193d4	0.11795774

lstm.bias_ih_l0 f4 [512]
0	0x3d8893d3	0.0666882
1	0x3dab65b7	0.0836901
2	0x3d3a8a5d	0.04554211
3	0x3aaab0a9	0.001302262
4	0xbd559d7f	-0.052152153
5	0xbc96f489	-0.01842715
6	0x3d98937e	0.07450007
7	0x3a26614f	0.00063468976
8	0x3cc1a28e	0.023637082
9	0x3d66133d	0.05617069
10	0xbd29c096	-0.04144343
11	0x3da5d1c9	0.08096654
12	0x3d656ce6	0.056012057
13	0x3d64cce7	0.055859473
14	0xbda1df06	-0.079038665
15	0xbcdf73e0	-0.027276933
16	0x3e1915be	0.149497
17	0xbd1f3d56	-0.038876854
18	0xbd84727e	-0.0646715
19	0xbbd462ae	-0.00648149
20	0xbdab6f1a	-0.083708
21	0x3d4f724a	0.050646104
22	0x3e03a018	0.1285404
23	0x3dde2f42	0.108488575
24	0xbda53ec4	-0.08068612
25	0x3d6690e3	0.05629052
26	0x3d00bf13	0.031432223
27	0xbda6160e	-0.08109675
28	0x3c1db563	0.0096257655
29	0x3cf8f2cf	0.030389218
30	0x3dad81e8	0.08472043
31	0xbda9fdb2	-0.08300342
32	0xbda8948e	-0.082314596
33	0xbc852c4f	-0.01625648
34	0xbccf535e	-0.025308307
35	0xbc0db77b	-0.008649702
36	0x3daec579	0.08533759
37	0x3d5cf584	0.05394508
38	0x3c0a2174	0.008430827
39	0x3da4cda8	0.08047038
40	0xbc9a0f2f	-0.018806068
41	0xbd024023	-0.031799447
42	0x3d6d5545	0.057942647
43	0x3cb6600b	0.022262594
44	0xbd6463a3	-0.055759083
45	0x3d814701	0.06312371
46	0x3da44d1b	0.08022519
47	0xbc953329	-0.018212872
48	0x3dc645ea	0.09681304
49	0xbcba99e2	-0.022778455
50	0xbc42519f	-0.01186028
51	0xba67bff4	-0.0008840554
52	0x3d8d0b9e	0.068869814
53	0x3dbd567d	0.09245012
54	0x3d226368	0.039645582
55	0x3d317aef	0.04333013
56	0x3d3f2318	0.046664327
57	0x3d5bbcfd	0.05364703
58	0x3c155514	0.0091145225
59	0x3d288e84	0.04115154
60	0x3dd437e4	0.10362223
61	0x3d817562	0.06321217
62	0xbd2870c3	-0.041123163
63	0x3d94e710	0.07270634
64	0x3e105c9d	0.14097829
65	0x3e3175bf	0.17330073
66	0x3b9a2075	0.004703576
67	0x3da1ac5b	0.07894202
68	0xbd7c8f1d	-0.06165992
69	0xbd88daea	-0.066823795
70	0x3c400305	0.01171947
71	0x3c257690	0.010099068
72	0x3dabcdb5	0.08388845
73	0xbd0d53ac	-0.034503624
74	0xbcf35a22	-0.029706065
75	0xbc458de7	-0.012057758
76	0x3da2100f	0.07913219
77	0x3d8189ce	0.06325112
78	0x3cfa881d	0.030582482
79	0xbd861b92	-0.06548227
80	0x3d07b40a	0.033130683
81	0xbd72adfe	-0.059247963
82	0xbd75ced7	-0.06001171
83	0x3dac3ef0	0.08410442
84	0xbc60228f	-0.013680114
85	0x3d9c82f1	0.076421626
86	0x3d31479d	0.043281186
87	0x3d0b6d38	0.034039706
88	0x3da79944	0.0818353
89	0xbbe3015a	-0.0069276514
90	0xbc0d1d8f	-0.008613004
91	0x3ccd2bd1	0.025045307
92	0x3d27e83b	0.040992957
93	0x3d264067	0.040588763
94	0xbba03cbc	-0.0048900526
95	0x3dad17e8	0.084518254
96	0xbc180416	-0.009278318
97	0xbd8109f0	-0.063007236
98	0x3d15aaf0	0.03653997
99	0xbd1c0910	-0.03809458
100	0xbdb2adee	-0.08724581
101	0x3db7865c	0.08961174
102	0x3d50d6d0	0.05098611
103	0x3d88d9e7	0.066821866
104	0x3cf373bf	0.029718278
105	0x3db6fc6b	0.08934864
106	0x3d8320c5	0.06402735
107	0xbd2e1596	-0.042501055
108	0x3d7b4801	0.061347965
109	0xbd3f0b67	-0.046641733
110	0x3d41593e	0.04720425
111	0x3d9ae189	0.07562549
112	0xbc8c3f92	-0.017120156
113	0x3dd31e6a	0.103085354
114	0xbc508f9f	-0.012729554
115	0x3da558fa	0.080736116
116	0x3df7a852	0.120926514
117	0x3d82eff2	0.06393422
118	0x3cf8eb7b	0.030385723
119	0xbbdb8639	-0.00669935
120	0x3d870688	0.065930426
121	0x3df9aefc	0.12191579
122	0x3dc1fcc1	0.09472037
123	0xbcc6cd57	-0.024267836
124	0xbd32ae6f	-0.043623384
125	0x3de78f07	0.11306577
126	0xbd0d3934	-0.03447838
127	0xbc25d82e	-0.010122342
128	0xbcad601f	-0.021163998
129	0xbc93e341	-0.018052699
130	0xbd53e2c6	-0.05172994
131	0x3b7004c8	0.0036623944
132	0xbcdc444d	-0.026888037
133	0xbd9f88ab	-0.07789739
134	0x3ce0e8e7	0.027454806
135	0xbd1d6aa2	-0.03843177
136	0xbcfc97b5	-0.030834058
137	0xbd569fa3	-0.052398335
138	0xbd904d2a	-0.07045968
139	0xbd2371a4	-0.039903298
140	0x3cca01eb	0.024659118
141	0xbc3e823c	-0.01162773
142	0x3d4df831	0.050285522
143	0xbd507b30	-0.05089873
144	0xbcc80af8	-0.024419293
145	0xbd58b965	-0.05291118
146	0xbdbd3eb1	-0.09240473
147	0x3ce715f8	0.028208718
148	0xbd22ae28	-0.03971687
149	0x3d8ae944	0.06782773
150	0xbd3192a0	-0.043352723
151	0x3cf8d094	0.030372895
152	0xbd9e9d1c	-0.0774481
153	0xbd07a73d	-0.033118475
154	0x3d86f420	0.06589532
155	0x3d8a871c	0.06764051
156	0xbca58caa	-0.020208675
157	0x3d1cf64d	0.03832083
158	0xbd90b438	-0.07065624
159	0xbd026d64	-0.031842604
160	0xbdb07037	-0.08615153
161	0xbcd5ac7a	-0.02608322
162	0xbc265216	-0.010151407
163	0x3c2d25eb	0.010568122
164	0xbb05a1bc	-0.002039059
165	0xbdbb1615	-0.09135071
166	0x3b62bc6f	0.0034597178
167	0xbd6ff5f3	-0.058584165
168	0x3cdc7c83	0.02691484
169	0xbd29aa85	-0.041422386
170	0xbcd723de	-0.02626222
171	0x3d84dce1	0.06487442
172	0xbd4689a1	-0.048471097
173	0x3d01e2b2	0.031710334
174	0x3d3706e6	0.044684313
175	0xbd90d8ef	-0.07072627
176	0xbd2b9299	-0.041887853
177	0x3ca82ca8	0.020529106
178	0xbc939d5d	-0.018019373
179	0x3c89efd6	0.016837995
180	0xbd73ebf0	-0.05955118
181	0x3d9fc69f	0.07801556
182	0xbda82e13	-0.08211913
183	0x3dd0873e	0.101820454
184	0xbd4e4cf8	-0.050366372
185	0xbd82c198	-0.06384581
186	0x3d5e4c7f	0.05427217
187	0x3d6f71ec	0.058458254
188	0x3d4d8682	0.050177105
189	0x3d4b762b	0.04967324
190	0x3c22f3fc	0.009945866
191	0x3ce43f5b	0.027862241
192	0xbd91d1b0	-0.07120073
193	0xbd5ea89a	-0.05436001
194	0x3da7ea8f	0.081990354
195	0x3cf64978	0.03006433
196	0x3d3c2d69	0.045941744
197	0x3d741cd7	0.059597816
198	0xbdc05e60	-0.093930006
199	0x3d64a50f	0.055821475
200	0xbd830137	-0.06396716
201	0x3d001856	0.03127321
202	0xbc97fe52	-0.018553887
203	0xbd024de2	-0.031812556
204	0xbd6a0c0e	-0.057140402
205	0xbd8a2d0b	-0.067468725
206	0x3d1a7aae	0.037714653
207	0xbd5fbd75	-0.05462404
208	0xbdd75094	-0.10513416
209	0x3d9aab13	0.07552161
210	0xbc63ab30	-0.013895795
211	0xbbe73f41	-0.007057101
212	0xbd9c2e20	-0.07625985
213	0xbcd67778	-0.026180014
214	0x3d586b48	0.052836686
215	0x3d5d9fbf	0.054107424
216	0xbd8fb131	-0.070162185
217	0x3d68dd29	0.05685154
218	0xbd6f0cf1	-0.05836195
219	0xbd086fc6	-0.03330972
220	0xbc0a234b	-0.008431266
221	0xbd912284	-0.070866615
222	0x3b316ed6	0.002707412
223	0xbd95dac6	-0.07317118
224	0xbd95207a	-0.07281585
225	0x3d0d4c9c	0.03449689
226	0x3d6c5f27	0.05770793
227	0xbdb147ec	-0.08656296
228	0xbd72330e	-0.05913072
229	0xbd5e0467	-0.054203417
230	0x3d8e3c80	0.06945133
231	0x3dc22370	0.094794154
232	0x3cd539b7	0.026028497
233	0xbcd73abc	-0.026273124
234	0x3d4750c2	0.048661
235	0xbd8df188	-0.06930834
236	0xbd81a28c	-0.063298315
237	0x3d8a5e45	0.06756262
238	0xbce24677	-0.02762149
239	0x3ddcda01	0.107837684
240	0xbd75a5ae	-0.059972458
241	0x3db268d9	0.08711404
242	0xbc34d0b5	-0.011036088
243	0xbd9c654e	-0.0763651
244	0xbdab26a4	-0.083569795
245	0x3d4a8d90	0.04945141
246	0xbd2edb49	-0.042689595
247	0x3d9fc084	0.07800391
248	0xbc66eb61	-0.014094205
249	0xbd781dd8	-0.060575336
250	0xbd85ff9d	-0.06542895
251	0x3cb6a027	0.022293163
252	0x3c9ae5da	0.01890843
253	0x3d666cfe	0.056256287
254	0x3d35cabc	0.044382796
255	0xbd962601	-0.073314674

lstm.bias_hh_l0 f4 [512]
0	0xbd7624ee	-0.060093813
1	0x3deea964	0.116534024
2	0x3d5e099d	0.054208387
3	0xbd92ad1a	-0.07161923
4	0x3dce6012	0.10076918
5	0x3da35258	0.0797469
6	0x3d5eadd6	0.054365
7	0xbd7fdb3c	-0.062464938
8	0x3d924bf6	0.07143395
9	0xbb17faf3	-0.002319035
10	0xbcb212df	-0.021737514
11	0xbd2a5491	-0.041584555
12	0xbd4fa6df	-0.05069625
13	0xbbfc9280	-0.007707894
14	0xbd23d4e9	-0.03999797
15	0x3c7870fb	0.015163655
16	0x3dbf3dfa	0.09337993
17	0x3d994a41	0.07484866
18	0x3c813e8a	0.015776891
19	0xbd4428a6	-0.047890328
20	0x3c8e9763	0.017406171
21	0x3d667cd7	0.0562714
22	0x3d44867d	0.04797982
23	0x3e0d700a	0.13812271
24	0x3c93f7e8	0.018062547
25	0x3ce14eb2	0.027503345
26	0x3da3f428	0.080055535
27	0xbd1fff79	-0.039061997
28	0xbce77691	-0.028254779
29	0x3d92ead0	0.07173693
30	0x3d36c1e4	0.044618502
31	0x3da77fa7	0.081786446
32	0x3d974a75	0.073872484
33	0x3d9c6156	0.07635753
34	0xbd28a0b4	-0.041168883
35	0x3cf8993b	0.030346503
36	0xbc1ba672	-0.009500133
37	0x3df94d2d	0.12172923
38	0x3d4c0045	0.049804945
39	0x3d97d2c1	0.07413245
40	0xbd25b0da	-0.040451862
41	0xbd955e79	-0.0729341
42	0xbd15ed65	-0.03660335
43	0x3d9ceaa9	0.076619454
44	0xbd4724fd	-0.04861926
45	0x3e097876	0.13424858
46	0x3bc816ad	0.006106219
47	0xbce0094d	-0.027348185
48	0xbd704285	-0.058657188
49	0x3d89db0f	0.06731235
50	0xbbc3cfe4	-0.00597571
51	0xbcddcf2b	-0.027076324
52	0x3d9c3195	0.076266445
53	0x3d8e1852	0.069382325
54	0xbd2f30c6	-0.042771123
55	0x3d23c50a	0.039982833
56	0x3dc54fff	0.09634399
57	0xbd95b22d	-0.07309375
58	0x3d9425a5	0.072337426
59	0xbd7c8607	-0.061651256
60	0xbd5342e3	-0.05157746
61	0xbc646a81	-0.013941408
62	0x3d4538e1	0.048149947
63	0xbd33e51e	-0.043919675
64	0x3e377794	0.17916709
65	0x3d641379	0.055682633
66	0x3d9686bb	0.073499165
67	0x3d1010b6	0.035172187
68	0x3ce5b9bb	0.028042665
69	0x3af2d52b	0.0018526664
70	0xbcb183fa	-0.021669377
71	0x3bbd2e9a	0.0057733776
72	0x3df915b5	0.121623434
73	0x3d42eca6	0.047588967
74	0xbd8cb965	-0.06871299
75	0x3c20beb7	0.009811095
76	0x3d1cdaaa	0.03829447
77	0x3ddae31f	0.10687851
78	0x3c8996e7	0.016795589
79	0xbd59dc7e	-0.053188793
80	0x3d70c66c	0.05878298
81	0xbd421959	-0.047387455
82	0x3da599d5	0.08085982
83	0x3cf61642	0.03003991
84	0x3d999540	0.0749917
85	0x3dd66845	0.104691066
86	0xbbb0b023	-0.005392091
87	0x3d3ef455	0.046619732
88	0xbd51269c	-0.05106221
89	0x3dbbf9e1	0.0917852
90	0x3af06b8d	0.00183426
91	0x3ddac9b2	0.106830016
92	0x3de0e63d	0.109814145
93	0xbbd5bca3	-0.0065227314
94	0x3d87ed07	0.06637006
95	0x3d048bf3	0.03236003
96	0x3dfdf91f	0.12401032
97	0x3d594e0b	0.053052943
98	0x3d40cb06	0.04706862
99	0x3da2262c	0.07917437
100	0x3daaff97	0.08349531
101	0x3dba1c66	0.09087448
102	0x3dae8594	0.08521572
103	0xbc761d89	-0.01502169
104	0xbd9c4e46	-0.07632117
105	0x3d839852	0.06425537
106	0x3bfdebdf	0.0077490653
107	0xbd16a0d1	-0.03677446
108	0xbbfec346	-0.0077747433
109	0x3d800167	0.062502675
110	0xbb4e374d	-0.0031466067
111	0x3d72eb4c	0.059306428
112	0x3d3723a3	0.04471172
113	0xbd062880	-0.032753468
114	0xbd4cafd4	-0.04997237
115	0x3c98fdc9	0.018675702
116	0x3d0361a5	0.032075543
117	0x3d8612c8	0.06546551
118	0xbd61d75e	-0.05513703
119	0xbd5b51d8	-0.05354485
120	0xbda47df4	-0.08031836
121	0x3e48ddd0	0.19615865
122	0x3d88feca	0.06689222
123	0xbd903b6d	-0.070425846
124	0x3bc7d0cd	0.006097889
125	0x3df5faf2	0.12010755
126	0x3d508c7d	0.05091523
127	0xbd69ecf8	-0.057110757
128	0xbb70bde0	-0.0036734268
129	0x3bc71980	0.006076038
130	0x3cb9cd64	0.022680946
131	0x3c03d6f4	0.008046854
132	0xbd31fb1f	-0.04345238
133	0x3d2bc562	0.041936286
134	0xbd6f304a	-0.05839566
135	0x3d37300f	0.044723567
136	0x3cc2b61f	0.023768483
137	0xbd11acd4	-0.035565212
138	0xbd27e4ff	-0.040989872
139	0x3caa4df1	0.020789118
140	0x3c4f19d0	0.0126404315
141	0x3db10097	0.08642691
142	0xbd6957a8	-0.05696836
143	0xbd2009e3	-0.03907193
144	0xbd1b4855	-0.037910778
145	0x3c30dad5	0.010794361
146	0xbd12b65a	-0.035818435
147	0xbd5852a0	-0.052813172
148	0xbdbb2575	-0.09138004
149	0x3d9477e5	0.072494306
150	0xbd7eb913	-0.06218822
151	0xbcbc3f5e	-0.022979435
152	0xbdbbe0a5	-0.09173707
153	0x3bf17d16	0.0073696477
154	0xbce6d2d0	-0.028176695
155	0xbd2c4b35	-0.04206391
156	0x3ce46cb6	0.027883869
157	0xbd6cb2cf	-0.057787713
158	0x3bcb7623	0.0062091514
159	0x3c3bb0ff	0.011455773
160	0xbd0cde64	-0.034391776
161	0x3d666622	0.056249745
162	0xbd1c89bd	-0.038217295
163	0x3c09317a	0.008373613
164	0x3d040ac3	0.032236826
165	0xbb4126c2	-0.0029472564
166	0xbd3ee756	-0.046607338
167	0xbdaa4b5f	-0.08315157
168	0xbd74d547	-0.05977371
169	0xbd33078d	-0.043708373
170	0x3c1a76c2	0.009427728
171	0xbc587462	-0.013211342
172	0x3d73a0cf	0.05947953
173	0xbd745bcb	-0.059657853
174	0xbcdeba79	-0.027188526
175	0x3cd4c20d	0.025971437
176	0xbcd055ee	-0.0254316
177	0xbd85d393	-0.06534495
178	0x3d609d86	0.054837726
179	0xbc230dd1	-0.009952025
180	0x3d88a585	0.06672195
181	0x3d078bdb	0.03309236
182	0xbd944dfe	-0.07241438
183	0x3dc7a54f	0.09748327
184	0x3b7cc06d	0.0038566843
185	0x3bacc369	0.005272318
186	0xbc0ee189	-0.008720764
187	0x3d7edfde	0.062225215
188	0x3c39b254	0.011334021
189	0xbdb75e48	-0.089535296
190	0x3d662cd3	0.05619509
191	0xbd5d0282	-0.05395747
192	0xbdc1f4f4	-0.09470549
193	0xbb67a440	-0.0035345703
194	0x3cef8e48	0.02924265
195	0xbcb647ab	-0.02225097
196	0x3b3a2ac1	0.002840683
197	0xbd2ca28f	-0.042147215
198	0x3bc8cefb	0.0061281896
199	0xbd11e161	-0.03561533
200	0xbd0ae7b3	-0.03391237
201	0xbdb4d958	-0.088305175
202	0x3c611758	0.013738476
203	0x3d6db37e	0.058032505
204	0xbd80c027	-0.0628665
205	0x3bcbbbe9	0.006217469
206	0xbd45b2aa	-0.04826609
207	0x3831a542	4.2353997e-05
208	0xbdd3f546	-0.103495166
209	0x3d507079	0.050888512
210	0x3d9fa320	0.077947855
211	0x3c8ee4b5	0.01744304
212	0x3ce66fc3	0.028129464
213	0x3d4966a7	0.049170163
214	0x3ddab269	0.1067856
215	0x3d845835	0.06462137
216	0xbd88f2fc	-0.066869706
217	0x3da9f746	0.08299117
218	0x3c5dc869	0.013536551
219	0xbd6f88a8	-0.058479935
220	0x3c22a323	0.00992659
221	0xbd044c66	-0.03229942
222	0xbd56d99c	-0.052453622
223	0xbd035244	-0.032060876
224	0xbdaad0a6	-0.08340578
225	0xbd708e30	-0.05872935
226	0x3dac031d	0.08399031
227	0xbcced038	-0.02524577
228	0xbcacbb5c	-0.021085434
229	0xbd15d9f1	-0.0365848
230	0x3c7c596f	0.015402182
231	0xbc5b4e53	-0.013385373
232	0x3d52dd67	0.051480677
233	0xb9876893	-0.0002582712
234	0xbda3b279	-0.07993025
235	0xbcd4ebae	-0.025991287
236	0x3d31d87a	0.04341934
237	0x3dd04eab	0.10171255
238	0xbd28009d	-0.04101621
239	0xbd12d65e	-0.035848968
240	0x3d0ea710	0.034827292
241	0x3d991f4a	0.07476671
242	0x3b612b4d	0.0034358085
243	0xbd542428	-0.051792294
244	0xbdca4d37	-0.09878009
245	0x3ce8d758	0.028422996
246	0x3d960730	0.0732559
247	0x3d1b8f13	0.037978243
248	0xbd05f7af	-0.032706913
249	0x3d43b99e	0.04778444
250	0xbccc8631	-0.024966331
251	0x3d71d220	0.05903828
252	0x3d9d8044	0.0769048
253	0x3d879b35	0.066214
254	0xbd7d2bea	-0.061809458
255	0x3dadd375	0.08487598

lstm.weight_ih_l1 f4 [512, 128]
0	0xbd83fdd0	-0.06444895
1	0xbd8c6c8d	-0.06856642
2	0xbd23d789	-0.040000472
3	0x3d8978d7	0.067125015
4	0x3d7033cf	0.05864316
5	0x3d85be72	0.06530465
6	0xbd05c3e4	-0.03265752
7	0xbdb4c25a	-0.08826132
8	0xbd7d3284	-0.061815754
9	0xbca1478d	-0.019687438
10	0xbd7d94c0	-0.061909437
11	0x3d982b1b	0.07430097
12	0x3da1d767	0.07902413
13	0x3dbe86e5	0.09303073
14	0xbd58a76a	-0.052894033
15	0x3d5d79a1	0.054071072
16	0xbd8bd460	-0.06827617
17	0x3d0aceb0	0.03388852
18	0x3c399c8a	0.011328826
19	0xbd8a0853	-0.06739869
20	0x3aff4bd5	0.0019477556
21	0x3d1b7fcc	0.037963673
22	0xbd3051b5	-0.043046672
23	0x3d746839	0.059669707
24	0x3d80ae93	0.062832974
25	0xbd3cb7d1	-0.04607374
26	0xbd4a16fc	-0.049338326
27	0x3d91ce13	0.07119384
28	0xbcbfa719	-0.023395108
29	0x3dad2591	0.08454431
30	0x3d9fbdea	0.07799895
31	0x3d2a4fdc	0.041580066
32	0x3d83c4d2	0.06434025
33	0xbbca8f4a	-0.006181632
34	0x3b8078c2	0.0039206455
35	0xbdb5e95a	-0.08882399
36	0xbd92602e	-0.07147251
37	0x3c6b480b	0.014360438
38	0x3cf7d184	0.030251272
39	0xbd83d14a	-0.06436403
40	0xbdb63e00	-0.08898544
41	0xbaf78118	-0.0018883077
42	0xbd606812	-0.05478675
43	0x3c8c9b2e	0.01716384
44	0xbd2a15ac	-0.041524574
45	0x3da2ce88	0.07949549
46	0x3c66dc95	0.014090677
47	0xbbb51589	-0.005526249
48	0xbca0ac74	-0.019613482
49	0xbda7cdbe	-0.08193539
50	0xbcb05c9b	-0.021528533
51	0xbda533a5	-0.08066491
52	0x3d8e742f	0.06955754
53	0xbd5b93bc	-0.053607687
54	0x3c24d6b5	0.010060956
55	0xbca81db5	-0.020521978
56	0xbd6a2855	-0.05716737
57	0xbdaa8b85	-0.083273925
58	0x3d854980	0.0650816
59	0x3d0257b7	0.031821933
60	0xbd58ff44	-0.052977815
61	0xbce26f94	-0.027641095
62	0xbc9fb085	-0.01949335
63	0x3a0987b9	0.00052463595
64	0xbd364402	-0.04449845
65	0x3d4883f3	0.04895396
66	0xbd76bf40	-0.060240984
67	0x3d8c839a	0.068610385
68	0xbd424cdb	-0.047436576
69	0x3a83d8f4	0.0010059164
70	0x3db6c0ee	0.08923517
71	0x3d39da89	0.045374427
72	0xbdc06c9e	-0.09395717
73	0x3bd536ca	0.0065067755
74	0x3d81490a	0.06312759
75	0x3d046108	0.0323191
76	0xbd23aebf	-0.039961573
77	0xbd28b470	-0.041187704
78	0xbd1e4f9f	-0.03865015
79	0xbda9b10e	-0.082857236
80	0x3c8e5c4f	0.017378
81	0xbd6e8f09	-0.058241878
82	0x3da870f6	0.082246706
83	0x3c70998c	0.014685046
84	0x3d65051d	0.05591308
85	0xbd64e4cf	-0.05588227
86	0xbd8bd5f4	-0.06827918
87	0xbca3e9fe	-0.020009037
88	0x3ce1356c	0.027491294
89	0x3bff22d8	0.007786136
90	0xbdae296e	-0.08503996
91	0x3db246ae	0.08704887
92	0x3d31e6ea	0.043433107
93	0xbca8bd96	-0.020598214
94	0xbd8d272b	-0.06892236
95	0xbc6559ae	-0.013998432
96	0xbce0e8e5	-0.027454803
97	0xbd056d7d	-0.03257512
98	0xbda356f4	-0.07975569
99	0xbda865a4	-0.082225114
100	0xbdb78b5c	-0.089621276
101	0xbd530ee7	-0.051527884
102	0xbd5139bd	-0.051080454
103	0xbcc4e3f5	-0.02403448
104	0x3d72248e	0.059116893
105	0x3d8a17c4	0.06742814
106	0x3d8fd7e5	0.070236005
107	0xbd0f2e40	-0.034956217
108	0xbd551e8e	-0.052031092
109	0x3d842553	0.064524315
110	0x3d89880a	0.067154005
111	0xbd5db687	-0.05412915
112	0xbcf88ee2	-0.03034157
113	0xbbb095e8	-0.005388964
114	0xbc56df30	-0.0131147355
115	0x3d30fa16	0.04320725
116	0x3ac2b6e7	0.0014855535
117	0xbd3826a5	-0.04495873
118	0x3d46a338	0.0484955
119	0xbce9e4e2	-0.028551523
120	0x3c5d4e40	0.013507426
121	0xbd58f24b	-0.052965444
122	0xbd8b2854	-0.06794801
123	0xbb8da219	-0.004322302
124	0x3d80df36	0.06292574
125	0x3d1fc8c6	0.03900983
126	0xbd55cbaa	-0.052196182
127	0xbd8cc592	-0.06873621
128	0xbde0cec9	-0.10976941
129	0x3d2e2d03	0.042523395
130	0x3d467d96	0.04845961
131	0x3cf1e5e2	0.029528562
132	0xbda436df	-0.08018278
133	0x3bf557f3	0.007487291
134	0xbd068e4a	-0.03285054
135	0x3d5f8e19	0.054578874
136	0xbd32d28c	-0.043657824
137	0x3d1daf39	0.038497183
138	0xbca7266d	-0.020404065
139	0x3da61bbd	0.081107594
140	0x3d0ae87e	0.033913128
141	0x3b4f7378	0.0031654518
142	0x3cbae338	0.022813424
143	0xbd17cc77	-0.037060227
144	0xbcdaeb13	-0.02672342
145	0x3bc9250c	0.0061384495
146	0xbdb6ee7b	-0.08932205
147	0x3d94c038	0.07263225
148	0x3d973e09	0.07384879
149	0x3d8b5036	0.068024084
150	0xbcb59621	-0.022166314
151	0x3d097ece	0.033568196
152	0xbda10a09	-0.07863242
153	0x3db72432	0.089424506
154	0x3c81d5e8	0.015849069
155	0xbc06fc45	-0.008238857
156	0xbc219051	-0.009861068
157	0x3af8ff98	0.0018997071
158	0xbb83ccb4	-0.0040222052
159	0xbd27211d	-0.040803064
160	0x3d3e6bed	0.046489645
161	0xbc2b4b84	-0.010455016
162	0xbdbec5ce	-0.09315072
163	0x3da7a032	0.08184852
164	0xba65f616	-0.00087723264
165	0x3bcd83c4	0.006271811
166	0xbc9cc016	-0.019134562
167	0xbaa30ecc	-0.0012440323
168	0xbd3d39be	-0.046197645
169	0xbe128f4f	-0.1431248
170	0x3c3e75d9	0.011624777
171	0xbd75460a	-0.059881248
172	0x3bfe3197	0.0077573764
173	0x3d80e191	0.062930234
174	0x3c59c312	0.013291137
175	0x3d1d78f0	0.038445413
176	0x3dd083bc	0.10181376
177	0xbd9bb325	-0.076025285
178	0x3d8b0ead	0.067899086
179	0xbd639b57	-0.055568065
180	0xbd67fcaa	-0.056637444
181	0xba1df1e3	-0.00060251186
182	0xbc3729cc	-0.011179399
183	0x3d3f801f	0.046753045
184	0xbd3fce40	-0.046827555
185	0x3dcbc9be	0.09950589
186	0x3cc3a82e	0.023883905
187	0xbc4c9df0	-0.012488827
188	0xbd277b12	-0.040888853
189	0x3d2de07b	0.04245041
190	0x3d78fa4e	0.060785584
191	0xbd5443cd	-0.051822472
192	0xbbc8fb46	-0.0061334698
193	0xbe1cb659	-0.15303935
194	0xbd37b390	-0.04484898
195	0xbbccbb22	-0.006247894
196	0x3d3b3492	0.04570443
197	0xbcdf79c3	-0.02727974
198	0x3ae4e5cf	0.0017463508
199	0xbd96032b	-0.07324823
200	0x3c23ab9b	0.009989644
201	0x3c7624f1	0.015023456
202	0xbcb83519	-0.022486256
203	0xbdd7bab4	-0.10533658
204	0x3d60ba66	0.054865263
205	0x3d3bcf55	0.045852024
206	0x3d18a4aa	0.03726641
207	0xbd0c1fd1	-0.03421003
208	0x3d9f140d	0.07767496
209	0xbd185057	-0.037185993
210	0x3c37b64d	0.0112128975
211	0x3dc5c752	0.09657158
212	0x3c92d7dc	0.017925195
213	0x3cb57259	0.022149252
214	0x3d0001ef	0.031251844
215	0xbd873d8a	-0.066035345
216	0xbd74e586	-0.059789203
217	0xbd4c088b	-0.049812835
218	0xbcfe282c	-0.031025015
219	0x3d15a438	0.036533564
220	0xbc81d460	-0.015848339
221	0x3cb344c2	0.021883372
222	0xbcb71723	-0.0223499
223	0xbb41fc20	-0.002959974
224	0x3d35925e	0.04432904
225	0xbd09556a	-0.033528723
226	0xbc8f4f26	-0.017493796
227	0xbdaf424f	-0.08557569
228	0x3b9af7e5	0.0047292584
229	0x3cd7fbca	0.02636518
230	0xbd2c0193	-0.04199369
231	0x3cb073b7	0.021539552
232	0x3d6cff2b	0.057860535
233	0xbd869042	-0.06570484
234	0x3cab2406	0.0208912
235	0xbd845e84	-0.0646334
236	0x3e07e230	0.13269877
237	0x3d926ad6	0.071492836
238	0xbd983cd9	-0.07433481
239	0x3ceb6884	0.02873636
240	0xbd292301	-0.041293148
241	0xbcfc9d6a	-0.03083678
242	0x3d70248b	0.0586286
243	0xbd252b04	-0.040324226
244	0x3d97fcdb	0.07421275
245	0xbc354ea2	-0.011066111
246	0x3d608460	0.054813743
247	0x3ce27400	0.027643204
248	0xbddc7b0a	-0.10765655
249	0x3dc684f0	0.096933246
250	0x3d92cb1c	0.07167646
251	0xbd8a583c	-0.067551106
252	0xbd4ce35d	-0.050021518
253	0x3cc30ec1	0.023810746
254	0xbd16f29c	-0.036852464
255	0xbd1a7fed	-0.037719656

lstm.weight_hh_l1 f4 [512, 128]
0	0x3d96a3dd	0.07355473
1	0x3d30d72c	0.043173954
2	0xbad09c6f	-0.0015915761
3	0xbda1221e	-0.078678355
4	0x3bc68af7	0.0060590464
5	0xbdb1d915	-0.08683983
6	0x3d8f7cd2	0.070062295
7	0x3c93db6d	0.018048966
8	0x3cc15a7f	0.023602722
9	0x3d8870a6	0.06662111
10	0xb93637ad	-0.00017377613
11	0x3b8a12b7	0.0042136568
12	0xbcc8aab2	-0.024495456
13	0xbd76bdb4	-0.06023951
14	0x3c31ed8b	0.010859857
15	0x3d97cba0	0.07411885
16	0x3c5e5067	0.013568974
17	0xbb9937b5	-0.0046758302
18	0xbccdb483	-0.025110489
19	0xbc089882	-0.008337142
20	0x3db3bf67	0.087767415
21	0x3d8d56b2	0.069013014
22	0x3d9aaa8d	0.07552061
23	0xbc58591e	-0.013204841
24	0xbd27d2ed	-0.04097264
25	0xbd4b6cb4	-0.049664214
26	0x3d7c6203	0.06161691
27	0xbd995a70	-0.07487953
28	0x3d250b27	0.04029384
29	0xbdbbad79	-0.09163947
30	0x3d821187	0.06350999
31	0xbd162d58	-0.036664337
32	0xbd884631	-0.06654013
33	0x3d5041fa	0.05084417
34	0xbd91804b	-0.07104548
35	0xbdb11078	-0.08645719
36	0x3dce3095	0.1006786
37	0xbcb0aa8d	-0.0215657
38	0x3c110315	0.0088508325
39	0xbc38f749	-0.011289426
40	0xbc9e1fb7	-0.019302232
41	0xbd72aac7	-0.059244897
42	0xbd82b43c	-0.06382033
43	0xbba4ff7f	-0.0050353403
44	0xbc8cf361	-0.017205896
45	0xbdbfa74e	-0.09358083
46	0xbd1c167d	-0.038107384
47	0x3d99bba1	0.075064905
48	0xbd22b3e3	-0.039722335
49	0xbce5f130	-0.028069109
50	0x3dc3cf37	0.095610075
51	0xba5917b1	-0.00082814234
52	0x3d7b2bf9	0.061321232
53	0x3ccecbe4	0.025243707
54	0xbd9dfc27	-0.0771411
55	0xbd91e4ac	-0.07123694
56	0xbc7458a3	-0.014913711
57	0xbd407c8d	-0.04699378
58	0xbcac296a	-0.021015842
59	0x3d5bba26	0.05364432
60	0xbd09f54a	-0.03368119
61	0xbd0b13cf	-0.033954438
62	0xbd76cabd	-0.06025194
63	0xbcd0df48	-0.025497094
64	0xbd951220	-0.07278848
65	0x3c20abc9	0.009806582
66	0x3bcacfa7	0.006189305
67	0xbc71865b	-0.0147415055
68	0xbd18ced7	-0.037306633
69	0xbd212180	-0.03933859
70	0xbd38008c	-0.044922397
71	0xbd953d0b	-0.07287034
72	0xbd0c7422	-0.03429044
73	0x3db31a03	0.08745196
74	0xbd6c1ce3	-0.057644736
75	0x3dbfcda6	0.09365396
76	0x3d93d684	0.0721865
77	0xbd17a37d	-0.03702115
78	0x3d8bd410	0.06827557
79	0xbd1a51bd	-0.037675608
80	0xbd7ecc3d	-0.062206496
81	0xbb516582	-0.0031951373
82	0xbd1a49c6	-0.037668012
83	0xbcd35401	-0.025796892
84	0xbc059884	-0.008154038
85	0x3d4b728e	0.049669795
86	0xbd30cb75	-0.04316278
87	0xbd09111c	-0.033463582
88	0xbd90968b	-0.07059964
89	0xbd803251	-0.06259597
90	0xbd15f7ff	-0.03661346
91	0xbd214f54	-0.039382294
92	0xbbe40a91	-0.0069592674
93	0xbd9b006a	-0.07568438
94	0x3daa0b7a	0.0830297
95	0xbd73c9c3	-0.059518587
96	0x3c843e32	0.016142938
97	0xbcdbf69b	-0.02685099
98	0xbd39f98f	-0.045404013
99	0xbd95226c	-0.07281956
100	0xbbb0a907	-0.0053912434
101	0x3d66abdb	0.056316238
102	0x3d46b15d	0.04850899
103	0xbb6612bb	-0.003510638
104	0xbce7434e	-0.028230336
105	0x3c244cfc	0.01002812
106	0xbe210d5f	-0.15727757
107	0xbbf30fc5	-0.0074176514
108	0x3c4b4b8a	0.012408147
109	0x3bb50132	0.005523824
110	0x3d37443d	0.04474281
111	0x3bb2e1e4	0.005459057
112	0xbd3a1181	-0.04542685
113	0x3d88f7c6	0.06687884
114	0x3d12fb2a	0.03588406
115	0x3d364ffd	0.044509877
116	0x3bf1eb33	0.0073827743
117	0x3d929e74	0.07159129
118	0xbd7ddd65	-0.061978716
119	0xbd98e08e	-0.074647054
120	0x3c8f8700	0.017520428
121	0xbd18c3e5	-0.037296195
122	0x3d8175b6	0.0632128
123	0x3d710fb0	0.05885285
124	0xbd69ff21	-0.057128076
125	0xbc994e9c	-0.018714242
126	0xbd1b285d	-0.03788029
127	0xbcd44e4a	-0.025916237
128	0xbdc0f3ef	-0.09421527
129	0xbdbfd844	-0.09367421
130	0x3da198e1	0.078904875
131	0xbdcb618c	-0.09930715
132	0x3da79539	0.08182759
133	0xbd57389a	-0.052544214
134	0x3d04731e	0.032336347
135	0xbd16bd93	-0.036801886
136	0xbcc443fe	-0.023958202
137	0xbcff055b	-0.031130483
138	0xbd2887aa	-0.041145004
139	0xbcbb63ff	-0.02287483
140	0x3d8b3867	0.06797867
141	0xbd8533f6	-0.065040514
142	0xbd4b5a26	-0.04964652
143	0xbc421ca8	-0.0118476525
144	0xbcdba878	-0.02681373
145	0xbdb326a2	-0.08747603
146	0x3dc91035	0.09817544
147	0x3d619edc	0.05508314
148	0x3d62065b	0.055181842
149	0xbcdd8e6e	-0.027045455
150	0x3b7b818f	0.0038376783
151	0x3ce5d0db	0.028053692
152	0xbcfe1e9c	-0.031020455
153	0x3c988947	0.018620146
154	0x3d54f3fb	0.05199049
155	0x3d9b7f07	0.07592588
156	0xbc296746	-0.010339564
157	0xbd0fa0d5	-0.03506549
158	0x3d3bc8f8	0.045845956
159	0x3cd4bca3	0.025968855
160	0xbd97cfdf	-0.07412695
161	0xbd50cb3d	-0.050975073
162	0x3d85ade3	0.06527307
163	0x3d5c5217	0.053789224
164	0x3b809516	0.0039240224
165	0xbd77e306	-0.06051924
166	0x3cb5a919	0.022175359
167	0x3cf971fb	0.030449858
168	0x3dae03a0	0.08496785
169	0xbe0a4d50	-0.13506055
170	0xbd0283cb	-0.03186397
171	0x3d81d149	0.06338746
172	0xbda63a0a	-0.08116539
173	0x3dce22dc	0.10065243
174	0x3d616e18	0.055036634
175	0xbd02ac96	-0.031902872
176	0xbd8ac5ba	-0.067759946
177	0xbd3bf4b2	-0.045887657
178	0xbce02811	-0.027362855
179	0x3d8222bc	0.06354281
180	0xbd285f3f	-0.04110646
181	0xbc25d36c	-0.010121208
182	0xbc377759	-0.011197888
183	0x3d3a000a	0.045410194
184	0x3c317a7f	0.010832428
185	0xbd4f27ab	-0.05057494
186	0x3dbea987	0.093096785
187	0x3d5949df	0.053048965
188	0xbce36d0f	-0.027761964
189	0xbd07e880	-0.033180714
190	0xbd05065d	-0.03247677
191	0x3d7bc6a2	0.061468728
192	0xbd870274	-0.06592265
193	0xbcb942dd	-0.02261489
194	0x3cf2ebb9	0.029653417
195	0x3d918c5b	0.07106849
196	0xbdc6476b	-0.09681591
197	0xbd6de539	-0.058079932
198	0xbd967068	-0.073456585
199	0xbce98ec2	-0.028510455
200	0x3ce372b8	0.027764663
201	0x3dad96f1	0.084760554
202	0xbd32c1da	-0.043641903
203	0x3b1f21ee	0.0024281698
204	0xbc12fb4f	-0.008971049
205	0x3dafc0c4	0.08581689
206	0xbc10c2f5	-0.008835544
207	0x3ce726e1	0.028216781
208	0xbcf485df	-0.029848991
209	0xbd55e4a7	-0.052220013
210	0xbdbfe54d	-0.093699075
211	0xbda16943	-0.07881405
212	0x3d96578b	0.07340916
213	0x3ac178ca	0.0014760729
214	0x3d08d931	0.033410255
215	0x3d85f453	0.06540742
216	0x3d5fa549	0.054600988
217	0xbd8c855e	-0.06861375
218	0xbd0d59f5	-0.034509618
219	0xbd00b2a4	-0.031420365
220	0xbd815983	-0.06315901
221	0x3dade204	0.08490375
222	0xbd19020d	-0.03735547
223	0xbcee36ca	-0.02907886
224	0xbd296b6c	-0.04136221
225	0xbba2c734	-0.0049675945
226	0xbda94c76	-0.08266537
227	0x3cad77f7	0.021175368
228	0x3d60dec1	0.054899935
229	0x3d477ba0	0.048701882
230	0x3d198ee6	0.037489794
231	0x3cdcf750	0.026973397
232	0xbcf9c690	-0.03049019
233	0x3d87c5f0	0.066295505
234	0x3b5d6ead	0.0033787892
235	0xbc931dfd	-0.017958635
236	0x3bce3689	0.006293122
237	0x3d302511	0.0430041
238	0xbd115a04	-0.035486236
239	0x3da4bf85	0.08044342
240	0xbd5be785	-0.05368759
241	0x3c3a5f8c	0.011375319
242	0xbd3c5dbd	-0.045987833
243	0xbdb921a4	-0.090396196
244	0x3d49789e	0.049187295
245	0xbd5cb0af	-0.053879436
246	0xbdde8eb4	-0.10867062
247	0x3c0ee65a	0.008721912
248	0xbc499a1f	-0.012304812
249	0xbd90e65a	-0.07075186
250	0x3d73efc3	0.059554826
251	0x3cd5d0f1	0.026100608
252	0xbd8f410d	-0.06994829
253	0xbd61ac54	-0.055095986
254	0xbda5d71b	-0.08097669
255	0xbd12ecd2	-0.03587038

lstm.bias_ih_l1 f4 [512]
0	0xbba752ff	-0.0051063295
1	0xbc720f15	-0.014774104
2	0x3d8b53a2	0.06803061
3	0xbd502a51	-0.050821606
4	0x3d0691f8	0.03285405
5	0xbd37dff0	-0.044891298
6	0x3cf8d153	0.030373251
7	0x3aed954b	0.0018126158
8	0x3ca86ea0	0.020560563
9	0x3da8d904	0.082445174
10	0x3d1eb381	0.038745407
11	0x3d2043d9	0.039127205
12	0x3c98ba8d	0.018643642
13	0xbda41fe6	-0.08013897
14	0xbd74a36e	-0.05972617
15	0xbb807ba0	-0.0039209872
16	0xbdc71651	-0.097210534
17	0x3c1b3da8	0.009475149
18	0x3d6a2db6	0.0571725
19	0x3d8d8a69	0.06911165
20	0x3da80135	0.08203355
21	0xbd99c66b	-0.07508548
22	0xbdacaf40	-0.08431864
23	0xbd9b5d3c	-0.075861424
24	0xbd1790aa	-0.037003197
25	0xbb4aa075	-0.0030918394
26	0x3d2bf44c	0.041981027
27	0xbc974ccf	-0.018469242
28	0x3d45d56f	0.04829925
29	0x3b5693f8	0.0032742005
30	0x3ce518c6	0.027965914
31	0xbcb3f795	-0.021968642
32	0x3d598dec	0.053113863
33	0x3ca31258	0.019906208
34	0xbda04a95	-0.078267254
35	0xbcc69b26	-0.024243902
36	0x3d55eaf6	0.05222603
37	0xbda878c4	-0.08226159
38	0xbbf9c225	-0.007622021
39	0x3cfbd778	0.030742392
40	0xbce14e74	-0.02750323
41	0xbdae5abe	-0.085134014
42	0xbd62c1ee	-0.055360727
43	0xbcd4bb5f	-0.025968252
44	0xbd66b5f9	-0.056325886
45	0xbd1b4ec3	-0.03791691
46	0x3c897ed1	0.016784104
47	0x3b8274c3	0.0039812042
48	0xbd7b0f07	-0.061293628
49	0x3d120adf	0.0356549
50	0xbcf170d4	-0.029472746
51	0x3d8ee6c8	0.06977612
52	0xbca509c3	-0.020146256
53	0xbdc6d59c	-0.097087115
54	0x3c360ff8	0.011112206
55	0xbd28d5ac	-0.0412194
56	0x3d37c833	0.04486866
57	0xbdaf515b	-0.08560439
58	0x3d1644a5	0.03668656
59	0x3d8f859c	0.07007906
60	0x3d0ea139	0.034821723
61	0xbd0bb344	-0.034106508
62	0x3d020933	0.031747054
63	0x3c86a9c7	0.016438378
64	0xbd13c754	-0.036078766
65	0xbd35d134	-0.044388965
66	0x3d540631	0.051763717
67	0xbc302f7d	-0.01075351
68	0xbda49024	-0.08035305
69	0xbdd8b875	-0.105820574
70	0xbdb2e91b	-0.087358676
71	0xbd02f83f	-0.031975027
72	0x3ce3f566	0.027826976
73	0x3d7b9afc	0.0614271
74	0xbddd78f3	-0.10814085
75	0xbddcc5af	-0.10779893
76	0x3b498b9a	0.0030753375
77	0x3d325078	0.043533772
78	0xbd9bdb10	-0.07610142
79	0xbd886c14	-0.06661239
80	0xbc7fa440	-0.015603125
81	0xbcdac6a6	-0.026706051
82	0xbd89faee	-0.06737314
83	0xb98a4a74	-0.00026376883
84	0xbcbf48e4	-0.023350187
85	0xbd8bf64a	-0.06834085
86	0x3d84afbb	0.064788304
87	0xbc72c0f6	-0.014816513
88	0x3d962e2a	0.07333024
89	0x3d9c0234	0.07617608
90	0xbcc57ede	-0.024108347
91	0xbc520c00	-0.012820244
92	0x3d325033	0.043533515
93	0xbc94bede	-0.018157419
94	0x3bfea76a	0.007771422
95	0x3d99328b	0.074803434
96	0xbc84d362	-0.016214076
97	0xbc89a24e	-0.016801026
98	0xbc54f4ca	-0.012997815
99	0xbc840961	-0.016117753
100	0xbda24373	-0.07923021
101	0x3d8c2483	0.068429016
102	0xbda73361	-0.081640966
103	0x3d66dc22	0.05636228
104	0xbd2f3442	-0.042774446
105	0xbccfc5c4	-0.025362857
106	0x3da990aa	0.082795456
107	0x3d1df67a	0.038565136
108	0x3d4cb999	0.049981687
109	0xbd3c7a52	-0.04601509
110	0xbd8f1688	-0.06986719
111	0xbd93c74b	-0.072157465
112	0xbd863955	-0.06553904
113	0x3cdf0bc1	0.027227284
114	0xbc8ddd8c	-0.017317556
115	0xbd33675e	-0.04379975
116	0x3d03f6c4	0.032217756
117	0xbd8a3192	-0.06747736
118	0x3d77c0ca	0.060486592
119	0xbda48acc	-0.08034286
120	0x3c9cdd24	0.019148417
121	0xbd160498	-0.036625475
122	0xbc1557c9	-0.009115168
123	0xbd650ef9	-0.055922482
124	0xbc32af45	-0.010906045
125	0xbd6867d4	-0.056739643
126	0xbde1c92a	-0.11024697
127	0x3daf8823	0.08570888
128	0xbdb5e521	-0.088815935
129	0xbd8537f6	-0.06504814
130	0x3d6ff30e	0.058581404
131	0x3d321e24	0.043485776
132	0xbdbbf078	-0.09176725
133	0x3ca6c40d	0.020357156
134	0xbdc18bf0	-0.09450519
135	0x3d928804	0.07154849
136	0xbce0c2f0	-0.027436703
137	0x3d130a40	0.035898447
138	0xbd8a4581	-0.06751538
139	0xbdc1cc1a	-0.094627574
140	0x3d94715a	0.072481826
141	0x3d472ea3	0.04862846
142	0x3d9f9ba5	0.07793359
143	0xbcd73e1c	-0.026274733
144	0xbcf7c3be	-0.030244704
145	0xbd1e4655	-0.038641293
146	0xbd8bdb3b	-0.06828924
147	0xbd85f05c	-0.065399855
148	0xbd3e5037	-0.046463218
149	0x3d9b1af9	0.07573504
150	0x3d9d56df	0.07682585
151	0xbd1207ae	-0.035651855
152	0xbd634e4e	-0.0554946
153	0x3d0e3710	0.03472048
154	0x3d779215	0.06044205
155	0x3b39162d	0.0028241978
156	0xbd638da0	-0.055554986
157	0x3b9c4386	0.0047687916
158	0x3c2a74dc	0.010403838
159	0xbdc5d206	-0.096591994
160	0xbc86e97e	-0.01646876
161	0xbdb22fd9	-0.087005325
162	0xbcbe40b6	-0.023224216
163	0x3cccfb00	0.02502203
164	0xbdd950ae	-0.106110916
165	0x3cb37bb1	0.021909567
166	0xbd82d763	-0.06388738
167	0xbd57834d	-0.052615453
168	0xbce3936b	-0.027780255
169	0xbde08935	-0.1096367
170	0x3d087746	0.033316873
171	0xbd805577	-0.06266301
172	0xbc686740	-0.014184773
173	0xbcc93e62	-0.02456588
174	0x3c2b04b2	0.010438131
175	0xbd91e601	-0.07123948
176	0x3d2198a2	0.039452203
177	0xbd082df8	-0.033246964
178	0xbd3377a7	-0.04381528
179	0xbcafeada	-0.02147429
180	0xbd1d9a45	-0.0384772
181	0xbd822d60	-0.06356311
182	0x3d6db36b	0.058032434
183	0xbdbe3280	-0.09286976
184	0xbc978078	-0.018493876
185	0x3b9529dd	0.0045521096
186	0x3b9dcf90	0.004816003
187	0x3c10ab9e	0.008829979
188	0xbd984934	-0.074358374
189	0xbbc5de6b	-0.006038477
190	0x3d544d1e	0.051831357
191	0xbd10bbba	-0.03533528
192	0xbd903921	-0.070421465
193	0x3d578819	0.052620027
194	0x3da84a0d	0.08217249
195	0x3d33f3d5	0.04393371
196	0x3d12ce0e	0.03584104
197	0xbd593634	-0.053030208
198	0x3c5f36d1	0.013623909
199	0xbcd5caf3	-0.02609775
200	0x3c53191d	0.012884405
201	0xba52d64b	-0.00080427964
202	0xbd6e4e9b	-0.058180433
203	0xbd84bb79	-0.0648107
204	0x3c2b328d	0.010449064
205	0x3cff1315	0.031137029
206	0xbd74718b	-0.059678596
207	0xbdb63d1d	-0.08898375
208	0xbd37831f	-0.04480278
209	0xbd877f0e	-0.06616031
210	0x3d3de9f7	0.046365704
211	0x3da32a82	0.07967092
212	0x3d235bc4	0.039882436
213	0xbce5b342	-0.028039578
214	0x3cacb3ed	0.021081889
215	0xbd69021d	-0.05688678
216	0xbd86f6d2	-0.06590046
217	0xbd9b5855	-0.075852074
218	0x3cb273a0	0.02178365
219	0xbcb5fa3f	-0.022214053
220	0x3cc57d68	0.02410765
221	0x3bad1abb	0.0052827275
222	0xbda4bce8	-0.080438435
223	0x3d979a02	0.074024215
224	0xbd58ec20	-0.05295956
225	0x3d24ac84	0.040203586
226	0x3d9ab31e	0.07553695
227	0xbc9feb19	-0.019521283
228	0xbc7d2b68	-0.015452243
229	0x3d84d108	0.06485182
230	0x3d29d6c2	0.041464575
231	0xbd75f7d8	-0.060050815
232	0x3d243209	0.04008678
233	0xbd900a25	-0.07033185
234	0xbb8675fe	-0.0041034212
235	0xbc61f9fd	-0.013792512
236	0xbaa11fce	-0.0012292804
237	0x3d8a576e	0.06754957
238	0x3d2a1988	0.041528255
239	0xbd83ba3a	-0.06432004
240	0xbcd782a5	-0.026307413
241	0xbd0901cc	-0.03344898
242	0x3d351436	0.044208728
243	0xbdb84cd5	-0.089990295
244	0x3bc2a63e	0.005940228
245	0x3ce2c1ee	0.027680364
246	0x3b134b18	0.002247518
247	0xbda2cd36	-0.07949297
248	0xbc819bce	-0.015821364
249	0xbdcc4ac7	-0.099752
250	0xbc846eb4	-0.016166069
251	0x3d8cd8e6	0.068773076
252	0xbcc0ca8f	-0.023534087
253	0x3d5f618c	0.054536387
254	0x3d0333ca	0.03203181
255	0xbd52e8eb	-0.05149166
